{"format": "graph-model", "generatedBy": "1.15.0", "convertedBy": "TensorFlow.js Converter v3.0.0", "signature": {"outputs": {"gen/A/deconv3/output:0": {"name": "gen/A/deconv3/output:0"}}}, "modelTopology": {"node": [{"name": "inputB", "op": "Placeholder", "attr": {"dtype": {"type": "DT_FLOAT"}, "shape": {"shape": {"dim": [{"size": "-1"}, {"size": "128"}, {"size": "128"}, {"size": "3"}]}}}}, {"name": "gen/A/conv1/W", "op": "Const", "attr": {"dtype": {"type": "DT_FLOAT"}, "value": {"tensor": {"dtype": "DT_FLOAT", "tensorShape": {"dim": [{"size": "4"}, {"size": "4"}, {"size": "64"}, {"size": "128"}]}}}}}, {"name": "gen/A/conv1/inorm/moments/mean/reduction_indices", "op": "Const", "attr": {"dtype": {"type": "DT_INT32"}, "value": {"tensor": {"dtype": "DT_INT32", "tensorShape": {"dim": [{"size": "2"}]}}}}}, {"name": "gen/A/conv1/inorm/Reshape", "op": "Const", "attr": {"value": {"tensor": {"dtype": "DT_FLOAT", "tensorShape": {"dim": [{"size": "1"}, {"size": "1"}, {"size": "1"}, {"size": "128"}]}}}, "dtype": {"type": "DT_FLOAT"}}}, {"name": "gen/A/conv1/inorm/Reshape_1", "op": "Const", "attr": {"dtype": {"type": "DT_FLOAT"}, "value": {"tensor": {"dtype": "DT_FLOAT", "tensorShape": {"dim": [{"size": "1"}, {"size": "1"}, {"size": "1"}, {"size": "128"}]}}}}}, {"name": "gen/A/conv1/inorm/output/add/y", "op": "Const", "attr": {"value": {"tensor": {"dtype": "DT_FLOAT", "tensorShape": {}}}, "dtype": {"type": "DT_FLOAT"}}}, {"name": "gen/A/layer1/res0/conv0/W", "op": "Const", "attr": {"value": {"tensor": {"dtype": "DT_FLOAT", "tensorShape": {"dim": [{"size": "3"}, {"size": "3"}, {"size": "128"}, {"size": "128"}]}}}, "dtype": {"type": "DT_FLOAT"}}}, {"name": "gen/A/deconv2/W", "op": "Const", "attr": {"dtype": {"type": "DT_FLOAT"}, "value": {"tensor": {"dtype": "DT_FLOAT", "tensorShape": {"dim": [{"size": "4"}, {"size": "4"}, {"size": "64"}, {"size": "128"}]}}}}}, {"name": "gen/A/layer1/res0/conv0/inorm/Reshape", "op": "Const", "attr": {"value": {"tensor": {"dtype": "DT_FLOAT", "tensorShape": {"dim": [{"size": "1"}, {"size": "1"}, {"size": "1"}, {"size": "128"}]}}}, "dtype": {"type": "DT_FLOAT"}}}, {"name": "gen/A/layer1/res0/conv0/inorm/Reshape_1", "op": "Const", "attr": {"value": {"tensor": {"dtype": "DT_FLOAT", "tensorShape": {"dim": [{"size": "1"}, {"size": "1"}, {"size": "1"}, {"size": "128"}]}}}, "dtype": {"type": "DT_FLOAT"}}}, {"name": "gen/A/layer1/res0/conv1/W", "op": "Const", "attr": {"value": {"tensor": {"dtype": "DT_FLOAT", "tensorShape": {"dim": [{"size": "3"}, {"size": "3"}, {"size": "128"}, {"size": "128"}]}}}, "dtype": {"type": "DT_FLOAT"}}}, {"name": "gen/A/layer1/res0/conv1/inorm/Reshape", "op": "Const", "attr": {"value": {"tensor": {"dtype": "DT_FLOAT", "tensorShape": {"dim": [{"size": "1"}, {"size": "1"}, {"size": "1"}, {"size": "128"}]}}}, "dtype": {"type": "DT_FLOAT"}}}, {"name": "gen/A/layer1/res0/conv1/inorm/Reshape_1", "op": "Const", "attr": {"value": {"tensor": {"dtype": "DT_FLOAT", "tensorShape": {"dim": [{"size": "1"}, {"size": "1"}, {"size": "1"}, {"size": "128"}]}}}, "dtype": {"type": "DT_FLOAT"}}}, {"name": "gen/A/layer1/res0/concat/axis", "op": "Const", "attr": {"value": {"tensor": {"dtype": "DT_INT32", "tensorShape": {}}}, "dtype": {"type": "DT_INT32"}}}, {"name": "gen/A/layer1/res0/conv2/W", "op": "Const", "attr": {"value": {"tensor": {"dtype": "DT_FLOAT", "tensorShape": {"dim": [{"size": "3"}, {"size": "3"}, {"size": "256"}, {"size": "128"}]}}}, "dtype": {"type": "DT_FLOAT"}}}, {"name": "gen/A/layer1/res0/conv2/inorm/Reshape", "op": "Const", "attr": {"dtype": {"type": "DT_FLOAT"}, "value": {"tensor": {"dtype": "DT_FLOAT", "tensorShape": {"dim": [{"size": "1"}, {"size": "1"}, {"size": "1"}, {"size": "128"}]}}}}}, {"name": "gen/A/layer1/res0/conv2/inorm/Reshape_1", "op": "Const", "attr": {"value": {"tensor": {"dtype": "DT_FLOAT", "tensorShape": {"dim": [{"size": "1"}, {"size": "1"}, {"size": "1"}, {"size": "128"}]}}}, "dtype": {"type": "DT_FLOAT"}}}, {"name": "gen/A/layer1/res1/conv0/W", "op": "Const", "attr": {"value": {"tensor": {"dtype": "DT_FLOAT", "tensorShape": {"dim": [{"size": "3"}, {"size": "3"}, {"size": "128"}, {"size": "128"}]}}}, "dtype": {"type": "DT_FLOAT"}}}, {"name": "gen/A/layer1/res1/conv0/inorm/Reshape", "op": "Const", "attr": {"value": {"tensor": {"dtype": "DT_FLOAT", "tensorShape": {"dim": [{"size": "1"}, {"size": "1"}, {"size": "1"}, {"size": "128"}]}}}, "dtype": {"type": "DT_FLOAT"}}}, {"name": "gen/A/layer1/res1/conv0/inorm/Reshape_1", "op": "Const", "attr": {"dtype": {"type": "DT_FLOAT"}, "value": {"tensor": {"dtype": "DT_FLOAT", "tensorShape": {"dim": [{"size": "1"}, {"size": "1"}, {"size": "1"}, {"size": "128"}]}}}}}, {"name": "gen/A/layer1/res1/conv1/W", "op": "Const", "attr": {"value": {"tensor": {"dtype": "DT_FLOAT", "tensorShape": {"dim": [{"size": "3"}, {"size": "3"}, {"size": "128"}, {"size": "128"}]}}}, "dtype": {"type": "DT_FLOAT"}}}, {"name": "gen/A/layer1/res1/conv1/inorm/Reshape", "op": "Const", "attr": {"value": {"tensor": {"dtype": "DT_FLOAT", "tensorShape": {"dim": [{"size": "1"}, {"size": "1"}, {"size": "1"}, {"size": "128"}]}}}, "dtype": {"type": "DT_FLOAT"}}}, {"name": "gen/A/layer1/res1/conv1/inorm/Reshape_1", "op": "Const", "attr": {"dtype": {"type": "DT_FLOAT"}, "value": {"tensor": {"dtype": "DT_FLOAT", "tensorShape": {"dim": [{"size": "1"}, {"size": "1"}, {"size": "1"}, {"size": "128"}]}}}}}, {"name": "gen/A/layer1/res1/conv2/W", "op": "Const", "attr": {"dtype": {"type": "DT_FLOAT"}, "value": {"tensor": {"dtype": "DT_FLOAT", "tensorShape": {"dim": [{"size": "3"}, {"size": "3"}, {"size": "256"}, {"size": "128"}]}}}}}, {"name": "gen/A/layer1/res1/conv2/inorm/Reshape", "op": "Const", "attr": {"dtype": {"type": "DT_FLOAT"}, "value": {"tensor": {"dtype": "DT_FLOAT", "tensorShape": {"dim": [{"size": "1"}, {"size": "1"}, {"size": "1"}, {"size": "128"}]}}}}}, {"name": "gen/A/layer1/res1/conv2/inorm/Reshape_1", "op": "Const", "attr": {"value": {"tensor": {"dtype": "DT_FLOAT", "tensorShape": {"dim": [{"size": "1"}, {"size": "1"}, {"size": "1"}, {"size": "128"}]}}}, "dtype": {"type": "DT_FLOAT"}}}, {"name": "gen/A/layer1/res2/conv0/W", "op": "Const", "attr": {"dtype": {"type": "DT_FLOAT"}, "value": {"tensor": {"dtype": "DT_FLOAT", "tensorShape": {"dim": [{"size": "3"}, {"size": "3"}, {"size": "128"}, {"size": "128"}]}}}}}, {"name": "gen/A/layer1/res2/conv0/inorm/Reshape", "op": "Const", "attr": {"dtype": {"type": "DT_FLOAT"}, "value": {"tensor": {"dtype": "DT_FLOAT", "tensorShape": {"dim": [{"size": "1"}, {"size": "1"}, {"size": "1"}, {"size": "128"}]}}}}}, {"name": "gen/A/layer1/res2/conv0/inorm/Reshape_1", "op": "Const", "attr": {"dtype": {"type": "DT_FLOAT"}, "value": {"tensor": {"dtype": "DT_FLOAT", "tensorShape": {"dim": [{"size": "1"}, {"size": "1"}, {"size": "1"}, {"size": "128"}]}}}}}, {"name": "gen/A/layer1/res2/conv1/W", "op": "Const", "attr": {"dtype": {"type": "DT_FLOAT"}, "value": {"tensor": {"dtype": "DT_FLOAT", "tensorShape": {"dim": [{"size": "3"}, {"size": "3"}, {"size": "128"}, {"size": "128"}]}}}}}, {"name": "gen/A/layer1/res2/conv1/inorm/Reshape", "op": "Const", "attr": {"dtype": {"type": "DT_FLOAT"}, "value": {"tensor": {"dtype": "DT_FLOAT", "tensorShape": {"dim": [{"size": "1"}, {"size": "1"}, {"size": "1"}, {"size": "128"}]}}}}}, {"name": "gen/A/layer1/res2/conv1/inorm/Reshape_1", "op": "Const", "attr": {"dtype": {"type": "DT_FLOAT"}, "value": {"tensor": {"dtype": "DT_FLOAT", "tensorShape": {"dim": [{"size": "1"}, {"size": "1"}, {"size": "1"}, {"size": "128"}]}}}}}, {"name": "gen/A/layer1/res2/conv2/W", "op": "Const", "attr": {"dtype": {"type": "DT_FLOAT"}, "value": {"tensor": {"dtype": "DT_FLOAT", "tensorShape": {"dim": [{"size": "3"}, {"size": "3"}, {"size": "256"}, {"size": "128"}]}}}}}, {"name": "gen/A/layer1/res2/conv2/inorm/Reshape", "op": "Const", "attr": {"value": {"tensor": {"dtype": "DT_FLOAT", "tensorShape": {"dim": [{"size": "1"}, {"size": "1"}, {"size": "1"}, {"size": "128"}]}}}, "dtype": {"type": "DT_FLOAT"}}}, {"name": "gen/A/layer1/res2/conv2/inorm/Reshape_1", "op": "Const", "attr": {"value": {"tensor": {"dtype": "DT_FLOAT", "tensorShape": {"dim": [{"size": "1"}, {"size": "1"}, {"size": "1"}, {"size": "128"}]}}}, "dtype": {"type": "DT_FLOAT"}}}, {"name": "gen/A/conv2/W", "op": "Const", "attr": {"dtype": {"type": "DT_FLOAT"}, "value": {"tensor": {"dtype": "DT_FLOAT", "tensorShape": {"dim": [{"size": "4"}, {"size": "4"}, {"size": "128"}, {"size": "256"}]}}}}}, {"name": "gen/A/conv2/inorm/Reshape", "op": "Const", "attr": {"value": {"tensor": {"dtype": "DT_FLOAT", "tensorShape": {"dim": [{"size": "1"}, {"size": "1"}, {"size": "1"}, {"size": "256"}]}}}, "dtype": {"type": "DT_FLOAT"}}}, {"name": "gen/A/conv2/inorm/Reshape_1", "op": "Const", "attr": {"value": {"tensor": {"dtype": "DT_FLOAT", "tensorShape": {"dim": [{"size": "1"}, {"size": "1"}, {"size": "1"}, {"size": "256"}]}}}, "dtype": {"type": "DT_FLOAT"}}}, {"name": "gen/A/layer2/res0/conv0/W", "op": "Const", "attr": {"dtype": {"type": "DT_FLOAT"}, "value": {"tensor": {"dtype": "DT_FLOAT", "tensorShape": {"dim": [{"size": "3"}, {"size": "3"}, {"size": "256"}, {"size": "256"}]}}}}}, {"name": "gen/A/deconv2/inorm/Reshape", "op": "Const", "attr": {"dtype": {"type": "DT_FLOAT"}, "value": {"tensor": {"dtype": "DT_FLOAT", "tensorShape": {"dim": [{"size": "1"}, {"size": "1"}, {"size": "1"}, {"size": "64"}]}}}}}, {"name": "gen/A/layer2/res0/conv0/inorm/Reshape", "op": "Const", "attr": {"dtype": {"type": "DT_FLOAT"}, "value": {"tensor": {"dtype": "DT_FLOAT", "tensorShape": {"dim": [{"size": "1"}, {"size": "1"}, {"size": "1"}, {"size": "256"}]}}}}}, {"name": "gen/A/layer2/res0/conv0/inorm/Reshape_1", "op": "Const", "attr": {"dtype": {"type": "DT_FLOAT"}, "value": {"tensor": {"dtype": "DT_FLOAT", "tensorShape": {"dim": [{"size": "1"}, {"size": "1"}, {"size": "1"}, {"size": "256"}]}}}}}, {"name": "gen/A/layer2/res0/conv1/W", "op": "Const", "attr": {"dtype": {"type": "DT_FLOAT"}, "value": {"tensor": {"dtype": "DT_FLOAT", "tensorShape": {"dim": [{"size": "3"}, {"size": "3"}, {"size": "256"}, {"size": "256"}]}}}}}, {"name": "gen/A/layer2/res0/conv1/inorm/Reshape", "op": "Const", "attr": {"dtype": {"type": "DT_FLOAT"}, "value": {"tensor": {"dtype": "DT_FLOAT", "tensorShape": {"dim": [{"size": "1"}, {"size": "1"}, {"size": "1"}, {"size": "256"}]}}}}}, {"name": "gen/A/layer2/res0/conv1/inorm/Reshape_1", "op": "Const", "attr": {"dtype": {"type": "DT_FLOAT"}, "value": {"tensor": {"dtype": "DT_FLOAT", "tensorShape": {"dim": [{"size": "1"}, {"size": "1"}, {"size": "1"}, {"size": "256"}]}}}}}, {"name": "gen/A/layer2/res0/conv2/W", "op": "Const", "attr": {"dtype": {"type": "DT_FLOAT"}, "value": {"tensor": {"dtype": "DT_FLOAT", "tensorShape": {"dim": [{"size": "3"}, {"size": "3"}, {"size": "512"}, {"size": "256"}]}}}}}, {"name": "gen/A/layer2/res0/conv2/inorm/Reshape", "op": "Const", "attr": {"dtype": {"type": "DT_FLOAT"}, "value": {"tensor": {"dtype": "DT_FLOAT", "tensorShape": {"dim": [{"size": "1"}, {"size": "1"}, {"size": "1"}, {"size": "256"}]}}}}}, {"name": "gen/A/layer2/res0/conv2/inorm/Reshape_1", "op": "Const", "attr": {"dtype": {"type": "DT_FLOAT"}, "value": {"tensor": {"dtype": "DT_FLOAT", "tensorShape": {"dim": [{"size": "1"}, {"size": "1"}, {"size": "1"}, {"size": "256"}]}}}}}, {"name": "gen/A/layer2/res1/conv0/W", "op": "Const", "attr": {"dtype": {"type": "DT_FLOAT"}, "value": {"tensor": {"dtype": "DT_FLOAT", "tensorShape": {"dim": [{"size": "3"}, {"size": "3"}, {"size": "256"}, {"size": "256"}]}}}}}, {"name": "gen/A/deconv2/inorm/Reshape_1", "op": "Const", "attr": {"value": {"tensor": {"dtype": "DT_FLOAT", "tensorShape": {"dim": [{"size": "1"}, {"size": "1"}, {"size": "1"}, {"size": "64"}]}}}, "dtype": {"type": "DT_FLOAT"}}}, {"name": "gen/A/layer2/res1/conv0/inorm/Reshape", "op": "Const", "attr": {"dtype": {"type": "DT_FLOAT"}, "value": {"tensor": {"dtype": "DT_FLOAT", "tensorShape": {"dim": [{"size": "1"}, {"size": "1"}, {"size": "1"}, {"size": "256"}]}}}}}, {"name": "gen/A/layer2/res1/conv0/inorm/Reshape_1", "op": "Const", "attr": {"dtype": {"type": "DT_FLOAT"}, "value": {"tensor": {"dtype": "DT_FLOAT", "tensorShape": {"dim": [{"size": "1"}, {"size": "1"}, {"size": "1"}, {"size": "256"}]}}}}}, {"name": "gen/A/layer2/res1/conv1/W", "op": "Const", "attr": {"dtype": {"type": "DT_FLOAT"}, "value": {"tensor": {"dtype": "DT_FLOAT", "tensorShape": {"dim": [{"size": "3"}, {"size": "3"}, {"size": "256"}, {"size": "256"}]}}}}}, {"name": "gen/A/layer2/res1/conv1/inorm/Reshape", "op": "Const", "attr": {"dtype": {"type": "DT_FLOAT"}, "value": {"tensor": {"dtype": "DT_FLOAT", "tensorShape": {"dim": [{"size": "1"}, {"size": "1"}, {"size": "1"}, {"size": "256"}]}}}}}, {"name": "gen/A/layer2/res1/conv1/inorm/Reshape_1", "op": "Const", "attr": {"dtype": {"type": "DT_FLOAT"}, "value": {"tensor": {"dtype": "DT_FLOAT", "tensorShape": {"dim": [{"size": "1"}, {"size": "1"}, {"size": "1"}, {"size": "256"}]}}}}}, {"name": "gen/A/layer2/res1/conv2/W", "op": "Const", "attr": {"dtype": {"type": "DT_FLOAT"}, "value": {"tensor": {"dtype": "DT_FLOAT", "tensorShape": {"dim": [{"size": "3"}, {"size": "3"}, {"size": "512"}, {"size": "256"}]}}}}}, {"name": "gen/A/layer2/res1/conv2/inorm/Reshape", "op": "Const", "attr": {"dtype": {"type": "DT_FLOAT"}, "value": {"tensor": {"dtype": "DT_FLOAT", "tensorShape": {"dim": [{"size": "1"}, {"size": "1"}, {"size": "1"}, {"size": "256"}]}}}}}, {"name": "gen/A/layer2/res1/conv2/inorm/Reshape_1", "op": "Const", "attr": {"dtype": {"type": "DT_FLOAT"}, "value": {"tensor": {"dtype": "DT_FLOAT", "tensorShape": {"dim": [{"size": "1"}, {"size": "1"}, {"size": "1"}, {"size": "256"}]}}}}}, {"name": "gen/A/layer2/res2/conv0/W", "op": "Const", "attr": {"dtype": {"type": "DT_FLOAT"}, "value": {"tensor": {"dtype": "DT_FLOAT", "tensorShape": {"dim": [{"size": "3"}, {"size": "3"}, {"size": "256"}, {"size": "256"}]}}}}}, {"name": "gen/A/layer2/res2/conv0/inorm/Reshape", "op": "Const", "attr": {"dtype": {"type": "DT_FLOAT"}, "value": {"tensor": {"dtype": "DT_FLOAT", "tensorShape": {"dim": [{"size": "1"}, {"size": "1"}, {"size": "1"}, {"size": "256"}]}}}}}, {"name": "gen/A/layer2/res2/conv0/inorm/Reshape_1", "op": "Const", "attr": {"dtype": {"type": "DT_FLOAT"}, "value": {"tensor": {"dtype": "DT_FLOAT", "tensorShape": {"dim": [{"size": "1"}, {"size": "1"}, {"size": "1"}, {"size": "256"}]}}}}}, {"name": "gen/A/layer2/res2/conv1/W", "op": "Const", "attr": {"dtype": {"type": "DT_FLOAT"}, "value": {"tensor": {"dtype": "DT_FLOAT", "tensorShape": {"dim": [{"size": "3"}, {"size": "3"}, {"size": "256"}, {"size": "256"}]}}}}}, {"name": "gen/A/layer2/res2/conv1/inorm/Reshape", "op": "Const", "attr": {"value": {"tensor": {"dtype": "DT_FLOAT", "tensorShape": {"dim": [{"size": "1"}, {"size": "1"}, {"size": "1"}, {"size": "256"}]}}}, "dtype": {"type": "DT_FLOAT"}}}, {"name": "gen/A/layer2/res2/conv1/inorm/Reshape_1", "op": "Const", "attr": {"dtype": {"type": "DT_FLOAT"}, "value": {"tensor": {"dtype": "DT_FLOAT", "tensorShape": {"dim": [{"size": "1"}, {"size": "1"}, {"size": "1"}, {"size": "256"}]}}}}}, {"name": "gen/A/layer2/res2/conv2/W", "op": "Const", "attr": {"dtype": {"type": "DT_FLOAT"}, "value": {"tensor": {"dtype": "DT_FLOAT", "tensorShape": {"dim": [{"size": "3"}, {"size": "3"}, {"size": "512"}, {"size": "256"}]}}}}}, {"name": "gen/A/layer2/res2/conv2/inorm/Reshape", "op": "Const", "attr": {"dtype": {"type": "DT_FLOAT"}, "value": {"tensor": {"dtype": "DT_FLOAT", "tensorShape": {"dim": [{"size": "1"}, {"size": "1"}, {"size": "1"}, {"size": "256"}]}}}}}, {"name": "gen/A/layer2/res2/conv2/inorm/Reshape_1", "op": "Const", "attr": {"dtype": {"type": "DT_FLOAT"}, "value": {"tensor": {"dtype": "DT_FLOAT", "tensorShape": {"dim": [{"size": "1"}, {"size": "1"}, {"size": "1"}, {"size": "256"}]}}}}}, {"name": "gen/A/conv3/W", "op": "Const", "attr": {"dtype": {"type": "DT_FLOAT"}, "value": {"tensor": {"dtype": "DT_FLOAT", "tensorShape": {"dim": [{"size": "4"}, {"size": "4"}, {"size": "256"}, {"size": "512"}]}}}}}, {"name": "gen/A/conv3/inorm/Reshape", "op": "Const", "attr": {"dtype": {"type": "DT_FLOAT"}, "value": {"tensor": {"dtype": "DT_FLOAT", "tensorShape": {"dim": [{"size": "1"}, {"size": "1"}, {"size": "1"}, {"size": "512"}]}}}}}, {"name": "gen/A/conv3/inorm/Reshape_1", "op": "Const", "attr": {"dtype": {"type": "DT_FLOAT"}, "value": {"tensor": {"dtype": "DT_FLOAT", "tensorShape": {"dim": [{"size": "1"}, {"size": "1"}, {"size": "1"}, {"size": "512"}]}}}}}, {"name": "gen/A/layer3/res0/conv0/W", "op": "Const", "attr": {"dtype": {"type": "DT_FLOAT"}, "value": {"tensor": {"dtype": "DT_FLOAT", "tensorShape": {"dim": [{"size": "3"}, {"size": "3"}, {"size": "512"}, {"size": "512"}]}}}}}, {"name": "gen/A/layer3/res0/conv0/inorm/Reshape", "op": "Const", "attr": {"dtype": {"type": "DT_FLOAT"}, "value": {"tensor": {"dtype": "DT_FLOAT", "tensorShape": {"dim": [{"size": "1"}, {"size": "1"}, {"size": "1"}, {"size": "512"}]}}}}}, {"name": "gen/A/layer3/res0/conv0/inorm/Reshape_1", "op": "Const", "attr": {"value": {"tensor": {"dtype": "DT_FLOAT", "tensorShape": {"dim": [{"size": "1"}, {"size": "1"}, {"size": "1"}, {"size": "512"}]}}}, "dtype": {"type": "DT_FLOAT"}}}, {"name": "gen/A/layer3/res0/conv1/W", "op": "Const", "attr": {"value": {"tensor": {"dtype": "DT_FLOAT", "tensorShape": {"dim": [{"size": "3"}, {"size": "3"}, {"size": "512"}, {"size": "512"}]}}}, "dtype": {"type": "DT_FLOAT"}}}, {"name": "gen/A/layer3/res0/conv1/inorm/Reshape", "op": "Const", "attr": {"value": {"tensor": {"dtype": "DT_FLOAT", "tensorShape": {"dim": [{"size": "1"}, {"size": "1"}, {"size": "1"}, {"size": "512"}]}}}, "dtype": {"type": "DT_FLOAT"}}}, {"name": "gen/A/layer3/res0/conv1/inorm/Reshape_1", "op": "Const", "attr": {"value": {"tensor": {"dtype": "DT_FLOAT", "tensorShape": {"dim": [{"size": "1"}, {"size": "1"}, {"size": "1"}, {"size": "512"}]}}}, "dtype": {"type": "DT_FLOAT"}}}, {"name": "gen/A/layer3/res0/conv2/W", "op": "Const", "attr": {"value": {"tensor": {"dtype": "DT_FLOAT", "tensorShape": {"dim": [{"size": "3"}, {"size": "3"}, {"size": "1024"}, {"size": "512"}]}}}, "dtype": {"type": "DT_FLOAT"}}}, {"name": "gen/A/layer3/res0/conv2/inorm/Reshape", "op": "Const", "attr": {"value": {"tensor": {"dtype": "DT_FLOAT", "tensorShape": {"dim": [{"size": "1"}, {"size": "1"}, {"size": "1"}, {"size": "512"}]}}}, "dtype": {"type": "DT_FLOAT"}}}, {"name": "gen/A/layer3/res0/conv2/inorm/Reshape_1", "op": "Const", "attr": {"value": {"tensor": {"dtype": "DT_FLOAT", "tensorShape": {"dim": [{"size": "1"}, {"size": "1"}, {"size": "1"}, {"size": "512"}]}}}, "dtype": {"type": "DT_FLOAT"}}}, {"name": "gen/A/layer3/res1/conv0/W", "op": "Const", "attr": {"value": {"tensor": {"dtype": "DT_FLOAT", "tensorShape": {"dim": [{"size": "3"}, {"size": "3"}, {"size": "512"}, {"size": "512"}]}}}, "dtype": {"type": "DT_FLOAT"}}}, {"name": "gen/A/layer3/res1/conv0/inorm/Reshape", "op": "Const", "attr": {"value": {"tensor": {"dtype": "DT_FLOAT", "tensorShape": {"dim": [{"size": "1"}, {"size": "1"}, {"size": "1"}, {"size": "512"}]}}}, "dtype": {"type": "DT_FLOAT"}}}, {"name": "gen/A/layer3/res1/conv0/inorm/Reshape_1", "op": "Const", "attr": {"value": {"tensor": {"dtype": "DT_FLOAT", "tensorShape": {"dim": [{"size": "1"}, {"size": "1"}, {"size": "1"}, {"size": "512"}]}}}, "dtype": {"type": "DT_FLOAT"}}}, {"name": "gen/A/layer3/res1/conv1/W", "op": "Const", "attr": {"value": {"tensor": {"dtype": "DT_FLOAT", "tensorShape": {"dim": [{"size": "3"}, {"size": "3"}, {"size": "512"}, {"size": "512"}]}}}, "dtype": {"type": "DT_FLOAT"}}}, {"name": "gen/A/deconv3/strided_slice/stack", "op": "Const", "attr": {"value": {"tensor": {"dtype": "DT_INT32", "tensorShape": {"dim": [{"size": "1"}]}}}, "dtype": {"type": "DT_INT32"}}}, {"name": "gen/A/layer3/res1/conv1/inorm/Reshape", "op": "Const", "attr": {"value": {"tensor": {"dtype": "DT_FLOAT", "tensorShape": {"dim": [{"size": "1"}, {"size": "1"}, {"size": "1"}, {"size": "512"}]}}}, "dtype": {"type": "DT_FLOAT"}}}, {"name": "gen/A/layer3/res1/conv1/inorm/Reshape_1", "op": "Const", "attr": {"value": {"tensor": {"dtype": "DT_FLOAT", "tensorShape": {"dim": [{"size": "1"}, {"size": "1"}, {"size": "1"}, {"size": "512"}]}}}, "dtype": {"type": "DT_FLOAT"}}}, {"name": "gen/A/layer3/res1/conv2/W", "op": "Const", "attr": {"value": {"tensor": {"dtype": "DT_FLOAT", "tensorShape": {"dim": [{"size": "3"}, {"size": "3"}, {"size": "1024"}, {"size": "512"}]}}}, "dtype": {"type": "DT_FLOAT"}}}, {"name": "gen/A/deconv3/strided_slice/stack_1", "op": "Const", "attr": {"value": {"tensor": {"dtype": "DT_INT32", "tensorShape": {"dim": [{"size": "1"}]}}}, "dtype": {"type": "DT_INT32"}}}, {"name": "gen/A/layer3/res1/conv2/inorm/Reshape", "op": "Const", "attr": {"value": {"tensor": {"dtype": "DT_FLOAT", "tensorShape": {"dim": [{"size": "1"}, {"size": "1"}, {"size": "1"}, {"size": "512"}]}}}, "dtype": {"type": "DT_FLOAT"}}}, {"name": "gen/A/layer3/res1/conv2/inorm/Reshape_1", "op": "Const", "attr": {"value": {"tensor": {"dtype": "DT_FLOAT", "tensorShape": {"dim": [{"size": "1"}, {"size": "1"}, {"size": "1"}, {"size": "512"}]}}}, "dtype": {"type": "DT_FLOAT"}}}, {"name": "gen/A/layer3/res2/conv0/W", "op": "Const", "attr": {"value": {"tensor": {"dtype": "DT_FLOAT", "tensorShape": {"dim": [{"size": "3"}, {"size": "3"}, {"size": "512"}, {"size": "512"}]}}}, "dtype": {"type": "DT_FLOAT"}}}, {"name": "gen/A/layer3/res2/conv0/inorm/Reshape", "op": "Const", "attr": {"value": {"tensor": {"dtype": "DT_FLOAT", "tensorShape": {"dim": [{"size": "1"}, {"size": "1"}, {"size": "1"}, {"size": "512"}]}}}, "dtype": {"type": "DT_FLOAT"}}}, {"name": "gen/A/layer3/res2/conv0/inorm/Reshape_1", "op": "Const", "attr": {"value": {"tensor": {"dtype": "DT_FLOAT", "tensorShape": {"dim": [{"size": "1"}, {"size": "1"}, {"size": "1"}, {"size": "512"}]}}}, "dtype": {"type": "DT_FLOAT"}}}, {"name": "gen/A/layer3/res2/conv1/W", "op": "Const", "attr": {"value": {"tensor": {"dtype": "DT_FLOAT", "tensorShape": {"dim": [{"size": "3"}, {"size": "3"}, {"size": "512"}, {"size": "512"}]}}}, "dtype": {"type": "DT_FLOAT"}}}, {"name": "gen/A/layer3/res2/conv1/inorm/Reshape", "op": "Const", "attr": {"value": {"tensor": {"dtype": "DT_FLOAT", "tensorShape": {"dim": [{"size": "1"}, {"size": "1"}, {"size": "1"}, {"size": "512"}]}}}, "dtype": {"type": "DT_FLOAT"}}}, {"name": "gen/A/layer3/res2/conv1/inorm/Reshape_1", "op": "Const", "attr": {"value": {"tensor": {"dtype": "DT_FLOAT", "tensorShape": {"dim": [{"size": "1"}, {"size": "1"}, {"size": "1"}, {"size": "512"}]}}}, "dtype": {"type": "DT_FLOAT"}}}, {"name": "gen/A/layer3/res2/conv2/W", "op": "Const", "attr": {"value": {"tensor": {"dtype": "DT_FLOAT", "tensorShape": {"dim": [{"size": "3"}, {"size": "3"}, {"size": "1024"}, {"size": "512"}]}}}, "dtype": {"type": "DT_FLOAT"}}}, {"name": "gen/A/layer3/res2/conv2/inorm/Reshape", "op": "Const", "attr": {"value": {"tensor": {"dtype": "DT_FLOAT", "tensorShape": {"dim": [{"size": "1"}, {"size": "1"}, {"size": "1"}, {"size": "512"}]}}}, "dtype": {"type": "DT_FLOAT"}}}, {"name": "gen/A/layer3/res2/conv2/inorm/Reshape_1", "op": "Const", "attr": {"dtype": {"type": "DT_FLOAT"}, "value": {"tensor": {"dtype": "DT_FLOAT", "tensorShape": {"dim": [{"size": "1"}, {"size": "1"}, {"size": "1"}, {"size": "512"}]}}}}}, {"name": "gen/A/deconv0/strided_slice_1/stack_1", "op": "Const", "attr": {"value": {"tensor": {"dtype": "DT_INT32", "tensorShape": {"dim": [{"size": "1"}]}}}, "dtype": {"type": "DT_INT32"}}}, {"name": "gen/A/deconv0/mul/y", "op": "Const", "attr": {"dtype": {"type": "DT_INT32"}, "value": {"tensor": {"dtype": "DT_INT32", "tensorShape": {}}}}}, {"name": "gen/A/deconv0/strided_slice_2/stack_1", "op": "Const", "attr": {"value": {"tensor": {"dtype": "DT_INT32", "tensorShape": {"dim": [{"size": "1"}]}}}, "dtype": {"type": "DT_INT32"}}}, {"name": "gen/A/deconv0/stack/3", "op": "Const", "attr": {"dtype": {"type": "DT_INT32"}, "value": {"tensor": {"dtype": "DT_INT32", "tensorShape": {}}}}}, {"name": "gen/A/deconv0/W", "op": "Const", "attr": {"dtype": {"type": "DT_FLOAT"}, "value": {"tensor": {"dtype": "DT_FLOAT", "tensorShape": {"dim": [{"size": "4"}, {"size": "4"}, {"size": "256"}, {"size": "512"}]}}}}}, {"name": "gen/A/deconv0/inorm/Reshape", "op": "Const", "attr": {"value": {"tensor": {"dtype": "DT_FLOAT", "tensorShape": {"dim": [{"size": "1"}, {"size": "1"}, {"size": "1"}, {"size": "256"}]}}}, "dtype": {"type": "DT_FLOAT"}}}, {"name": "gen/A/deconv0/inorm/Reshape_1", "op": "Const", "attr": {"dtype": {"type": "DT_FLOAT"}, "value": {"tensor": {"dtype": "DT_FLOAT", "tensorShape": {"dim": [{"size": "1"}, {"size": "1"}, {"size": "1"}, {"size": "256"}]}}}}}, {"name": "gen/A/blayer2/res0/conv0/W", "op": "Const", "attr": {"dtype": {"type": "DT_FLOAT"}, "value": {"tensor": {"dtype": "DT_FLOAT", "tensorShape": {"dim": [{"size": "3"}, {"size": "3"}, {"size": "512"}, {"size": "256"}]}}}}}, {"name": "gen/A/blayer2/res0/conv0/inorm/Reshape", "op": "Const", "attr": {"dtype": {"type": "DT_FLOAT"}, "value": {"tensor": {"dtype": "DT_FLOAT", "tensorShape": {"dim": [{"size": "1"}, {"size": "1"}, {"size": "1"}, {"size": "256"}]}}}}}, {"name": "gen/A/blayer2/res0/conv0/inorm/Reshape_1", "op": "Const", "attr": {"value": {"tensor": {"dtype": "DT_FLOAT", "tensorShape": {"dim": [{"size": "1"}, {"size": "1"}, {"size": "1"}, {"size": "256"}]}}}, "dtype": {"type": "DT_FLOAT"}}}, {"name": "gen/A/blayer2/res0/conv1/W", "op": "Const", "attr": {"dtype": {"type": "DT_FLOAT"}, "value": {"tensor": {"dtype": "DT_FLOAT", "tensorShape": {"dim": [{"size": "3"}, {"size": "3"}, {"size": "256"}, {"size": "256"}]}}}}}, {"name": "gen/A/blayer2/res0/conv1/inorm/Reshape", "op": "Const", "attr": {"dtype": {"type": "DT_FLOAT"}, "value": {"tensor": {"dtype": "DT_FLOAT", "tensorShape": {"dim": [{"size": "1"}, {"size": "1"}, {"size": "1"}, {"size": "256"}]}}}}}, {"name": "gen/A/blayer2/res0/conv1/inorm/Reshape_1", "op": "Const", "attr": {"dtype": {"type": "DT_FLOAT"}, "value": {"tensor": {"dtype": "DT_FLOAT", "tensorShape": {"dim": [{"size": "1"}, {"size": "1"}, {"size": "1"}, {"size": "256"}]}}}}}, {"name": "gen/A/blayer2/res0/conv2/W", "op": "Const", "attr": {"dtype": {"type": "DT_FLOAT"}, "value": {"tensor": {"dtype": "DT_FLOAT", "tensorShape": {"dim": [{"size": "3"}, {"size": "3"}, {"size": "768"}, {"size": "256"}]}}}}}, {"name": "gen/A/blayer2/res0/conv2/inorm/Reshape", "op": "Const", "attr": {"dtype": {"type": "DT_FLOAT"}, "value": {"tensor": {"dtype": "DT_FLOAT", "tensorShape": {"dim": [{"size": "1"}, {"size": "1"}, {"size": "1"}, {"size": "256"}]}}}}}, {"name": "gen/A/blayer2/res0/conv2/inorm/Reshape_1", "op": "Const", "attr": {"value": {"tensor": {"dtype": "DT_FLOAT", "tensorShape": {"dim": [{"size": "1"}, {"size": "1"}, {"size": "1"}, {"size": "256"}]}}}, "dtype": {"type": "DT_FLOAT"}}}, {"name": "gen/A/blayer2/res1/conv0/W", "op": "Const", "attr": {"value": {"tensor": {"dtype": "DT_FLOAT", "tensorShape": {"dim": [{"size": "3"}, {"size": "3"}, {"size": "256"}, {"size": "256"}]}}}, "dtype": {"type": "DT_FLOAT"}}}, {"name": "gen/A/blayer2/res1/conv0/inorm/Reshape", "op": "Const", "attr": {"value": {"tensor": {"dtype": "DT_FLOAT", "tensorShape": {"dim": [{"size": "1"}, {"size": "1"}, {"size": "1"}, {"size": "256"}]}}}, "dtype": {"type": "DT_FLOAT"}}}, {"name": "gen/A/blayer2/res1/conv0/inorm/Reshape_1", "op": "Const", "attr": {"dtype": {"type": "DT_FLOAT"}, "value": {"tensor": {"dtype": "DT_FLOAT", "tensorShape": {"dim": [{"size": "1"}, {"size": "1"}, {"size": "1"}, {"size": "256"}]}}}}}, {"name": "gen/A/blayer2/res1/conv1/W", "op": "Const", "attr": {"dtype": {"type": "DT_FLOAT"}, "value": {"tensor": {"dtype": "DT_FLOAT", "tensorShape": {"dim": [{"size": "3"}, {"size": "3"}, {"size": "256"}, {"size": "256"}]}}}}}, {"name": "gen/A/blayer2/res1/conv1/inorm/Reshape", "op": "Const", "attr": {"dtype": {"type": "DT_FLOAT"}, "value": {"tensor": {"dtype": "DT_FLOAT", "tensorShape": {"dim": [{"size": "1"}, {"size": "1"}, {"size": "1"}, {"size": "256"}]}}}}}, {"name": "gen/A/blayer2/res1/conv1/inorm/Reshape_1", "op": "Const", "attr": {"dtype": {"type": "DT_FLOAT"}, "value": {"tensor": {"dtype": "DT_FLOAT", "tensorShape": {"dim": [{"size": "1"}, {"size": "1"}, {"size": "1"}, {"size": "256"}]}}}}}, {"name": "gen/A/blayer2/res1/conv2/W", "op": "Const", "attr": {"dtype": {"type": "DT_FLOAT"}, "value": {"tensor": {"dtype": "DT_FLOAT", "tensorShape": {"dim": [{"size": "3"}, {"size": "3"}, {"size": "512"}, {"size": "256"}]}}}}}, {"name": "gen/A/blayer2/res1/conv2/inorm/Reshape", "op": "Const", "attr": {"dtype": {"type": "DT_FLOAT"}, "value": {"tensor": {"dtype": "DT_FLOAT", "tensorShape": {"dim": [{"size": "1"}, {"size": "1"}, {"size": "1"}, {"size": "256"}]}}}}}, {"name": "gen/A/blayer2/res1/conv2/inorm/Reshape_1", "op": "Const", "attr": {"dtype": {"type": "DT_FLOAT"}, "value": {"tensor": {"dtype": "DT_FLOAT", "tensorShape": {"dim": [{"size": "1"}, {"size": "1"}, {"size": "1"}, {"size": "256"}]}}}}}, {"name": "gen/A/blayer2/res2/conv0/W", "op": "Const", "attr": {"dtype": {"type": "DT_FLOAT"}, "value": {"tensor": {"dtype": "DT_FLOAT", "tensorShape": {"dim": [{"size": "3"}, {"size": "3"}, {"size": "256"}, {"size": "256"}]}}}}}, {"name": "gen/A/blayer2/res2/conv0/inorm/Reshape", "op": "Const", "attr": {"dtype": {"type": "DT_FLOAT"}, "value": {"tensor": {"dtype": "DT_FLOAT", "tensorShape": {"dim": [{"size": "1"}, {"size": "1"}, {"size": "1"}, {"size": "256"}]}}}}}, {"name": "gen/A/blayer2/res2/conv0/inorm/Reshape_1", "op": "Const", "attr": {"dtype": {"type": "DT_FLOAT"}, "value": {"tensor": {"dtype": "DT_FLOAT", "tensorShape": {"dim": [{"size": "1"}, {"size": "1"}, {"size": "1"}, {"size": "256"}]}}}}}, {"name": "gen/A/blayer2/res2/conv1/W", "op": "Const", "attr": {"value": {"tensor": {"dtype": "DT_FLOAT", "tensorShape": {"dim": [{"size": "3"}, {"size": "3"}, {"size": "256"}, {"size": "256"}]}}}, "dtype": {"type": "DT_FLOAT"}}}, {"name": "gen/A/blayer2/res2/conv1/inorm/Reshape", "op": "Const", "attr": {"dtype": {"type": "DT_FLOAT"}, "value": {"tensor": {"dtype": "DT_FLOAT", "tensorShape": {"dim": [{"size": "1"}, {"size": "1"}, {"size": "1"}, {"size": "256"}]}}}}}, {"name": "gen/A/blayer2/res2/conv1/inorm/Reshape_1", "op": "Const", "attr": {"dtype": {"type": "DT_FLOAT"}, "value": {"tensor": {"dtype": "DT_FLOAT", "tensorShape": {"dim": [{"size": "1"}, {"size": "1"}, {"size": "1"}, {"size": "256"}]}}}}}, {"name": "gen/A/blayer2/res2/conv2/W", "op": "Const", "attr": {"value": {"tensor": {"dtype": "DT_FLOAT", "tensorShape": {"dim": [{"size": "3"}, {"size": "3"}, {"size": "512"}, {"size": "256"}]}}}, "dtype": {"type": "DT_FLOAT"}}}, {"name": "gen/A/blayer2/res2/conv2/inorm/Reshape", "op": "Const", "attr": {"value": {"tensor": {"dtype": "DT_FLOAT", "tensorShape": {"dim": [{"size": "1"}, {"size": "1"}, {"size": "1"}, {"size": "256"}]}}}, "dtype": {"type": "DT_FLOAT"}}}, {"name": "gen/A/blayer2/res2/conv2/inorm/Reshape_1", "op": "Const", "attr": {"dtype": {"type": "DT_FLOAT"}, "value": {"tensor": {"dtype": "DT_FLOAT", "tensorShape": {"dim": [{"size": "1"}, {"size": "1"}, {"size": "1"}, {"size": "256"}]}}}}}, {"name": "gen/A/deconv1/stack/3", "op": "Const", "attr": {"dtype": {"type": "DT_INT32"}, "value": {"tensor": {"dtype": "DT_INT32", "tensorShape": {}}}}}, {"name": "gen/A/deconv1/W", "op": "Const", "attr": {"dtype": {"type": "DT_FLOAT"}, "value": {"tensor": {"dtype": "DT_FLOAT", "tensorShape": {"dim": [{"size": "4"}, {"size": "4"}, {"size": "128"}, {"size": "256"}]}}}}}, {"name": "gen/A/deconv1/inorm/Reshape", "op": "Const", "attr": {"dtype": {"type": "DT_FLOAT"}, "value": {"tensor": {"dtype": "DT_FLOAT", "tensorShape": {"dim": [{"size": "1"}, {"size": "1"}, {"size": "1"}, {"size": "128"}]}}}}}, {"name": "gen/A/deconv1/inorm/Reshape_1", "op": "Const", "attr": {"dtype": {"type": "DT_FLOAT"}, "value": {"tensor": {"dtype": "DT_FLOAT", "tensorShape": {"dim": [{"size": "1"}, {"size": "1"}, {"size": "1"}, {"size": "128"}]}}}}}, {"name": "gen/A/blayer1/res0/conv0/W", "op": "Const", "attr": {"dtype": {"type": "DT_FLOAT"}, "value": {"tensor": {"dtype": "DT_FLOAT", "tensorShape": {"dim": [{"size": "3"}, {"size": "3"}, {"size": "256"}, {"size": "128"}]}}}}}, {"name": "gen/A/blayer1/res0/conv0/inorm/Reshape", "op": "Const", "attr": {"dtype": {"type": "DT_FLOAT"}, "value": {"tensor": {"dtype": "DT_FLOAT", "tensorShape": {"dim": [{"size": "1"}, {"size": "1"}, {"size": "1"}, {"size": "128"}]}}}}}, {"name": "gen/A/blayer1/res0/conv0/inorm/Reshape_1", "op": "Const", "attr": {"dtype": {"type": "DT_FLOAT"}, "value": {"tensor": {"dtype": "DT_FLOAT", "tensorShape": {"dim": [{"size": "1"}, {"size": "1"}, {"size": "1"}, {"size": "128"}]}}}}}, {"name": "gen/A/blayer1/res0/conv1/W", "op": "Const", "attr": {"dtype": {"type": "DT_FLOAT"}, "value": {"tensor": {"dtype": "DT_FLOAT", "tensorShape": {"dim": [{"size": "3"}, {"size": "3"}, {"size": "128"}, {"size": "128"}]}}}}}, {"name": "gen/A/blayer1/res0/conv1/inorm/Reshape", "op": "Const", "attr": {"dtype": {"type": "DT_FLOAT"}, "value": {"tensor": {"dtype": "DT_FLOAT", "tensorShape": {"dim": [{"size": "1"}, {"size": "1"}, {"size": "1"}, {"size": "128"}]}}}}}, {"name": "gen/A/blayer1/res0/conv1/inorm/Reshape_1", "op": "Const", "attr": {"dtype": {"type": "DT_FLOAT"}, "value": {"tensor": {"dtype": "DT_FLOAT", "tensorShape": {"dim": [{"size": "1"}, {"size": "1"}, {"size": "1"}, {"size": "128"}]}}}}}, {"name": "gen/A/blayer1/res0/conv2/W", "op": "Const", "attr": {"dtype": {"type": "DT_FLOAT"}, "value": {"tensor": {"dtype": "DT_FLOAT", "tensorShape": {"dim": [{"size": "3"}, {"size": "3"}, {"size": "384"}, {"size": "128"}]}}}}}, {"name": "gen/A/blayer1/res0/conv2/inorm/Reshape", "op": "Const", "attr": {"dtype": {"type": "DT_FLOAT"}, "value": {"tensor": {"dtype": "DT_FLOAT", "tensorShape": {"dim": [{"size": "1"}, {"size": "1"}, {"size": "1"}, {"size": "128"}]}}}}}, {"name": "gen/A/blayer1/res0/conv2/inorm/Reshape_1", "op": "Const", "attr": {"dtype": {"type": "DT_FLOAT"}, "value": {"tensor": {"dtype": "DT_FLOAT", "tensorShape": {"dim": [{"size": "1"}, {"size": "1"}, {"size": "1"}, {"size": "128"}]}}}}}, {"name": "gen/A/blayer1/res1/conv0/W", "op": "Const", "attr": {"dtype": {"type": "DT_FLOAT"}, "value": {"tensor": {"dtype": "DT_FLOAT", "tensorShape": {"dim": [{"size": "3"}, {"size": "3"}, {"size": "128"}, {"size": "128"}]}}}}}, {"name": "gen/A/blayer1/res1/conv0/inorm/Reshape", "op": "Const", "attr": {"value": {"tensor": {"dtype": "DT_FLOAT", "tensorShape": {"dim": [{"size": "1"}, {"size": "1"}, {"size": "1"}, {"size": "128"}]}}}, "dtype": {"type": "DT_FLOAT"}}}, {"name": "gen/A/blayer1/res1/conv0/inorm/Reshape_1", "op": "Const", "attr": {"dtype": {"type": "DT_FLOAT"}, "value": {"tensor": {"dtype": "DT_FLOAT", "tensorShape": {"dim": [{"size": "1"}, {"size": "1"}, {"size": "1"}, {"size": "128"}]}}}}}, {"name": "gen/A/blayer1/res1/conv1/W", "op": "Const", "attr": {"dtype": {"type": "DT_FLOAT"}, "value": {"tensor": {"dtype": "DT_FLOAT", "tensorShape": {"dim": [{"size": "3"}, {"size": "3"}, {"size": "128"}, {"size": "128"}]}}}}}, {"name": "gen/A/blayer1/res1/conv1/inorm/Reshape", "op": "Const", "attr": {"dtype": {"type": "DT_FLOAT"}, "value": {"tensor": {"dtype": "DT_FLOAT", "tensorShape": {"dim": [{"size": "1"}, {"size": "1"}, {"size": "1"}, {"size": "128"}]}}}}}, {"name": "gen/A/blayer1/res1/conv1/inorm/Reshape_1", "op": "Const", "attr": {"dtype": {"type": "DT_FLOAT"}, "value": {"tensor": {"dtype": "DT_FLOAT", "tensorShape": {"dim": [{"size": "1"}, {"size": "1"}, {"size": "1"}, {"size": "128"}]}}}}}, {"name": "gen/A/blayer1/res1/conv2/W", "op": "Const", "attr": {"dtype": {"type": "DT_FLOAT"}, "value": {"tensor": {"dtype": "DT_FLOAT", "tensorShape": {"dim": [{"size": "3"}, {"size": "3"}, {"size": "256"}, {"size": "128"}]}}}}}, {"name": "gen/A/blayer1/res1/conv2/inorm/Reshape", "op": "Const", "attr": {"dtype": {"type": "DT_FLOAT"}, "value": {"tensor": {"dtype": "DT_FLOAT", "tensorShape": {"dim": [{"size": "1"}, {"size": "1"}, {"size": "1"}, {"size": "128"}]}}}}}, {"name": "gen/A/blayer1/res1/conv2/inorm/Reshape_1", "op": "Const", "attr": {"dtype": {"type": "DT_FLOAT"}, "value": {"tensor": {"dtype": "DT_FLOAT", "tensorShape": {"dim": [{"size": "1"}, {"size": "1"}, {"size": "1"}, {"size": "128"}]}}}}}, {"name": "gen/A/blayer1/res2/conv0/W", "op": "Const", "attr": {"dtype": {"type": "DT_FLOAT"}, "value": {"tensor": {"dtype": "DT_FLOAT", "tensorShape": {"dim": [{"size": "3"}, {"size": "3"}, {"size": "128"}, {"size": "128"}]}}}}}, {"name": "gen/A/deconv3/W", "op": "Const", "attr": {"value": {"tensor": {"dtype": "DT_FLOAT", "tensorShape": {"dim": [{"size": "4"}, {"size": "4"}, {"size": "3"}, {"size": "64"}]}}}, "dtype": {"type": "DT_FLOAT"}}}, {"name": "gen/A/blayer1/res2/conv0/inorm/Reshape", "op": "Const", "attr": {"dtype": {"type": "DT_FLOAT"}, "value": {"tensor": {"dtype": "DT_FLOAT", "tensorShape": {"dim": [{"size": "1"}, {"size": "1"}, {"size": "1"}, {"size": "128"}]}}}}}, {"name": "gen/A/blayer1/res2/conv0/inorm/Reshape_1", "op": "Const", "attr": {"dtype": {"type": "DT_FLOAT"}, "value": {"tensor": {"dtype": "DT_FLOAT", "tensorShape": {"dim": [{"size": "1"}, {"size": "1"}, {"size": "1"}, {"size": "128"}]}}}}}, {"name": "gen/A/blayer1/res2/conv1/W", "op": "Const", "attr": {"dtype": {"type": "DT_FLOAT"}, "value": {"tensor": {"dtype": "DT_FLOAT", "tensorShape": {"dim": [{"size": "3"}, {"size": "3"}, {"size": "128"}, {"size": "128"}]}}}}}, {"name": "gen/A/blayer1/res2/conv1/inorm/Reshape", "op": "Const", "attr": {"dtype": {"type": "DT_FLOAT"}, "value": {"tensor": {"dtype": "DT_FLOAT", "tensorShape": {"dim": [{"size": "1"}, {"size": "1"}, {"size": "1"}, {"size": "128"}]}}}}}, {"name": "gen/A/blayer1/res2/conv1/inorm/Reshape_1", "op": "Const", "attr": {"dtype": {"type": "DT_FLOAT"}, "value": {"tensor": {"dtype": "DT_FLOAT", "tensorShape": {"dim": [{"size": "1"}, {"size": "1"}, {"size": "1"}, {"size": "128"}]}}}}}, {"name": "gen/A/blayer1/res2/conv2/W", "op": "Const", "attr": {"value": {"tensor": {"dtype": "DT_FLOAT", "tensorShape": {"dim": [{"size": "3"}, {"size": "3"}, {"size": "256"}, {"size": "128"}]}}}, "dtype": {"type": "DT_FLOAT"}}}, {"name": "gen/A/blayer1/res2/conv2/inorm/Reshape", "op": "Const", "attr": {"value": {"tensor": {"dtype": "DT_FLOAT", "tensorShape": {"dim": [{"size": "1"}, {"size": "1"}, {"size": "1"}, {"size": "128"}]}}}, "dtype": {"type": "DT_FLOAT"}}}, {"name": "gen/A/blayer1/res2/conv2/inorm/Reshape_1", "op": "Const", "attr": {"value": {"tensor": {"dtype": "DT_FLOAT", "tensorShape": {"dim": [{"size": "1"}, {"size": "1"}, {"size": "1"}, {"size": "128"}]}}}, "dtype": {"type": "DT_FLOAT"}}}, {"name": "gen/A/deconv2/stack/3", "op": "Const", "attr": {"value": {"tensor": {"dtype": "DT_INT32", "tensorShape": {}}}, "dtype": {"type": "DT_INT32"}}}, {"name": "gen/A/conv0/ArithmeticOptimizer/FoldMultiplyIntoConv_scaled_gen/A/conv0/Conv2D_W", "op": "Const", "attr": {"value": {"tensor": {"dtype": "DT_FLOAT", "tensorShape": {"dim": [{"size": "4"}, {"size": "4"}, {"size": "3"}, {"size": "64"}]}}}, "dtype": {"type": "DT_FLOAT"}}}, {"name": "gen/A/conv0/Conv2D", "op": "Conv2D", "input": ["inputB", "gen/A/conv0/ArithmeticOptimizer/FoldMultiplyIntoConv_scaled_gen/A/conv0/Conv2D_W"], "device": "/device:CPU:0", "attr": {"data_format": {"s": "TkhXQw=="}, "T": {"type": "DT_FLOAT"}, "padding": {"s": "U0FNRQ=="}, "strides": {"list": {"i": ["1", "2", "2", "1"]}}, "use_cudnn_on_gpu": {"b": true}, "explicit_paddings": {"list": {}}, "dilations": {"list": {"i": ["1", "1", "1", "1"]}}}}, {"name": "gen/A/conv0/Relu", "op": "Relu", "input": ["gen/A/conv0/Conv2D"], "attr": {"T": {"type": "DT_FLOAT"}}}, {"name": "gen/A/conv1/Conv2D", "op": "Conv2D", "input": ["gen/A/conv0/Relu", "gen/A/conv1/W"], "device": "/device:CPU:0", "attr": {"padding": {"s": "U0FNRQ=="}, "use_cudnn_on_gpu": {"b": true}, "explicit_paddings": {"list": {}}, "dilations": {"list": {"i": ["1", "1", "1", "1"]}}, "data_format": {"s": "TkhXQw=="}, "strides": {"list": {"i": ["1", "2", "2", "1"]}}, "T": {"type": "DT_FLOAT"}}}, {"name": "gen/A/conv1/inorm/moments/mean", "op": "Mean", "input": ["gen/A/conv1/Conv2D", "gen/A/conv1/inorm/moments/mean/reduction_indices"], "attr": {"T": {"type": "DT_FLOAT"}, "keep_dims": {"b": true}, "Tidx": {"type": "DT_INT32"}}}, {"name": "gen/A/conv1/inorm/moments/SquaredDifference", "op": "SquaredDifference", "input": ["gen/A/conv1/Conv2D", "gen/A/conv1/inorm/moments/mean"], "attr": {"T": {"type": "DT_FLOAT"}}}, {"name": "gen/A/conv1/inorm/moments/variance", "op": "Mean", "input": ["gen/A/conv1/inorm/moments/SquaredDifference", "gen/A/conv1/inorm/moments/mean/reduction_indices"], "attr": {"Tidx": {"type": "DT_INT32"}, "T": {"type": "DT_FLOAT"}, "keep_dims": {"b": true}}}, {"name": "gen/A/conv1/inorm/output/add", "op": "AddV2", "input": ["gen/A/conv1/inorm/moments/variance", "gen/A/conv1/inorm/output/add/y"], "attr": {"T": {"type": "DT_FLOAT"}}}, {"name": "gen/A/conv1/inorm/output/Rsqrt", "op": "Rsqrt", "input": ["gen/A/conv1/inorm/output/add"], "attr": {"T": {"type": "DT_FLOAT"}}}, {"name": "gen/A/conv1/inorm/output/mul", "op": "Mul", "input": ["gen/A/conv1/inorm/Reshape_1", "gen/A/conv1/inorm/output/Rsqrt"], "attr": {"T": {"type": "DT_FLOAT"}}}, {"name": "gen/A/conv1/inorm/output/mul_2", "op": "Mul", "input": ["gen/A/conv1/inorm/moments/mean", "gen/A/conv1/inorm/output/mul"], "attr": {"T": {"type": "DT_FLOAT"}}}, {"name": "gen/A/conv1/inorm/output/mul_1", "op": "Mul", "input": ["gen/A/conv1/Conv2D", "gen/A/conv1/inorm/output/mul"], "attr": {"T": {"type": "DT_FLOAT"}}}, {"name": "gen/A/conv1/inorm/output/sub", "op": "Sub", "input": ["gen/A/conv1/inorm/Reshape", "gen/A/conv1/inorm/output/mul_2"], "attr": {"T": {"type": "DT_FLOAT"}}}, {"name": "gen/A/conv1/inorm/output/add_1", "op": "AddV2", "input": ["gen/A/conv1/inorm/output/mul_1", "gen/A/conv1/inorm/output/sub"], "attr": {"T": {"type": "DT_FLOAT"}}}, {"name": "gen/A/conv1/Relu", "op": "Relu", "input": ["gen/A/conv1/inorm/output/add_1"], "attr": {"T": {"type": "DT_FLOAT"}}}, {"name": "gen/A/layer1/res0/conv0/Conv2D", "op": "Conv2D", "input": ["gen/A/conv1/Relu", "gen/A/layer1/res0/conv0/W"], "device": "/device:CPU:0", "attr": {"use_cudnn_on_gpu": {"b": true}, "explicit_paddings": {"list": {}}, "dilations": {"list": {"i": ["1", "1", "1", "1"]}}, "data_format": {"s": "TkhXQw=="}, "T": {"type": "DT_FLOAT"}, "strides": {"list": {"i": ["1", "1", "1", "1"]}}, "padding": {"s": "U0FNRQ=="}}}, {"name": "gen/A/layer1/res0/conv0/inorm/moments/mean", "op": "Mean", "input": ["gen/A/layer1/res0/conv0/Conv2D", "gen/A/conv1/inorm/moments/mean/reduction_indices"], "attr": {"keep_dims": {"b": true}, "T": {"type": "DT_FLOAT"}, "Tidx": {"type": "DT_INT32"}}}, {"name": "gen/A/layer1/res0/conv0/inorm/moments/SquaredDifference", "op": "SquaredDifference", "input": ["gen/A/layer1/res0/conv0/Conv2D", "gen/A/layer1/res0/conv0/inorm/moments/mean"], "attr": {"T": {"type": "DT_FLOAT"}}}, {"name": "gen/A/layer1/res0/conv0/inorm/moments/variance", "op": "Mean", "input": ["gen/A/layer1/res0/conv0/inorm/moments/SquaredDifference", "gen/A/conv1/inorm/moments/mean/reduction_indices"], "attr": {"keep_dims": {"b": true}, "T": {"type": "DT_FLOAT"}, "Tidx": {"type": "DT_INT32"}}}, {"name": "gen/A/layer1/res0/conv0/inorm/output/add", "op": "AddV2", "input": ["gen/A/conv1/inorm/output/add/y", "gen/A/layer1/res0/conv0/inorm/moments/variance"], "attr": {"T": {"type": "DT_FLOAT"}}}, {"name": "gen/A/layer1/res0/conv0/inorm/output/Rsqrt", "op": "Rsqrt", "input": ["gen/A/layer1/res0/conv0/inorm/output/add"], "attr": {"T": {"type": "DT_FLOAT"}}}, {"name": "gen/A/layer1/res0/conv0/inorm/output/mul", "op": "Mul", "input": ["gen/A/layer1/res0/conv0/inorm/Reshape_1", "gen/A/layer1/res0/conv0/inorm/output/Rsqrt"], "attr": {"T": {"type": "DT_FLOAT"}}}, {"name": "gen/A/layer1/res0/conv0/inorm/output/mul_2", "op": "Mul", "input": ["gen/A/layer1/res0/conv0/inorm/moments/mean", "gen/A/layer1/res0/conv0/inorm/output/mul"], "attr": {"T": {"type": "DT_FLOAT"}}}, {"name": "gen/A/layer1/res0/conv0/inorm/output/mul_1", "op": "Mul", "input": ["gen/A/layer1/res0/conv0/Conv2D", "gen/A/layer1/res0/conv0/inorm/output/mul"], "attr": {"T": {"type": "DT_FLOAT"}}}, {"name": "gen/A/layer1/res0/conv0/inorm/output/sub", "op": "Sub", "input": ["gen/A/layer1/res0/conv0/inorm/Reshape", "gen/A/layer1/res0/conv0/inorm/output/mul_2"], "attr": {"T": {"type": "DT_FLOAT"}}}, {"name": "gen/A/layer1/res0/conv0/inorm/output/add_1", "op": "AddV2", "input": ["gen/A/layer1/res0/conv0/inorm/output/mul_1", "gen/A/layer1/res0/conv0/inorm/output/sub"], "attr": {"T": {"type": "DT_FLOAT"}}}, {"name": "gen/A/layer1/res0/conv0/Relu", "op": "Relu", "input": ["gen/A/layer1/res0/conv0/inorm/output/add_1"], "attr": {"T": {"type": "DT_FLOAT"}}}, {"name": "gen/A/layer1/res0/conv1/Conv2D", "op": "Conv2D", "input": ["gen/A/layer1/res0/conv0/Relu", "gen/A/layer1/res0/conv1/W"], "device": "/device:CPU:0", "attr": {"strides": {"list": {"i": ["1", "1", "1", "1"]}}, "T": {"type": "DT_FLOAT"}, "padding": {"s": "U0FNRQ=="}, "use_cudnn_on_gpu": {"b": true}, "explicit_paddings": {"list": {}}, "dilations": {"list": {"i": ["1", "1", "1", "1"]}}, "data_format": {"s": "TkhXQw=="}}}, {"name": "gen/A/layer1/res0/conv1/inorm/moments/mean", "op": "Mean", "input": ["gen/A/layer1/res0/conv1/Conv2D", "gen/A/conv1/inorm/moments/mean/reduction_indices"], "attr": {"keep_dims": {"b": true}, "Tidx": {"type": "DT_INT32"}, "T": {"type": "DT_FLOAT"}}}, {"name": "gen/A/layer1/res0/conv1/inorm/moments/SquaredDifference", "op": "SquaredDifference", "input": ["gen/A/layer1/res0/conv1/Conv2D", "gen/A/layer1/res0/conv1/inorm/moments/mean"], "attr": {"T": {"type": "DT_FLOAT"}}}, {"name": "gen/A/layer1/res0/conv1/inorm/moments/variance", "op": "Mean", "input": ["gen/A/layer1/res0/conv1/inorm/moments/SquaredDifference", "gen/A/conv1/inorm/moments/mean/reduction_indices"], "attr": {"keep_dims": {"b": true}, "Tidx": {"type": "DT_INT32"}, "T": {"type": "DT_FLOAT"}}}, {"name": "gen/A/layer1/res0/conv1/inorm/output/add", "op": "AddV2", "input": ["gen/A/conv1/inorm/output/add/y", "gen/A/layer1/res0/conv1/inorm/moments/variance"], "attr": {"T": {"type": "DT_FLOAT"}}}, {"name": "gen/A/layer1/res0/conv1/inorm/output/Rsqrt", "op": "Rsqrt", "input": ["gen/A/layer1/res0/conv1/inorm/output/add"], "attr": {"T": {"type": "DT_FLOAT"}}}, {"name": "gen/A/layer1/res0/conv1/inorm/output/mul", "op": "Mul", "input": ["gen/A/layer1/res0/conv1/inorm/Reshape_1", "gen/A/layer1/res0/conv1/inorm/output/Rsqrt"], "attr": {"T": {"type": "DT_FLOAT"}}}, {"name": "gen/A/layer1/res0/conv1/inorm/output/mul_2", "op": "Mul", "input": ["gen/A/layer1/res0/conv1/inorm/moments/mean", "gen/A/layer1/res0/conv1/inorm/output/mul"], "attr": {"T": {"type": "DT_FLOAT"}}}, {"name": "gen/A/layer1/res0/conv1/inorm/output/mul_1", "op": "Mul", "input": ["gen/A/layer1/res0/conv1/Conv2D", "gen/A/layer1/res0/conv1/inorm/output/mul"], "attr": {"T": {"type": "DT_FLOAT"}}}, {"name": "gen/A/layer1/res0/conv1/inorm/output/sub", "op": "Sub", "input": ["gen/A/layer1/res0/conv1/inorm/Reshape", "gen/A/layer1/res0/conv1/inorm/output/mul_2"], "attr": {"T": {"type": "DT_FLOAT"}}}, {"name": "gen/A/layer1/res0/conv1/inorm/output/add_1", "op": "AddV2", "input": ["gen/A/layer1/res0/conv1/inorm/output/mul_1", "gen/A/layer1/res0/conv1/inorm/output/sub"], "attr": {"T": {"type": "DT_FLOAT"}}}, {"name": "gen/A/layer1/res0/conv1/Relu", "op": "Relu", "input": ["gen/A/layer1/res0/conv1/inorm/output/add_1"], "attr": {"T": {"type": "DT_FLOAT"}}}, {"name": "gen/A/layer1/res0/concat", "op": "ConcatV2", "input": ["gen/A/layer1/res0/conv1/Relu", "gen/A/conv1/Relu", "gen/A/layer1/res0/concat/axis"], "attr": {"N": {"i": "2"}, "Tidx": {"type": "DT_INT32"}, "T": {"type": "DT_FLOAT"}}}, {"name": "gen/A/layer1/res0/conv2/Conv2D", "op": "Conv2D", "input": ["gen/A/layer1/res0/concat", "gen/A/layer1/res0/conv2/W"], "device": "/device:CPU:0", "attr": {"strides": {"list": {"i": ["1", "1", "1", "1"]}}, "T": {"type": "DT_FLOAT"}, "padding": {"s": "U0FNRQ=="}, "use_cudnn_on_gpu": {"b": true}, "explicit_paddings": {"list": {}}, "dilations": {"list": {"i": ["1", "1", "1", "1"]}}, "data_format": {"s": "TkhXQw=="}}}, {"name": "gen/A/layer1/res0/conv2/inorm/moments/mean", "op": "Mean", "input": ["gen/A/layer1/res0/conv2/Conv2D", "gen/A/conv1/inorm/moments/mean/reduction_indices"], "attr": {"keep_dims": {"b": true}, "Tidx": {"type": "DT_INT32"}, "T": {"type": "DT_FLOAT"}}}, {"name": "gen/A/layer1/res0/conv2/inorm/moments/SquaredDifference", "op": "SquaredDifference", "input": ["gen/A/layer1/res0/conv2/Conv2D", "gen/A/layer1/res0/conv2/inorm/moments/mean"], "attr": {"T": {"type": "DT_FLOAT"}}}, {"name": "gen/A/layer1/res0/conv2/inorm/moments/variance", "op": "Mean", "input": ["gen/A/layer1/res0/conv2/inorm/moments/SquaredDifference", "gen/A/conv1/inorm/moments/mean/reduction_indices"], "attr": {"Tidx": {"type": "DT_INT32"}, "T": {"type": "DT_FLOAT"}, "keep_dims": {"b": true}}}, {"name": "gen/A/layer1/res0/conv2/inorm/output/add", "op": "AddV2", "input": ["gen/A/conv1/inorm/output/add/y", "gen/A/layer1/res0/conv2/inorm/moments/variance"], "attr": {"T": {"type": "DT_FLOAT"}}}, {"name": "gen/A/layer1/res0/conv2/inorm/output/Rsqrt", "op": "Rsqrt", "input": ["gen/A/layer1/res0/conv2/inorm/output/add"], "attr": {"T": {"type": "DT_FLOAT"}}}, {"name": "gen/A/layer1/res0/conv2/inorm/output/mul", "op": "Mul", "input": ["gen/A/layer1/res0/conv2/inorm/Reshape_1", "gen/A/layer1/res0/conv2/inorm/output/Rsqrt"], "attr": {"T": {"type": "DT_FLOAT"}}}, {"name": "gen/A/layer1/res0/conv2/inorm/output/mul_2", "op": "Mul", "input": ["gen/A/layer1/res0/conv2/inorm/moments/mean", "gen/A/layer1/res0/conv2/inorm/output/mul"], "attr": {"T": {"type": "DT_FLOAT"}}}, {"name": "gen/A/layer1/res0/conv2/inorm/output/mul_1", "op": "Mul", "input": ["gen/A/layer1/res0/conv2/Conv2D", "gen/A/layer1/res0/conv2/inorm/output/mul"], "attr": {"T": {"type": "DT_FLOAT"}}}, {"name": "gen/A/layer1/res0/conv2/inorm/output/sub", "op": "Sub", "input": ["gen/A/layer1/res0/conv2/inorm/Reshape", "gen/A/layer1/res0/conv2/inorm/output/mul_2"], "attr": {"T": {"type": "DT_FLOAT"}}}, {"name": "gen/A/layer1/res0/conv2/inorm/output/add_1", "op": "AddV2", "input": ["gen/A/layer1/res0/conv2/inorm/output/mul_1", "gen/A/layer1/res0/conv2/inorm/output/sub"], "attr": {"T": {"type": "DT_FLOAT"}}}, {"name": "gen/A/layer1/res0/conv2/Relu", "op": "Relu", "input": ["gen/A/layer1/res0/conv2/inorm/output/add_1"], "attr": {"T": {"type": "DT_FLOAT"}}}, {"name": "gen/A/layer1/res1/conv0/Conv2D", "op": "Conv2D", "input": ["gen/A/layer1/res0/conv2/Relu", "gen/A/layer1/res1/conv0/W"], "device": "/device:CPU:0", "attr": {"padding": {"s": "U0FNRQ=="}, "use_cudnn_on_gpu": {"b": true}, "explicit_paddings": {"list": {}}, "dilations": {"list": {"i": ["1", "1", "1", "1"]}}, "data_format": {"s": "TkhXQw=="}, "strides": {"list": {"i": ["1", "1", "1", "1"]}}, "T": {"type": "DT_FLOAT"}}}, {"name": "gen/A/layer1/res1/conv0/inorm/moments/mean", "op": "Mean", "input": ["gen/A/layer1/res1/conv0/Conv2D", "gen/A/conv1/inorm/moments/mean/reduction_indices"], "attr": {"keep_dims": {"b": true}, "T": {"type": "DT_FLOAT"}, "Tidx": {"type": "DT_INT32"}}}, {"name": "gen/A/layer1/res1/conv0/inorm/moments/SquaredDifference", "op": "SquaredDifference", "input": ["gen/A/layer1/res1/conv0/Conv2D", "gen/A/layer1/res1/conv0/inorm/moments/mean"], "attr": {"T": {"type": "DT_FLOAT"}}}, {"name": "gen/A/layer1/res1/conv0/inorm/moments/variance", "op": "Mean", "input": ["gen/A/layer1/res1/conv0/inorm/moments/SquaredDifference", "gen/A/conv1/inorm/moments/mean/reduction_indices"], "attr": {"keep_dims": {"b": true}, "Tidx": {"type": "DT_INT32"}, "T": {"type": "DT_FLOAT"}}}, {"name": "gen/A/layer1/res1/conv0/inorm/output/add", "op": "AddV2", "input": ["gen/A/conv1/inorm/output/add/y", "gen/A/layer1/res1/conv0/inorm/moments/variance"], "attr": {"T": {"type": "DT_FLOAT"}}}, {"name": "gen/A/layer1/res1/conv0/inorm/output/Rsqrt", "op": "Rsqrt", "input": ["gen/A/layer1/res1/conv0/inorm/output/add"], "attr": {"T": {"type": "DT_FLOAT"}}}, {"name": "gen/A/layer1/res1/conv0/inorm/output/mul", "op": "Mul", "input": ["gen/A/layer1/res1/conv0/inorm/Reshape_1", "gen/A/layer1/res1/conv0/inorm/output/Rsqrt"], "attr": {"T": {"type": "DT_FLOAT"}}}, {"name": "gen/A/layer1/res1/conv0/inorm/output/mul_2", "op": "Mul", "input": ["gen/A/layer1/res1/conv0/inorm/moments/mean", "gen/A/layer1/res1/conv0/inorm/output/mul"], "attr": {"T": {"type": "DT_FLOAT"}}}, {"name": "gen/A/layer1/res1/conv0/inorm/output/mul_1", "op": "Mul", "input": ["gen/A/layer1/res1/conv0/Conv2D", "gen/A/layer1/res1/conv0/inorm/output/mul"], "attr": {"T": {"type": "DT_FLOAT"}}}, {"name": "gen/A/layer1/res1/conv0/inorm/output/sub", "op": "Sub", "input": ["gen/A/layer1/res1/conv0/inorm/Reshape", "gen/A/layer1/res1/conv0/inorm/output/mul_2"], "attr": {"T": {"type": "DT_FLOAT"}}}, {"name": "gen/A/layer1/res1/conv0/inorm/output/add_1", "op": "AddV2", "input": ["gen/A/layer1/res1/conv0/inorm/output/mul_1", "gen/A/layer1/res1/conv0/inorm/output/sub"], "attr": {"T": {"type": "DT_FLOAT"}}}, {"name": "gen/A/layer1/res1/conv0/Relu", "op": "Relu", "input": ["gen/A/layer1/res1/conv0/inorm/output/add_1"], "attr": {"T": {"type": "DT_FLOAT"}}}, {"name": "gen/A/layer1/res1/conv1/Conv2D", "op": "Conv2D", "input": ["gen/A/layer1/res1/conv0/Relu", "gen/A/layer1/res1/conv1/W"], "device": "/device:CPU:0", "attr": {"use_cudnn_on_gpu": {"b": true}, "strides": {"list": {"i": ["1", "1", "1", "1"]}}, "explicit_paddings": {"list": {}}, "T": {"type": "DT_FLOAT"}, "padding": {"s": "U0FNRQ=="}, "dilations": {"list": {"i": ["1", "1", "1", "1"]}}, "data_format": {"s": "TkhXQw=="}}}, {"name": "gen/A/layer1/res1/conv1/inorm/moments/mean", "op": "Mean", "input": ["gen/A/layer1/res1/conv1/Conv2D", "gen/A/conv1/inorm/moments/mean/reduction_indices"], "attr": {"keep_dims": {"b": true}, "Tidx": {"type": "DT_INT32"}, "T": {"type": "DT_FLOAT"}}}, {"name": "gen/A/layer1/res1/conv1/inorm/moments/SquaredDifference", "op": "SquaredDifference", "input": ["gen/A/layer1/res1/conv1/Conv2D", "gen/A/layer1/res1/conv1/inorm/moments/mean"], "attr": {"T": {"type": "DT_FLOAT"}}}, {"name": "gen/A/layer1/res1/conv1/inorm/moments/variance", "op": "Mean", "input": ["gen/A/layer1/res1/conv1/inorm/moments/SquaredDifference", "gen/A/conv1/inorm/moments/mean/reduction_indices"], "attr": {"keep_dims": {"b": true}, "Tidx": {"type": "DT_INT32"}, "T": {"type": "DT_FLOAT"}}}, {"name": "gen/A/layer1/res1/conv1/inorm/output/add", "op": "AddV2", "input": ["gen/A/conv1/inorm/output/add/y", "gen/A/layer1/res1/conv1/inorm/moments/variance"], "attr": {"T": {"type": "DT_FLOAT"}}}, {"name": "gen/A/layer1/res1/conv1/inorm/output/Rsqrt", "op": "Rsqrt", "input": ["gen/A/layer1/res1/conv1/inorm/output/add"], "attr": {"T": {"type": "DT_FLOAT"}}}, {"name": "gen/A/layer1/res1/conv1/inorm/output/mul", "op": "Mul", "input": ["gen/A/layer1/res1/conv1/inorm/Reshape_1", "gen/A/layer1/res1/conv1/inorm/output/Rsqrt"], "attr": {"T": {"type": "DT_FLOAT"}}}, {"name": "gen/A/layer1/res1/conv1/inorm/output/mul_2", "op": "Mul", "input": ["gen/A/layer1/res1/conv1/inorm/moments/mean", "gen/A/layer1/res1/conv1/inorm/output/mul"], "attr": {"T": {"type": "DT_FLOAT"}}}, {"name": "gen/A/layer1/res1/conv1/inorm/output/mul_1", "op": "Mul", "input": ["gen/A/layer1/res1/conv1/Conv2D", "gen/A/layer1/res1/conv1/inorm/output/mul"], "attr": {"T": {"type": "DT_FLOAT"}}}, {"name": "gen/A/layer1/res1/conv1/inorm/output/sub", "op": "Sub", "input": ["gen/A/layer1/res1/conv1/inorm/Reshape", "gen/A/layer1/res1/conv1/inorm/output/mul_2"], "attr": {"T": {"type": "DT_FLOAT"}}}, {"name": "gen/A/layer1/res1/conv1/inorm/output/add_1", "op": "AddV2", "input": ["gen/A/layer1/res1/conv1/inorm/output/mul_1", "gen/A/layer1/res1/conv1/inorm/output/sub"], "attr": {"T": {"type": "DT_FLOAT"}}}, {"name": "gen/A/layer1/res1/conv1/Relu", "op": "Relu", "input": ["gen/A/layer1/res1/conv1/inorm/output/add_1"], "attr": {"T": {"type": "DT_FLOAT"}}}, {"name": "gen/A/layer1/res1/concat", "op": "ConcatV2", "input": ["gen/A/layer1/res1/conv1/Relu", "gen/A/layer1/res0/conv2/Relu", "gen/A/layer1/res0/concat/axis"], "attr": {"Tidx": {"type": "DT_INT32"}, "T": {"type": "DT_FLOAT"}, "N": {"i": "2"}}}, {"name": "gen/A/layer1/res1/conv2/Conv2D", "op": "Conv2D", "input": ["gen/A/layer1/res1/concat", "gen/A/layer1/res1/conv2/W"], "device": "/device:CPU:0", "attr": {"dilations": {"list": {"i": ["1", "1", "1", "1"]}}, "strides": {"list": {"i": ["1", "1", "1", "1"]}}, "data_format": {"s": "TkhXQw=="}, "T": {"type": "DT_FLOAT"}, "padding": {"s": "U0FNRQ=="}, "use_cudnn_on_gpu": {"b": true}, "explicit_paddings": {"list": {}}}}, {"name": "gen/A/layer1/res1/conv2/inorm/moments/mean", "op": "Mean", "input": ["gen/A/layer1/res1/conv2/Conv2D", "gen/A/conv1/inorm/moments/mean/reduction_indices"], "attr": {"Tidx": {"type": "DT_INT32"}, "T": {"type": "DT_FLOAT"}, "keep_dims": {"b": true}}}, {"name": "gen/A/layer1/res1/conv2/inorm/moments/SquaredDifference", "op": "SquaredDifference", "input": ["gen/A/layer1/res1/conv2/Conv2D", "gen/A/layer1/res1/conv2/inorm/moments/mean"], "attr": {"T": {"type": "DT_FLOAT"}}}, {"name": "gen/A/layer1/res1/conv2/inorm/moments/variance", "op": "Mean", "input": ["gen/A/layer1/res1/conv2/inorm/moments/SquaredDifference", "gen/A/conv1/inorm/moments/mean/reduction_indices"], "attr": {"keep_dims": {"b": true}, "Tidx": {"type": "DT_INT32"}, "T": {"type": "DT_FLOAT"}}}, {"name": "gen/A/layer1/res1/conv2/inorm/output/add", "op": "AddV2", "input": ["gen/A/conv1/inorm/output/add/y", "gen/A/layer1/res1/conv2/inorm/moments/variance"], "attr": {"T": {"type": "DT_FLOAT"}}}, {"name": "gen/A/layer1/res1/conv2/inorm/output/Rsqrt", "op": "Rsqrt", "input": ["gen/A/layer1/res1/conv2/inorm/output/add"], "attr": {"T": {"type": "DT_FLOAT"}}}, {"name": "gen/A/layer1/res1/conv2/inorm/output/mul", "op": "Mul", "input": ["gen/A/layer1/res1/conv2/inorm/Reshape_1", "gen/A/layer1/res1/conv2/inorm/output/Rsqrt"], "attr": {"T": {"type": "DT_FLOAT"}}}, {"name": "gen/A/layer1/res1/conv2/inorm/output/mul_2", "op": "Mul", "input": ["gen/A/layer1/res1/conv2/inorm/moments/mean", "gen/A/layer1/res1/conv2/inorm/output/mul"], "attr": {"T": {"type": "DT_FLOAT"}}}, {"name": "gen/A/layer1/res1/conv2/inorm/output/mul_1", "op": "Mul", "input": ["gen/A/layer1/res1/conv2/Conv2D", "gen/A/layer1/res1/conv2/inorm/output/mul"], "attr": {"T": {"type": "DT_FLOAT"}}}, {"name": "gen/A/layer1/res1/conv2/inorm/output/sub", "op": "Sub", "input": ["gen/A/layer1/res1/conv2/inorm/Reshape", "gen/A/layer1/res1/conv2/inorm/output/mul_2"], "attr": {"T": {"type": "DT_FLOAT"}}}, {"name": "gen/A/layer1/res1/conv2/inorm/output/add_1", "op": "AddV2", "input": ["gen/A/layer1/res1/conv2/inorm/output/mul_1", "gen/A/layer1/res1/conv2/inorm/output/sub"], "attr": {"T": {"type": "DT_FLOAT"}}}, {"name": "gen/A/layer1/res1/conv2/Relu", "op": "Relu", "input": ["gen/A/layer1/res1/conv2/inorm/output/add_1"], "attr": {"T": {"type": "DT_FLOAT"}}}, {"name": "gen/A/layer1/res2/conv0/Conv2D", "op": "Conv2D", "input": ["gen/A/layer1/res1/conv2/Relu", "gen/A/layer1/res2/conv0/W"], "device": "/device:CPU:0", "attr": {"padding": {"s": "U0FNRQ=="}, "dilations": {"list": {"i": ["1", "1", "1", "1"]}}, "T": {"type": "DT_FLOAT"}, "use_cudnn_on_gpu": {"b": true}, "data_format": {"s": "TkhXQw=="}, "explicit_paddings": {"list": {}}, "strides": {"list": {"i": ["1", "1", "1", "1"]}}}}, {"name": "gen/A/layer1/res2/conv0/inorm/moments/mean", "op": "Mean", "input": ["gen/A/layer1/res2/conv0/Conv2D", "gen/A/conv1/inorm/moments/mean/reduction_indices"], "attr": {"T": {"type": "DT_FLOAT"}, "keep_dims": {"b": true}, "Tidx": {"type": "DT_INT32"}}}, {"name": "gen/A/layer1/res2/conv0/inorm/moments/SquaredDifference", "op": "SquaredDifference", "input": ["gen/A/layer1/res2/conv0/Conv2D", "gen/A/layer1/res2/conv0/inorm/moments/mean"], "attr": {"T": {"type": "DT_FLOAT"}}}, {"name": "gen/A/layer1/res2/conv0/inorm/moments/variance", "op": "Mean", "input": ["gen/A/layer1/res2/conv0/inorm/moments/SquaredDifference", "gen/A/conv1/inorm/moments/mean/reduction_indices"], "attr": {"Tidx": {"type": "DT_INT32"}, "T": {"type": "DT_FLOAT"}, "keep_dims": {"b": true}}}, {"name": "gen/A/layer1/res2/conv0/inorm/output/add", "op": "AddV2", "input": ["gen/A/conv1/inorm/output/add/y", "gen/A/layer1/res2/conv0/inorm/moments/variance"], "attr": {"T": {"type": "DT_FLOAT"}}}, {"name": "gen/A/layer1/res2/conv0/inorm/output/Rsqrt", "op": "Rsqrt", "input": ["gen/A/layer1/res2/conv0/inorm/output/add"], "attr": {"T": {"type": "DT_FLOAT"}}}, {"name": "gen/A/layer1/res2/conv0/inorm/output/mul", "op": "Mul", "input": ["gen/A/layer1/res2/conv0/inorm/Reshape_1", "gen/A/layer1/res2/conv0/inorm/output/Rsqrt"], "attr": {"T": {"type": "DT_FLOAT"}}}, {"name": "gen/A/layer1/res2/conv0/inorm/output/mul_2", "op": "Mul", "input": ["gen/A/layer1/res2/conv0/inorm/moments/mean", "gen/A/layer1/res2/conv0/inorm/output/mul"], "attr": {"T": {"type": "DT_FLOAT"}}}, {"name": "gen/A/layer1/res2/conv0/inorm/output/mul_1", "op": "Mul", "input": ["gen/A/layer1/res2/conv0/Conv2D", "gen/A/layer1/res2/conv0/inorm/output/mul"], "attr": {"T": {"type": "DT_FLOAT"}}}, {"name": "gen/A/layer1/res2/conv0/inorm/output/sub", "op": "Sub", "input": ["gen/A/layer1/res2/conv0/inorm/Reshape", "gen/A/layer1/res2/conv0/inorm/output/mul_2"], "attr": {"T": {"type": "DT_FLOAT"}}}, {"name": "gen/A/layer1/res2/conv0/inorm/output/add_1", "op": "AddV2", "input": ["gen/A/layer1/res2/conv0/inorm/output/mul_1", "gen/A/layer1/res2/conv0/inorm/output/sub"], "attr": {"T": {"type": "DT_FLOAT"}}}, {"name": "gen/A/layer1/res2/conv0/Relu", "op": "Relu", "input": ["gen/A/layer1/res2/conv0/inorm/output/add_1"], "attr": {"T": {"type": "DT_FLOAT"}}}, {"name": "gen/A/layer1/res2/conv1/Conv2D", "op": "Conv2D", "input": ["gen/A/layer1/res2/conv0/Relu", "gen/A/layer1/res2/conv1/W"], "device": "/device:CPU:0", "attr": {"T": {"type": "DT_FLOAT"}, "padding": {"s": "U0FNRQ=="}, "dilations": {"list": {"i": ["1", "1", "1", "1"]}}, "data_format": {"s": "TkhXQw=="}, "use_cudnn_on_gpu": {"b": true}, "strides": {"list": {"i": ["1", "1", "1", "1"]}}, "explicit_paddings": {"list": {}}}}, {"name": "gen/A/layer1/res2/conv1/inorm/moments/mean", "op": "Mean", "input": ["gen/A/layer1/res2/conv1/Conv2D", "gen/A/conv1/inorm/moments/mean/reduction_indices"], "attr": {"Tidx": {"type": "DT_INT32"}, "T": {"type": "DT_FLOAT"}, "keep_dims": {"b": true}}}, {"name": "gen/A/layer1/res2/conv1/inorm/moments/SquaredDifference", "op": "SquaredDifference", "input": ["gen/A/layer1/res2/conv1/Conv2D", "gen/A/layer1/res2/conv1/inorm/moments/mean"], "attr": {"T": {"type": "DT_FLOAT"}}}, {"name": "gen/A/layer1/res2/conv1/inorm/moments/variance", "op": "Mean", "input": ["gen/A/layer1/res2/conv1/inorm/moments/SquaredDifference", "gen/A/conv1/inorm/moments/mean/reduction_indices"], "attr": {"T": {"type": "DT_FLOAT"}, "keep_dims": {"b": true}, "Tidx": {"type": "DT_INT32"}}}, {"name": "gen/A/layer1/res2/conv1/inorm/output/add", "op": "AddV2", "input": ["gen/A/conv1/inorm/output/add/y", "gen/A/layer1/res2/conv1/inorm/moments/variance"], "attr": {"T": {"type": "DT_FLOAT"}}}, {"name": "gen/A/layer1/res2/conv1/inorm/output/Rsqrt", "op": "Rsqrt", "input": ["gen/A/layer1/res2/conv1/inorm/output/add"], "attr": {"T": {"type": "DT_FLOAT"}}}, {"name": "gen/A/layer1/res2/conv1/inorm/output/mul", "op": "Mul", "input": ["gen/A/layer1/res2/conv1/inorm/Reshape_1", "gen/A/layer1/res2/conv1/inorm/output/Rsqrt"], "attr": {"T": {"type": "DT_FLOAT"}}}, {"name": "gen/A/layer1/res2/conv1/inorm/output/mul_2", "op": "Mul", "input": ["gen/A/layer1/res2/conv1/inorm/moments/mean", "gen/A/layer1/res2/conv1/inorm/output/mul"], "attr": {"T": {"type": "DT_FLOAT"}}}, {"name": "gen/A/layer1/res2/conv1/inorm/output/mul_1", "op": "Mul", "input": ["gen/A/layer1/res2/conv1/Conv2D", "gen/A/layer1/res2/conv1/inorm/output/mul"], "attr": {"T": {"type": "DT_FLOAT"}}}, {"name": "gen/A/layer1/res2/conv1/inorm/output/sub", "op": "Sub", "input": ["gen/A/layer1/res2/conv1/inorm/Reshape", "gen/A/layer1/res2/conv1/inorm/output/mul_2"], "attr": {"T": {"type": "DT_FLOAT"}}}, {"name": "gen/A/layer1/res2/conv1/inorm/output/add_1", "op": "AddV2", "input": ["gen/A/layer1/res2/conv1/inorm/output/mul_1", "gen/A/layer1/res2/conv1/inorm/output/sub"], "attr": {"T": {"type": "DT_FLOAT"}}}, {"name": "gen/A/layer1/res2/conv1/Relu", "op": "Relu", "input": ["gen/A/layer1/res2/conv1/inorm/output/add_1"], "attr": {"T": {"type": "DT_FLOAT"}}}, {"name": "gen/A/layer1/res2/concat", "op": "ConcatV2", "input": ["gen/A/layer1/res2/conv1/Relu", "gen/A/layer1/res1/conv2/Relu", "gen/A/layer1/res0/concat/axis"], "attr": {"N": {"i": "2"}, "T": {"type": "DT_FLOAT"}, "Tidx": {"type": "DT_INT32"}}}, {"name": "gen/A/layer1/res2/conv2/Conv2D", "op": "Conv2D", "input": ["gen/A/layer1/res2/concat", "gen/A/layer1/res2/conv2/W"], "device": "/device:CPU:0", "attr": {"T": {"type": "DT_FLOAT"}, "padding": {"s": "U0FNRQ=="}, "dilations": {"list": {"i": ["1", "1", "1", "1"]}}, "data_format": {"s": "TkhXQw=="}, "strides": {"list": {"i": ["1", "1", "1", "1"]}}, "use_cudnn_on_gpu": {"b": true}, "explicit_paddings": {"list": {}}}}, {"name": "gen/A/layer1/res2/conv2/inorm/moments/mean", "op": "Mean", "input": ["gen/A/layer1/res2/conv2/Conv2D", "gen/A/conv1/inorm/moments/mean/reduction_indices"], "attr": {"T": {"type": "DT_FLOAT"}, "keep_dims": {"b": true}, "Tidx": {"type": "DT_INT32"}}}, {"name": "gen/A/layer1/res2/conv2/inorm/moments/SquaredDifference", "op": "SquaredDifference", "input": ["gen/A/layer1/res2/conv2/Conv2D", "gen/A/layer1/res2/conv2/inorm/moments/mean"], "attr": {"T": {"type": "DT_FLOAT"}}}, {"name": "gen/A/layer1/res2/conv2/inorm/moments/variance", "op": "Mean", "input": ["gen/A/layer1/res2/conv2/inorm/moments/SquaredDifference", "gen/A/conv1/inorm/moments/mean/reduction_indices"], "attr": {"T": {"type": "DT_FLOAT"}, "keep_dims": {"b": true}, "Tidx": {"type": "DT_INT32"}}}, {"name": "gen/A/layer1/res2/conv2/inorm/output/add", "op": "AddV2", "input": ["gen/A/conv1/inorm/output/add/y", "gen/A/layer1/res2/conv2/inorm/moments/variance"], "attr": {"T": {"type": "DT_FLOAT"}}}, {"name": "gen/A/layer1/res2/conv2/inorm/output/Rsqrt", "op": "Rsqrt", "input": ["gen/A/layer1/res2/conv2/inorm/output/add"], "attr": {"T": {"type": "DT_FLOAT"}}}, {"name": "gen/A/layer1/res2/conv2/inorm/output/mul", "op": "Mul", "input": ["gen/A/layer1/res2/conv2/inorm/Reshape_1", "gen/A/layer1/res2/conv2/inorm/output/Rsqrt"], "attr": {"T": {"type": "DT_FLOAT"}}}, {"name": "gen/A/layer1/res2/conv2/inorm/output/mul_2", "op": "Mul", "input": ["gen/A/layer1/res2/conv2/inorm/moments/mean", "gen/A/layer1/res2/conv2/inorm/output/mul"], "attr": {"T": {"type": "DT_FLOAT"}}}, {"name": "gen/A/layer1/res2/conv2/inorm/output/mul_1", "op": "Mul", "input": ["gen/A/layer1/res2/conv2/Conv2D", "gen/A/layer1/res2/conv2/inorm/output/mul"], "attr": {"T": {"type": "DT_FLOAT"}}}, {"name": "gen/A/layer1/res2/conv2/inorm/output/sub", "op": "Sub", "input": ["gen/A/layer1/res2/conv2/inorm/Reshape", "gen/A/layer1/res2/conv2/inorm/output/mul_2"], "attr": {"T": {"type": "DT_FLOAT"}}}, {"name": "gen/A/layer1/res2/conv2/inorm/output/add_1", "op": "AddV2", "input": ["gen/A/layer1/res2/conv2/inorm/output/mul_1", "gen/A/layer1/res2/conv2/inorm/output/sub"], "attr": {"T": {"type": "DT_FLOAT"}}}, {"name": "gen/A/layer1/res2/conv2/Relu", "op": "Relu", "input": ["gen/A/layer1/res2/conv2/inorm/output/add_1"], "attr": {"T": {"type": "DT_FLOAT"}}}, {"name": "gen/A/conv2/Conv2D", "op": "Conv2D", "input": ["gen/A/layer1/res2/conv2/Relu", "gen/A/conv2/W"], "device": "/device:CPU:0", "attr": {"dilations": {"list": {"i": ["1", "1", "1", "1"]}}, "data_format": {"s": "TkhXQw=="}, "use_cudnn_on_gpu": {"b": true}, "strides": {"list": {"i": ["1", "2", "2", "1"]}}, "explicit_paddings": {"list": {}}, "T": {"type": "DT_FLOAT"}, "padding": {"s": "U0FNRQ=="}}}, {"name": "gen/A/conv2/inorm/moments/mean", "op": "Mean", "input": ["gen/A/conv2/Conv2D", "gen/A/conv1/inorm/moments/mean/reduction_indices"], "attr": {"T": {"type": "DT_FLOAT"}, "keep_dims": {"b": true}, "Tidx": {"type": "DT_INT32"}}}, {"name": "gen/A/conv2/inorm/moments/SquaredDifference", "op": "SquaredDifference", "input": ["gen/A/conv2/Conv2D", "gen/A/conv2/inorm/moments/mean"], "attr": {"T": {"type": "DT_FLOAT"}}}, {"name": "gen/A/conv2/inorm/moments/variance", "op": "Mean", "input": ["gen/A/conv2/inorm/moments/SquaredDifference", "gen/A/conv1/inorm/moments/mean/reduction_indices"], "attr": {"T": {"type": "DT_FLOAT"}, "keep_dims": {"b": true}, "Tidx": {"type": "DT_INT32"}}}, {"name": "gen/A/conv2/inorm/output/add", "op": "AddV2", "input": ["gen/A/conv1/inorm/output/add/y", "gen/A/conv2/inorm/moments/variance"], "attr": {"T": {"type": "DT_FLOAT"}}}, {"name": "gen/A/conv2/inorm/output/Rsqrt", "op": "Rsqrt", "input": ["gen/A/conv2/inorm/output/add"], "attr": {"T": {"type": "DT_FLOAT"}}}, {"name": "gen/A/conv2/inorm/output/mul", "op": "Mul", "input": ["gen/A/conv2/inorm/Reshape_1", "gen/A/conv2/inorm/output/Rsqrt"], "attr": {"T": {"type": "DT_FLOAT"}}}, {"name": "gen/A/conv2/inorm/output/mul_2", "op": "Mul", "input": ["gen/A/conv2/inorm/moments/mean", "gen/A/conv2/inorm/output/mul"], "attr": {"T": {"type": "DT_FLOAT"}}}, {"name": "gen/A/conv2/inorm/output/mul_1", "op": "Mul", "input": ["gen/A/conv2/Conv2D", "gen/A/conv2/inorm/output/mul"], "attr": {"T": {"type": "DT_FLOAT"}}}, {"name": "gen/A/conv2/inorm/output/sub", "op": "Sub", "input": ["gen/A/conv2/inorm/Reshape", "gen/A/conv2/inorm/output/mul_2"], "attr": {"T": {"type": "DT_FLOAT"}}}, {"name": "gen/A/conv2/inorm/output/add_1", "op": "AddV2", "input": ["gen/A/conv2/inorm/output/mul_1", "gen/A/conv2/inorm/output/sub"], "attr": {"T": {"type": "DT_FLOAT"}}}, {"name": "gen/A/conv2/Relu", "op": "Relu", "input": ["gen/A/conv2/inorm/output/add_1"], "attr": {"T": {"type": "DT_FLOAT"}}}, {"name": "gen/A/layer2/res0/conv0/Conv2D", "op": "Conv2D", "input": ["gen/A/conv2/Relu", "gen/A/layer2/res0/conv0/W"], "device": "/device:CPU:0", "attr": {"data_format": {"s": "TkhXQw=="}, "explicit_paddings": {"list": {}}, "padding": {"s": "U0FNRQ=="}, "strides": {"list": {"i": ["1", "1", "1", "1"]}}, "T": {"type": "DT_FLOAT"}, "dilations": {"list": {"i": ["1", "1", "1", "1"]}}, "use_cudnn_on_gpu": {"b": true}}}, {"name": "gen/A/layer2/res0/conv0/inorm/moments/mean", "op": "Mean", "input": ["gen/A/layer2/res0/conv0/Conv2D", "gen/A/conv1/inorm/moments/mean/reduction_indices"], "attr": {"T": {"type": "DT_FLOAT"}, "Tidx": {"type": "DT_INT32"}, "keep_dims": {"b": true}}}, {"name": "gen/A/layer2/res0/conv0/inorm/moments/SquaredDifference", "op": "SquaredDifference", "input": ["gen/A/layer2/res0/conv0/Conv2D", "gen/A/layer2/res0/conv0/inorm/moments/mean"], "attr": {"T": {"type": "DT_FLOAT"}}}, {"name": "gen/A/layer2/res0/conv0/inorm/moments/variance", "op": "Mean", "input": ["gen/A/layer2/res0/conv0/inorm/moments/SquaredDifference", "gen/A/conv1/inorm/moments/mean/reduction_indices"], "attr": {"T": {"type": "DT_FLOAT"}, "Tidx": {"type": "DT_INT32"}, "keep_dims": {"b": true}}}, {"name": "gen/A/layer2/res0/conv0/inorm/output/add", "op": "AddV2", "input": ["gen/A/conv1/inorm/output/add/y", "gen/A/layer2/res0/conv0/inorm/moments/variance"], "attr": {"T": {"type": "DT_FLOAT"}}}, {"name": "gen/A/layer2/res0/conv0/inorm/output/Rsqrt", "op": "Rsqrt", "input": ["gen/A/layer2/res0/conv0/inorm/output/add"], "attr": {"T": {"type": "DT_FLOAT"}}}, {"name": "gen/A/layer2/res0/conv0/inorm/output/mul", "op": "Mul", "input": ["gen/A/layer2/res0/conv0/inorm/Reshape_1", "gen/A/layer2/res0/conv0/inorm/output/Rsqrt"], "attr": {"T": {"type": "DT_FLOAT"}}}, {"name": "gen/A/layer2/res0/conv0/inorm/output/mul_2", "op": "Mul", "input": ["gen/A/layer2/res0/conv0/inorm/moments/mean", "gen/A/layer2/res0/conv0/inorm/output/mul"], "attr": {"T": {"type": "DT_FLOAT"}}}, {"name": "gen/A/layer2/res0/conv0/inorm/output/mul_1", "op": "Mul", "input": ["gen/A/layer2/res0/conv0/Conv2D", "gen/A/layer2/res0/conv0/inorm/output/mul"], "attr": {"T": {"type": "DT_FLOAT"}}}, {"name": "gen/A/layer2/res0/conv0/inorm/output/sub", "op": "Sub", "input": ["gen/A/layer2/res0/conv0/inorm/Reshape", "gen/A/layer2/res0/conv0/inorm/output/mul_2"], "attr": {"T": {"type": "DT_FLOAT"}}}, {"name": "gen/A/layer2/res0/conv0/inorm/output/add_1", "op": "AddV2", "input": ["gen/A/layer2/res0/conv0/inorm/output/mul_1", "gen/A/layer2/res0/conv0/inorm/output/sub"], "attr": {"T": {"type": "DT_FLOAT"}}}, {"name": "gen/A/layer2/res0/conv0/Relu", "op": "Relu", "input": ["gen/A/layer2/res0/conv0/inorm/output/add_1"], "attr": {"T": {"type": "DT_FLOAT"}}}, {"name": "gen/A/layer2/res0/conv1/Conv2D", "op": "Conv2D", "input": ["gen/A/layer2/res0/conv0/Relu", "gen/A/layer2/res0/conv1/W"], "device": "/device:CPU:0", "attr": {"dilations": {"list": {"i": ["1", "1", "1", "1"]}}, "data_format": {"s": "TkhXQw=="}, "use_cudnn_on_gpu": {"b": true}, "strides": {"list": {"i": ["1", "1", "1", "1"]}}, "explicit_paddings": {"list": {}}, "T": {"type": "DT_FLOAT"}, "padding": {"s": "U0FNRQ=="}}}, {"name": "gen/A/layer2/res0/conv1/inorm/moments/mean", "op": "Mean", "input": ["gen/A/layer2/res0/conv1/Conv2D", "gen/A/conv1/inorm/moments/mean/reduction_indices"], "attr": {"T": {"type": "DT_FLOAT"}, "keep_dims": {"b": true}, "Tidx": {"type": "DT_INT32"}}}, {"name": "gen/A/layer2/res0/conv1/inorm/moments/SquaredDifference", "op": "SquaredDifference", "input": ["gen/A/layer2/res0/conv1/Conv2D", "gen/A/layer2/res0/conv1/inorm/moments/mean"], "attr": {"T": {"type": "DT_FLOAT"}}}, {"name": "gen/A/layer2/res0/conv1/inorm/moments/variance", "op": "Mean", "input": ["gen/A/layer2/res0/conv1/inorm/moments/SquaredDifference", "gen/A/conv1/inorm/moments/mean/reduction_indices"], "attr": {"T": {"type": "DT_FLOAT"}, "Tidx": {"type": "DT_INT32"}, "keep_dims": {"b": true}}}, {"name": "gen/A/layer2/res0/conv1/inorm/output/add", "op": "AddV2", "input": ["gen/A/conv1/inorm/output/add/y", "gen/A/layer2/res0/conv1/inorm/moments/variance"], "attr": {"T": {"type": "DT_FLOAT"}}}, {"name": "gen/A/layer2/res0/conv1/inorm/output/Rsqrt", "op": "Rsqrt", "input": ["gen/A/layer2/res0/conv1/inorm/output/add"], "attr": {"T": {"type": "DT_FLOAT"}}}, {"name": "gen/A/layer2/res0/conv1/inorm/output/mul", "op": "Mul", "input": ["gen/A/layer2/res0/conv1/inorm/Reshape_1", "gen/A/layer2/res0/conv1/inorm/output/Rsqrt"], "attr": {"T": {"type": "DT_FLOAT"}}}, {"name": "gen/A/layer2/res0/conv1/inorm/output/mul_2", "op": "Mul", "input": ["gen/A/layer2/res0/conv1/inorm/moments/mean", "gen/A/layer2/res0/conv1/inorm/output/mul"], "attr": {"T": {"type": "DT_FLOAT"}}}, {"name": "gen/A/layer2/res0/conv1/inorm/output/mul_1", "op": "Mul", "input": ["gen/A/layer2/res0/conv1/Conv2D", "gen/A/layer2/res0/conv1/inorm/output/mul"], "attr": {"T": {"type": "DT_FLOAT"}}}, {"name": "gen/A/layer2/res0/conv1/inorm/output/sub", "op": "Sub", "input": ["gen/A/layer2/res0/conv1/inorm/Reshape", "gen/A/layer2/res0/conv1/inorm/output/mul_2"], "attr": {"T": {"type": "DT_FLOAT"}}}, {"name": "gen/A/layer2/res0/conv1/inorm/output/add_1", "op": "AddV2", "input": ["gen/A/layer2/res0/conv1/inorm/output/mul_1", "gen/A/layer2/res0/conv1/inorm/output/sub"], "attr": {"T": {"type": "DT_FLOAT"}}}, {"name": "gen/A/layer2/res0/conv1/Relu", "op": "Relu", "input": ["gen/A/layer2/res0/conv1/inorm/output/add_1"], "attr": {"T": {"type": "DT_FLOAT"}}}, {"name": "gen/A/layer2/res0/concat", "op": "ConcatV2", "input": ["gen/A/layer2/res0/conv1/Relu", "gen/A/conv2/Relu", "gen/A/layer1/res0/concat/axis"], "attr": {"Tidx": {"type": "DT_INT32"}, "N": {"i": "2"}, "T": {"type": "DT_FLOAT"}}}, {"name": "gen/A/layer2/res0/conv2/Conv2D", "op": "Conv2D", "input": ["gen/A/layer2/res0/concat", "gen/A/layer2/res0/conv2/W"], "device": "/device:CPU:0", "attr": {"dilations": {"list": {"i": ["1", "1", "1", "1"]}}, "use_cudnn_on_gpu": {"b": true}, "T": {"type": "DT_FLOAT"}, "data_format": {"s": "TkhXQw=="}, "explicit_paddings": {"list": {}}, "strides": {"list": {"i": ["1", "1", "1", "1"]}}, "padding": {"s": "U0FNRQ=="}}}, {"name": "gen/A/layer2/res0/conv2/inorm/moments/mean", "op": "Mean", "input": ["gen/A/layer2/res0/conv2/Conv2D", "gen/A/conv1/inorm/moments/mean/reduction_indices"], "attr": {"keep_dims": {"b": true}, "Tidx": {"type": "DT_INT32"}, "T": {"type": "DT_FLOAT"}}}, {"name": "gen/A/layer2/res0/conv2/inorm/moments/SquaredDifference", "op": "SquaredDifference", "input": ["gen/A/layer2/res0/conv2/Conv2D", "gen/A/layer2/res0/conv2/inorm/moments/mean"], "attr": {"T": {"type": "DT_FLOAT"}}}, {"name": "gen/A/layer2/res0/conv2/inorm/moments/variance", "op": "Mean", "input": ["gen/A/layer2/res0/conv2/inorm/moments/SquaredDifference", "gen/A/conv1/inorm/moments/mean/reduction_indices"], "attr": {"keep_dims": {"b": true}, "Tidx": {"type": "DT_INT32"}, "T": {"type": "DT_FLOAT"}}}, {"name": "gen/A/layer2/res0/conv2/inorm/output/add", "op": "AddV2", "input": ["gen/A/conv1/inorm/output/add/y", "gen/A/layer2/res0/conv2/inorm/moments/variance"], "attr": {"T": {"type": "DT_FLOAT"}}}, {"name": "gen/A/layer2/res0/conv2/inorm/output/Rsqrt", "op": "Rsqrt", "input": ["gen/A/layer2/res0/conv2/inorm/output/add"], "attr": {"T": {"type": "DT_FLOAT"}}}, {"name": "gen/A/layer2/res0/conv2/inorm/output/mul", "op": "Mul", "input": ["gen/A/layer2/res0/conv2/inorm/Reshape_1", "gen/A/layer2/res0/conv2/inorm/output/Rsqrt"], "attr": {"T": {"type": "DT_FLOAT"}}}, {"name": "gen/A/layer2/res0/conv2/inorm/output/mul_2", "op": "Mul", "input": ["gen/A/layer2/res0/conv2/inorm/moments/mean", "gen/A/layer2/res0/conv2/inorm/output/mul"], "attr": {"T": {"type": "DT_FLOAT"}}}, {"name": "gen/A/layer2/res0/conv2/inorm/output/mul_1", "op": "Mul", "input": ["gen/A/layer2/res0/conv2/Conv2D", "gen/A/layer2/res0/conv2/inorm/output/mul"], "attr": {"T": {"type": "DT_FLOAT"}}}, {"name": "gen/A/layer2/res0/conv2/inorm/output/sub", "op": "Sub", "input": ["gen/A/layer2/res0/conv2/inorm/Reshape", "gen/A/layer2/res0/conv2/inorm/output/mul_2"], "attr": {"T": {"type": "DT_FLOAT"}}}, {"name": "gen/A/layer2/res0/conv2/inorm/output/add_1", "op": "AddV2", "input": ["gen/A/layer2/res0/conv2/inorm/output/mul_1", "gen/A/layer2/res0/conv2/inorm/output/sub"], "attr": {"T": {"type": "DT_FLOAT"}}}, {"name": "gen/A/layer2/res0/conv2/Relu", "op": "Relu", "input": ["gen/A/layer2/res0/conv2/inorm/output/add_1"], "attr": {"T": {"type": "DT_FLOAT"}}}, {"name": "gen/A/layer2/res1/conv0/Conv2D", "op": "Conv2D", "input": ["gen/A/layer2/res0/conv2/Relu", "gen/A/layer2/res1/conv0/W"], "device": "/device:CPU:0", "attr": {"data_format": {"s": "TkhXQw=="}, "explicit_paddings": {"list": {}}, "padding": {"s": "U0FNRQ=="}, "strides": {"list": {"i": ["1", "1", "1", "1"]}}, "T": {"type": "DT_FLOAT"}, "dilations": {"list": {"i": ["1", "1", "1", "1"]}}, "use_cudnn_on_gpu": {"b": true}}}, {"name": "gen/A/layer2/res1/conv0/inorm/moments/mean", "op": "Mean", "input": ["gen/A/layer2/res1/conv0/Conv2D", "gen/A/conv1/inorm/moments/mean/reduction_indices"], "attr": {"Tidx": {"type": "DT_INT32"}, "T": {"type": "DT_FLOAT"}, "keep_dims": {"b": true}}}, {"name": "gen/A/layer2/res1/conv0/inorm/moments/SquaredDifference", "op": "SquaredDifference", "input": ["gen/A/layer2/res1/conv0/Conv2D", "gen/A/layer2/res1/conv0/inorm/moments/mean"], "attr": {"T": {"type": "DT_FLOAT"}}}, {"name": "gen/A/layer2/res1/conv0/inorm/moments/variance", "op": "Mean", "input": ["gen/A/layer2/res1/conv0/inorm/moments/SquaredDifference", "gen/A/conv1/inorm/moments/mean/reduction_indices"], "attr": {"Tidx": {"type": "DT_INT32"}, "T": {"type": "DT_FLOAT"}, "keep_dims": {"b": true}}}, {"name": "gen/A/layer2/res1/conv0/inorm/output/add", "op": "AddV2", "input": ["gen/A/conv1/inorm/output/add/y", "gen/A/layer2/res1/conv0/inorm/moments/variance"], "attr": {"T": {"type": "DT_FLOAT"}}}, {"name": "gen/A/layer2/res1/conv0/inorm/output/Rsqrt", "op": "Rsqrt", "input": ["gen/A/layer2/res1/conv0/inorm/output/add"], "attr": {"T": {"type": "DT_FLOAT"}}}, {"name": "gen/A/layer2/res1/conv0/inorm/output/mul", "op": "Mul", "input": ["gen/A/layer2/res1/conv0/inorm/Reshape_1", "gen/A/layer2/res1/conv0/inorm/output/Rsqrt"], "attr": {"T": {"type": "DT_FLOAT"}}}, {"name": "gen/A/layer2/res1/conv0/inorm/output/mul_2", "op": "Mul", "input": ["gen/A/layer2/res1/conv0/inorm/moments/mean", "gen/A/layer2/res1/conv0/inorm/output/mul"], "attr": {"T": {"type": "DT_FLOAT"}}}, {"name": "gen/A/layer2/res1/conv0/inorm/output/mul_1", "op": "Mul", "input": ["gen/A/layer2/res1/conv0/Conv2D", "gen/A/layer2/res1/conv0/inorm/output/mul"], "attr": {"T": {"type": "DT_FLOAT"}}}, {"name": "gen/A/layer2/res1/conv0/inorm/output/sub", "op": "Sub", "input": ["gen/A/layer2/res1/conv0/inorm/Reshape", "gen/A/layer2/res1/conv0/inorm/output/mul_2"], "attr": {"T": {"type": "DT_FLOAT"}}}, {"name": "gen/A/layer2/res1/conv0/inorm/output/add_1", "op": "AddV2", "input": ["gen/A/layer2/res1/conv0/inorm/output/mul_1", "gen/A/layer2/res1/conv0/inorm/output/sub"], "attr": {"T": {"type": "DT_FLOAT"}}}, {"name": "gen/A/layer2/res1/conv0/Relu", "op": "Relu", "input": ["gen/A/layer2/res1/conv0/inorm/output/add_1"], "attr": {"T": {"type": "DT_FLOAT"}}}, {"name": "gen/A/layer2/res1/conv1/Conv2D", "op": "Conv2D", "input": ["gen/A/layer2/res1/conv0/Relu", "gen/A/layer2/res1/conv1/W"], "device": "/device:CPU:0", "attr": {"use_cudnn_on_gpu": {"b": true}, "T": {"type": "DT_FLOAT"}, "padding": {"s": "U0FNRQ=="}, "explicit_paddings": {"list": {}}, "dilations": {"list": {"i": ["1", "1", "1", "1"]}}, "strides": {"list": {"i": ["1", "1", "1", "1"]}}, "data_format": {"s": "TkhXQw=="}}}, {"name": "gen/A/layer2/res1/conv1/inorm/moments/mean", "op": "Mean", "input": ["gen/A/layer2/res1/conv1/Conv2D", "gen/A/conv1/inorm/moments/mean/reduction_indices"], "attr": {"T": {"type": "DT_FLOAT"}, "keep_dims": {"b": true}, "Tidx": {"type": "DT_INT32"}}}, {"name": "gen/A/layer2/res1/conv1/inorm/moments/SquaredDifference", "op": "SquaredDifference", "input": ["gen/A/layer2/res1/conv1/Conv2D", "gen/A/layer2/res1/conv1/inorm/moments/mean"], "attr": {"T": {"type": "DT_FLOAT"}}}, {"name": "gen/A/layer2/res1/conv1/inorm/moments/variance", "op": "Mean", "input": ["gen/A/layer2/res1/conv1/inorm/moments/SquaredDifference", "gen/A/conv1/inorm/moments/mean/reduction_indices"], "attr": {"T": {"type": "DT_FLOAT"}, "Tidx": {"type": "DT_INT32"}, "keep_dims": {"b": true}}}, {"name": "gen/A/layer2/res1/conv1/inorm/output/add", "op": "AddV2", "input": ["gen/A/conv1/inorm/output/add/y", "gen/A/layer2/res1/conv1/inorm/moments/variance"], "attr": {"T": {"type": "DT_FLOAT"}}}, {"name": "gen/A/layer2/res1/conv1/inorm/output/Rsqrt", "op": "Rsqrt", "input": ["gen/A/layer2/res1/conv1/inorm/output/add"], "attr": {"T": {"type": "DT_FLOAT"}}}, {"name": "gen/A/layer2/res1/conv1/inorm/output/mul", "op": "Mul", "input": ["gen/A/layer2/res1/conv1/inorm/Reshape_1", "gen/A/layer2/res1/conv1/inorm/output/Rsqrt"], "attr": {"T": {"type": "DT_FLOAT"}}}, {"name": "gen/A/layer2/res1/conv1/inorm/output/mul_2", "op": "Mul", "input": ["gen/A/layer2/res1/conv1/inorm/moments/mean", "gen/A/layer2/res1/conv1/inorm/output/mul"], "attr": {"T": {"type": "DT_FLOAT"}}}, {"name": "gen/A/layer2/res1/conv1/inorm/output/mul_1", "op": "Mul", "input": ["gen/A/layer2/res1/conv1/Conv2D", "gen/A/layer2/res1/conv1/inorm/output/mul"], "attr": {"T": {"type": "DT_FLOAT"}}}, {"name": "gen/A/layer2/res1/conv1/inorm/output/sub", "op": "Sub", "input": ["gen/A/layer2/res1/conv1/inorm/Reshape", "gen/A/layer2/res1/conv1/inorm/output/mul_2"], "attr": {"T": {"type": "DT_FLOAT"}}}, {"name": "gen/A/layer2/res1/conv1/inorm/output/add_1", "op": "AddV2", "input": ["gen/A/layer2/res1/conv1/inorm/output/mul_1", "gen/A/layer2/res1/conv1/inorm/output/sub"], "attr": {"T": {"type": "DT_FLOAT"}}}, {"name": "gen/A/layer2/res1/conv1/Relu", "op": "Relu", "input": ["gen/A/layer2/res1/conv1/inorm/output/add_1"], "attr": {"T": {"type": "DT_FLOAT"}}}, {"name": "gen/A/layer2/res1/concat", "op": "ConcatV2", "input": ["gen/A/layer2/res1/conv1/Relu", "gen/A/layer2/res0/conv2/Relu", "gen/A/layer1/res0/concat/axis"], "attr": {"Tidx": {"type": "DT_INT32"}, "T": {"type": "DT_FLOAT"}, "N": {"i": "2"}}}, {"name": "gen/A/layer2/res1/conv2/Conv2D", "op": "Conv2D", "input": ["gen/A/layer2/res1/concat", "gen/A/layer2/res1/conv2/W"], "device": "/device:CPU:0", "attr": {"T": {"type": "DT_FLOAT"}, "padding": {"s": "U0FNRQ=="}, "dilations": {"list": {"i": ["1", "1", "1", "1"]}}, "data_format": {"s": "TkhXQw=="}, "use_cudnn_on_gpu": {"b": true}, "strides": {"list": {"i": ["1", "1", "1", "1"]}}, "explicit_paddings": {"list": {}}}}, {"name": "gen/A/layer2/res1/conv2/inorm/moments/mean", "op": "Mean", "input": ["gen/A/layer2/res1/conv2/Conv2D", "gen/A/conv1/inorm/moments/mean/reduction_indices"], "attr": {"Tidx": {"type": "DT_INT32"}, "T": {"type": "DT_FLOAT"}, "keep_dims": {"b": true}}}, {"name": "gen/A/layer2/res1/conv2/inorm/moments/SquaredDifference", "op": "SquaredDifference", "input": ["gen/A/layer2/res1/conv2/Conv2D", "gen/A/layer2/res1/conv2/inorm/moments/mean"], "attr": {"T": {"type": "DT_FLOAT"}}}, {"name": "gen/A/layer2/res1/conv2/inorm/moments/variance", "op": "Mean", "input": ["gen/A/layer2/res1/conv2/inorm/moments/SquaredDifference", "gen/A/conv1/inorm/moments/mean/reduction_indices"], "attr": {"T": {"type": "DT_FLOAT"}, "keep_dims": {"b": true}, "Tidx": {"type": "DT_INT32"}}}, {"name": "gen/A/layer2/res1/conv2/inorm/output/add", "op": "AddV2", "input": ["gen/A/conv1/inorm/output/add/y", "gen/A/layer2/res1/conv2/inorm/moments/variance"], "attr": {"T": {"type": "DT_FLOAT"}}}, {"name": "gen/A/layer2/res1/conv2/inorm/output/Rsqrt", "op": "Rsqrt", "input": ["gen/A/layer2/res1/conv2/inorm/output/add"], "attr": {"T": {"type": "DT_FLOAT"}}}, {"name": "gen/A/layer2/res1/conv2/inorm/output/mul", "op": "Mul", "input": ["gen/A/layer2/res1/conv2/inorm/Reshape_1", "gen/A/layer2/res1/conv2/inorm/output/Rsqrt"], "attr": {"T": {"type": "DT_FLOAT"}}}, {"name": "gen/A/layer2/res1/conv2/inorm/output/mul_2", "op": "Mul", "input": ["gen/A/layer2/res1/conv2/inorm/moments/mean", "gen/A/layer2/res1/conv2/inorm/output/mul"], "attr": {"T": {"type": "DT_FLOAT"}}}, {"name": "gen/A/layer2/res1/conv2/inorm/output/mul_1", "op": "Mul", "input": ["gen/A/layer2/res1/conv2/Conv2D", "gen/A/layer2/res1/conv2/inorm/output/mul"], "attr": {"T": {"type": "DT_FLOAT"}}}, {"name": "gen/A/layer2/res1/conv2/inorm/output/sub", "op": "Sub", "input": ["gen/A/layer2/res1/conv2/inorm/Reshape", "gen/A/layer2/res1/conv2/inorm/output/mul_2"], "attr": {"T": {"type": "DT_FLOAT"}}}, {"name": "gen/A/layer2/res1/conv2/inorm/output/add_1", "op": "AddV2", "input": ["gen/A/layer2/res1/conv2/inorm/output/mul_1", "gen/A/layer2/res1/conv2/inorm/output/sub"], "attr": {"T": {"type": "DT_FLOAT"}}}, {"name": "gen/A/layer2/res1/conv2/Relu", "op": "Relu", "input": ["gen/A/layer2/res1/conv2/inorm/output/add_1"], "attr": {"T": {"type": "DT_FLOAT"}}}, {"name": "gen/A/layer2/res2/conv0/Conv2D", "op": "Conv2D", "input": ["gen/A/layer2/res1/conv2/Relu", "gen/A/layer2/res2/conv0/W"], "device": "/device:CPU:0", "attr": {"use_cudnn_on_gpu": {"b": true}, "explicit_paddings": {"list": {}}, "dilations": {"list": {"i": ["1", "1", "1", "1"]}}, "strides": {"list": {"i": ["1", "1", "1", "1"]}}, "data_format": {"s": "TkhXQw=="}, "T": {"type": "DT_FLOAT"}, "padding": {"s": "U0FNRQ=="}}}, {"name": "gen/A/layer2/res2/conv0/inorm/moments/mean", "op": "Mean", "input": ["gen/A/layer2/res2/conv0/Conv2D", "gen/A/conv1/inorm/moments/mean/reduction_indices"], "attr": {"T": {"type": "DT_FLOAT"}, "Tidx": {"type": "DT_INT32"}, "keep_dims": {"b": true}}}, {"name": "gen/A/layer2/res2/conv0/inorm/moments/SquaredDifference", "op": "SquaredDifference", "input": ["gen/A/layer2/res2/conv0/Conv2D", "gen/A/layer2/res2/conv0/inorm/moments/mean"], "attr": {"T": {"type": "DT_FLOAT"}}}, {"name": "gen/A/layer2/res2/conv0/inorm/moments/variance", "op": "Mean", "input": ["gen/A/layer2/res2/conv0/inorm/moments/SquaredDifference", "gen/A/conv1/inorm/moments/mean/reduction_indices"], "attr": {"T": {"type": "DT_FLOAT"}, "keep_dims": {"b": true}, "Tidx": {"type": "DT_INT32"}}}, {"name": "gen/A/layer2/res2/conv0/inorm/output/add", "op": "AddV2", "input": ["gen/A/conv1/inorm/output/add/y", "gen/A/layer2/res2/conv0/inorm/moments/variance"], "attr": {"T": {"type": "DT_FLOAT"}}}, {"name": "gen/A/layer2/res2/conv0/inorm/output/Rsqrt", "op": "Rsqrt", "input": ["gen/A/layer2/res2/conv0/inorm/output/add"], "attr": {"T": {"type": "DT_FLOAT"}}}, {"name": "gen/A/layer2/res2/conv0/inorm/output/mul", "op": "Mul", "input": ["gen/A/layer2/res2/conv0/inorm/Reshape_1", "gen/A/layer2/res2/conv0/inorm/output/Rsqrt"], "attr": {"T": {"type": "DT_FLOAT"}}}, {"name": "gen/A/layer2/res2/conv0/inorm/output/mul_2", "op": "Mul", "input": ["gen/A/layer2/res2/conv0/inorm/moments/mean", "gen/A/layer2/res2/conv0/inorm/output/mul"], "attr": {"T": {"type": "DT_FLOAT"}}}, {"name": "gen/A/layer2/res2/conv0/inorm/output/mul_1", "op": "Mul", "input": ["gen/A/layer2/res2/conv0/Conv2D", "gen/A/layer2/res2/conv0/inorm/output/mul"], "attr": {"T": {"type": "DT_FLOAT"}}}, {"name": "gen/A/layer2/res2/conv0/inorm/output/sub", "op": "Sub", "input": ["gen/A/layer2/res2/conv0/inorm/Reshape", "gen/A/layer2/res2/conv0/inorm/output/mul_2"], "attr": {"T": {"type": "DT_FLOAT"}}}, {"name": "gen/A/layer2/res2/conv0/inorm/output/add_1", "op": "AddV2", "input": ["gen/A/layer2/res2/conv0/inorm/output/mul_1", "gen/A/layer2/res2/conv0/inorm/output/sub"], "attr": {"T": {"type": "DT_FLOAT"}}}, {"name": "gen/A/layer2/res2/conv0/Relu", "op": "Relu", "input": ["gen/A/layer2/res2/conv0/inorm/output/add_1"], "attr": {"T": {"type": "DT_FLOAT"}}}, {"name": "gen/A/layer2/res2/conv1/Conv2D", "op": "Conv2D", "input": ["gen/A/layer2/res2/conv0/Relu", "gen/A/layer2/res2/conv1/W"], "device": "/device:CPU:0", "attr": {"T": {"type": "DT_FLOAT"}, "padding": {"s": "U0FNRQ=="}, "dilations": {"list": {"i": ["1", "1", "1", "1"]}}, "data_format": {"s": "TkhXQw=="}, "strides": {"list": {"i": ["1", "1", "1", "1"]}}, "use_cudnn_on_gpu": {"b": true}, "explicit_paddings": {"list": {}}}}, {"name": "gen/A/layer2/res2/conv1/inorm/moments/mean", "op": "Mean", "input": ["gen/A/layer2/res2/conv1/Conv2D", "gen/A/conv1/inorm/moments/mean/reduction_indices"], "attr": {"T": {"type": "DT_FLOAT"}, "keep_dims": {"b": true}, "Tidx": {"type": "DT_INT32"}}}, {"name": "gen/A/layer2/res2/conv1/inorm/moments/SquaredDifference", "op": "SquaredDifference", "input": ["gen/A/layer2/res2/conv1/Conv2D", "gen/A/layer2/res2/conv1/inorm/moments/mean"], "attr": {"T": {"type": "DT_FLOAT"}}}, {"name": "gen/A/layer2/res2/conv1/inorm/moments/variance", "op": "Mean", "input": ["gen/A/layer2/res2/conv1/inorm/moments/SquaredDifference", "gen/A/conv1/inorm/moments/mean/reduction_indices"], "attr": {"Tidx": {"type": "DT_INT32"}, "keep_dims": {"b": true}, "T": {"type": "DT_FLOAT"}}}, {"name": "gen/A/layer2/res2/conv1/inorm/output/add", "op": "AddV2", "input": ["gen/A/conv1/inorm/output/add/y", "gen/A/layer2/res2/conv1/inorm/moments/variance"], "attr": {"T": {"type": "DT_FLOAT"}}}, {"name": "gen/A/layer2/res2/conv1/inorm/output/Rsqrt", "op": "Rsqrt", "input": ["gen/A/layer2/res2/conv1/inorm/output/add"], "attr": {"T": {"type": "DT_FLOAT"}}}, {"name": "gen/A/layer2/res2/conv1/inorm/output/mul", "op": "Mul", "input": ["gen/A/layer2/res2/conv1/inorm/Reshape_1", "gen/A/layer2/res2/conv1/inorm/output/Rsqrt"], "attr": {"T": {"type": "DT_FLOAT"}}}, {"name": "gen/A/layer2/res2/conv1/inorm/output/mul_2", "op": "Mul", "input": ["gen/A/layer2/res2/conv1/inorm/moments/mean", "gen/A/layer2/res2/conv1/inorm/output/mul"], "attr": {"T": {"type": "DT_FLOAT"}}}, {"name": "gen/A/layer2/res2/conv1/inorm/output/mul_1", "op": "Mul", "input": ["gen/A/layer2/res2/conv1/Conv2D", "gen/A/layer2/res2/conv1/inorm/output/mul"], "attr": {"T": {"type": "DT_FLOAT"}}}, {"name": "gen/A/layer2/res2/conv1/inorm/output/sub", "op": "Sub", "input": ["gen/A/layer2/res2/conv1/inorm/Reshape", "gen/A/layer2/res2/conv1/inorm/output/mul_2"], "attr": {"T": {"type": "DT_FLOAT"}}}, {"name": "gen/A/layer2/res2/conv1/inorm/output/add_1", "op": "AddV2", "input": ["gen/A/layer2/res2/conv1/inorm/output/mul_1", "gen/A/layer2/res2/conv1/inorm/output/sub"], "attr": {"T": {"type": "DT_FLOAT"}}}, {"name": "gen/A/layer2/res2/conv1/Relu", "op": "Relu", "input": ["gen/A/layer2/res2/conv1/inorm/output/add_1"], "attr": {"T": {"type": "DT_FLOAT"}}}, {"name": "gen/A/layer2/res2/concat", "op": "ConcatV2", "input": ["gen/A/layer2/res2/conv1/Relu", "gen/A/layer2/res1/conv2/Relu", "gen/A/layer1/res0/concat/axis"], "attr": {"T": {"type": "DT_FLOAT"}, "N": {"i": "2"}, "Tidx": {"type": "DT_INT32"}}}, {"name": "gen/A/layer2/res2/conv2/Conv2D", "op": "Conv2D", "input": ["gen/A/layer2/res2/concat", "gen/A/layer2/res2/conv2/W"], "device": "/device:CPU:0", "attr": {"explicit_paddings": {"list": {}}, "dilations": {"list": {"i": ["1", "1", "1", "1"]}}, "T": {"type": "DT_FLOAT"}, "data_format": {"s": "TkhXQw=="}, "padding": {"s": "U0FNRQ=="}, "strides": {"list": {"i": ["1", "1", "1", "1"]}}, "use_cudnn_on_gpu": {"b": true}}}, {"name": "gen/A/layer2/res2/conv2/inorm/moments/mean", "op": "Mean", "input": ["gen/A/layer2/res2/conv2/Conv2D", "gen/A/conv1/inorm/moments/mean/reduction_indices"], "attr": {"Tidx": {"type": "DT_INT32"}, "keep_dims": {"b": true}, "T": {"type": "DT_FLOAT"}}}, {"name": "gen/A/layer2/res2/conv2/inorm/moments/SquaredDifference", "op": "SquaredDifference", "input": ["gen/A/layer2/res2/conv2/Conv2D", "gen/A/layer2/res2/conv2/inorm/moments/mean"], "attr": {"T": {"type": "DT_FLOAT"}}}, {"name": "gen/A/layer2/res2/conv2/inorm/moments/variance", "op": "Mean", "input": ["gen/A/layer2/res2/conv2/inorm/moments/SquaredDifference", "gen/A/conv1/inorm/moments/mean/reduction_indices"], "attr": {"T": {"type": "DT_FLOAT"}, "keep_dims": {"b": true}, "Tidx": {"type": "DT_INT32"}}}, {"name": "gen/A/layer2/res2/conv2/inorm/output/add", "op": "AddV2", "input": ["gen/A/conv1/inorm/output/add/y", "gen/A/layer2/res2/conv2/inorm/moments/variance"], "attr": {"T": {"type": "DT_FLOAT"}}}, {"name": "gen/A/layer2/res2/conv2/inorm/output/Rsqrt", "op": "Rsqrt", "input": ["gen/A/layer2/res2/conv2/inorm/output/add"], "attr": {"T": {"type": "DT_FLOAT"}}}, {"name": "gen/A/layer2/res2/conv2/inorm/output/mul", "op": "Mul", "input": ["gen/A/layer2/res2/conv2/inorm/Reshape_1", "gen/A/layer2/res2/conv2/inorm/output/Rsqrt"], "attr": {"T": {"type": "DT_FLOAT"}}}, {"name": "gen/A/layer2/res2/conv2/inorm/output/mul_2", "op": "Mul", "input": ["gen/A/layer2/res2/conv2/inorm/moments/mean", "gen/A/layer2/res2/conv2/inorm/output/mul"], "attr": {"T": {"type": "DT_FLOAT"}}}, {"name": "gen/A/layer2/res2/conv2/inorm/output/mul_1", "op": "Mul", "input": ["gen/A/layer2/res2/conv2/Conv2D", "gen/A/layer2/res2/conv2/inorm/output/mul"], "attr": {"T": {"type": "DT_FLOAT"}}}, {"name": "gen/A/layer2/res2/conv2/inorm/output/sub", "op": "Sub", "input": ["gen/A/layer2/res2/conv2/inorm/Reshape", "gen/A/layer2/res2/conv2/inorm/output/mul_2"], "attr": {"T": {"type": "DT_FLOAT"}}}, {"name": "gen/A/layer2/res2/conv2/inorm/output/add_1", "op": "AddV2", "input": ["gen/A/layer2/res2/conv2/inorm/output/mul_1", "gen/A/layer2/res2/conv2/inorm/output/sub"], "attr": {"T": {"type": "DT_FLOAT"}}}, {"name": "gen/A/layer2/res2/conv2/Relu", "op": "Relu", "input": ["gen/A/layer2/res2/conv2/inorm/output/add_1"], "attr": {"T": {"type": "DT_FLOAT"}}}, {"name": "gen/A/conv3/Conv2D", "op": "Conv2D", "input": ["gen/A/layer2/res2/conv2/Relu", "gen/A/conv3/W"], "device": "/device:CPU:0", "attr": {"padding": {"s": "U0FNRQ=="}, "dilations": {"list": {"i": ["1", "1", "1", "1"]}}, "data_format": {"s": "TkhXQw=="}, "explicit_paddings": {"list": {}}, "use_cudnn_on_gpu": {"b": true}, "strides": {"list": {"i": ["1", "2", "2", "1"]}}, "T": {"type": "DT_FLOAT"}}}, {"name": "gen/A/conv3/inorm/moments/mean", "op": "Mean", "input": ["gen/A/conv3/Conv2D", "gen/A/conv1/inorm/moments/mean/reduction_indices"], "attr": {"keep_dims": {"b": true}, "Tidx": {"type": "DT_INT32"}, "T": {"type": "DT_FLOAT"}}}, {"name": "gen/A/conv3/inorm/moments/SquaredDifference", "op": "SquaredDifference", "input": ["gen/A/conv3/Conv2D", "gen/A/conv3/inorm/moments/mean"], "attr": {"T": {"type": "DT_FLOAT"}}}, {"name": "gen/A/conv3/inorm/moments/variance", "op": "Mean", "input": ["gen/A/conv3/inorm/moments/SquaredDifference", "gen/A/conv1/inorm/moments/mean/reduction_indices"], "attr": {"Tidx": {"type": "DT_INT32"}, "T": {"type": "DT_FLOAT"}, "keep_dims": {"b": true}}}, {"name": "gen/A/conv3/inorm/output/add", "op": "AddV2", "input": ["gen/A/conv1/inorm/output/add/y", "gen/A/conv3/inorm/moments/variance"], "attr": {"T": {"type": "DT_FLOAT"}}}, {"name": "gen/A/conv3/inorm/output/Rsqrt", "op": "Rsqrt", "input": ["gen/A/conv3/inorm/output/add"], "attr": {"T": {"type": "DT_FLOAT"}}}, {"name": "gen/A/conv3/inorm/output/mul", "op": "Mul", "input": ["gen/A/conv3/inorm/Reshape_1", "gen/A/conv3/inorm/output/Rsqrt"], "attr": {"T": {"type": "DT_FLOAT"}}}, {"name": "gen/A/conv3/inorm/output/mul_2", "op": "Mul", "input": ["gen/A/conv3/inorm/moments/mean", "gen/A/conv3/inorm/output/mul"], "attr": {"T": {"type": "DT_FLOAT"}}}, {"name": "gen/A/conv3/inorm/output/mul_1", "op": "Mul", "input": ["gen/A/conv3/Conv2D", "gen/A/conv3/inorm/output/mul"], "attr": {"T": {"type": "DT_FLOAT"}}}, {"name": "gen/A/conv3/inorm/output/sub", "op": "Sub", "input": ["gen/A/conv3/inorm/Reshape", "gen/A/conv3/inorm/output/mul_2"], "attr": {"T": {"type": "DT_FLOAT"}}}, {"name": "gen/A/conv3/inorm/output/add_1", "op": "AddV2", "input": ["gen/A/conv3/inorm/output/mul_1", "gen/A/conv3/inorm/output/sub"], "attr": {"T": {"type": "DT_FLOAT"}}}, {"name": "gen/A/conv3/Relu", "op": "Relu", "input": ["gen/A/conv3/inorm/output/add_1"], "attr": {"T": {"type": "DT_FLOAT"}}}, {"name": "gen/A/layer3/res0/conv0/Conv2D", "op": "Conv2D", "input": ["gen/A/conv3/Relu", "gen/A/layer3/res0/conv0/W"], "device": "/device:CPU:0", "attr": {"use_cudnn_on_gpu": {"b": true}, "T": {"type": "DT_FLOAT"}, "padding": {"s": "U0FNRQ=="}, "strides": {"list": {"i": ["1", "1", "1", "1"]}}, "dilations": {"list": {"i": ["1", "1", "1", "1"]}}, "data_format": {"s": "TkhXQw=="}, "explicit_paddings": {"list": {}}}}, {"name": "gen/A/layer3/res0/conv0/inorm/moments/mean", "op": "Mean", "input": ["gen/A/layer3/res0/conv0/Conv2D", "gen/A/conv1/inorm/moments/mean/reduction_indices"], "attr": {"T": {"type": "DT_FLOAT"}, "keep_dims": {"b": true}, "Tidx": {"type": "DT_INT32"}}}, {"name": "gen/A/layer3/res0/conv0/inorm/moments/SquaredDifference", "op": "SquaredDifference", "input": ["gen/A/layer3/res0/conv0/Conv2D", "gen/A/layer3/res0/conv0/inorm/moments/mean"], "attr": {"T": {"type": "DT_FLOAT"}}}, {"name": "gen/A/layer3/res0/conv0/inorm/moments/variance", "op": "Mean", "input": ["gen/A/layer3/res0/conv0/inorm/moments/SquaredDifference", "gen/A/conv1/inorm/moments/mean/reduction_indices"], "attr": {"T": {"type": "DT_FLOAT"}, "keep_dims": {"b": true}, "Tidx": {"type": "DT_INT32"}}}, {"name": "gen/A/layer3/res0/conv0/inorm/output/add", "op": "AddV2", "input": ["gen/A/conv1/inorm/output/add/y", "gen/A/layer3/res0/conv0/inorm/moments/variance"], "attr": {"T": {"type": "DT_FLOAT"}}}, {"name": "gen/A/layer3/res0/conv0/inorm/output/Rsqrt", "op": "Rsqrt", "input": ["gen/A/layer3/res0/conv0/inorm/output/add"], "attr": {"T": {"type": "DT_FLOAT"}}}, {"name": "gen/A/layer3/res0/conv0/inorm/output/mul", "op": "Mul", "input": ["gen/A/layer3/res0/conv0/inorm/Reshape_1", "gen/A/layer3/res0/conv0/inorm/output/Rsqrt"], "attr": {"T": {"type": "DT_FLOAT"}}}, {"name": "gen/A/layer3/res0/conv0/inorm/output/mul_2", "op": "Mul", "input": ["gen/A/layer3/res0/conv0/inorm/moments/mean", "gen/A/layer3/res0/conv0/inorm/output/mul"], "attr": {"T": {"type": "DT_FLOAT"}}}, {"name": "gen/A/layer3/res0/conv0/inorm/output/mul_1", "op": "Mul", "input": ["gen/A/layer3/res0/conv0/Conv2D", "gen/A/layer3/res0/conv0/inorm/output/mul"], "attr": {"T": {"type": "DT_FLOAT"}}}, {"name": "gen/A/layer3/res0/conv0/inorm/output/sub", "op": "Sub", "input": ["gen/A/layer3/res0/conv0/inorm/Reshape", "gen/A/layer3/res0/conv0/inorm/output/mul_2"], "attr": {"T": {"type": "DT_FLOAT"}}}, {"name": "gen/A/layer3/res0/conv0/inorm/output/add_1", "op": "AddV2", "input": ["gen/A/layer3/res0/conv0/inorm/output/mul_1", "gen/A/layer3/res0/conv0/inorm/output/sub"], "attr": {"T": {"type": "DT_FLOAT"}}}, {"name": "gen/A/layer3/res0/conv0/Relu", "op": "Relu", "input": ["gen/A/layer3/res0/conv0/inorm/output/add_1"], "attr": {"T": {"type": "DT_FLOAT"}}}, {"name": "gen/A/layer3/res0/conv1/Conv2D", "op": "Conv2D", "input": ["gen/A/layer3/res0/conv0/Relu", "gen/A/layer3/res0/conv1/W"], "device": "/device:CPU:0", "attr": {"use_cudnn_on_gpu": {"b": true}, "T": {"type": "DT_FLOAT"}, "padding": {"s": "U0FNRQ=="}, "strides": {"list": {"i": ["1", "1", "1", "1"]}}, "dilations": {"list": {"i": ["1", "1", "1", "1"]}}, "data_format": {"s": "TkhXQw=="}, "explicit_paddings": {"list": {}}}}, {"name": "gen/A/layer3/res0/conv1/inorm/moments/mean", "op": "Mean", "input": ["gen/A/layer3/res0/conv1/Conv2D", "gen/A/conv1/inorm/moments/mean/reduction_indices"], "attr": {"Tidx": {"type": "DT_INT32"}, "T": {"type": "DT_FLOAT"}, "keep_dims": {"b": true}}}, {"name": "gen/A/layer3/res0/conv1/inorm/moments/SquaredDifference", "op": "SquaredDifference", "input": ["gen/A/layer3/res0/conv1/Conv2D", "gen/A/layer3/res0/conv1/inorm/moments/mean"], "attr": {"T": {"type": "DT_FLOAT"}}}, {"name": "gen/A/layer3/res0/conv1/inorm/moments/variance", "op": "Mean", "input": ["gen/A/layer3/res0/conv1/inorm/moments/SquaredDifference", "gen/A/conv1/inorm/moments/mean/reduction_indices"], "attr": {"T": {"type": "DT_FLOAT"}, "keep_dims": {"b": true}, "Tidx": {"type": "DT_INT32"}}}, {"name": "gen/A/layer3/res0/conv1/inorm/output/add", "op": "AddV2", "input": ["gen/A/conv1/inorm/output/add/y", "gen/A/layer3/res0/conv1/inorm/moments/variance"], "attr": {"T": {"type": "DT_FLOAT"}}}, {"name": "gen/A/layer3/res0/conv1/inorm/output/Rsqrt", "op": "Rsqrt", "input": ["gen/A/layer3/res0/conv1/inorm/output/add"], "attr": {"T": {"type": "DT_FLOAT"}}}, {"name": "gen/A/layer3/res0/conv1/inorm/output/mul", "op": "Mul", "input": ["gen/A/layer3/res0/conv1/inorm/Reshape_1", "gen/A/layer3/res0/conv1/inorm/output/Rsqrt"], "attr": {"T": {"type": "DT_FLOAT"}}}, {"name": "gen/A/layer3/res0/conv1/inorm/output/mul_2", "op": "Mul", "input": ["gen/A/layer3/res0/conv1/inorm/moments/mean", "gen/A/layer3/res0/conv1/inorm/output/mul"], "attr": {"T": {"type": "DT_FLOAT"}}}, {"name": "gen/A/layer3/res0/conv1/inorm/output/mul_1", "op": "Mul", "input": ["gen/A/layer3/res0/conv1/Conv2D", "gen/A/layer3/res0/conv1/inorm/output/mul"], "attr": {"T": {"type": "DT_FLOAT"}}}, {"name": "gen/A/layer3/res0/conv1/inorm/output/sub", "op": "Sub", "input": ["gen/A/layer3/res0/conv1/inorm/Reshape", "gen/A/layer3/res0/conv1/inorm/output/mul_2"], "attr": {"T": {"type": "DT_FLOAT"}}}, {"name": "gen/A/layer3/res0/conv1/inorm/output/add_1", "op": "AddV2", "input": ["gen/A/layer3/res0/conv1/inorm/output/mul_1", "gen/A/layer3/res0/conv1/inorm/output/sub"], "attr": {"T": {"type": "DT_FLOAT"}}}, {"name": "gen/A/layer3/res0/conv1/Relu", "op": "Relu", "input": ["gen/A/layer3/res0/conv1/inorm/output/add_1"], "attr": {"T": {"type": "DT_FLOAT"}}}, {"name": "gen/A/layer3/res0/concat", "op": "ConcatV2", "input": ["gen/A/layer3/res0/conv1/Relu", "gen/A/conv3/Relu", "gen/A/layer1/res0/concat/axis"], "attr": {"T": {"type": "DT_FLOAT"}, "N": {"i": "2"}, "Tidx": {"type": "DT_INT32"}}}, {"name": "gen/A/layer3/res0/conv2/Conv2D", "op": "Conv2D", "input": ["gen/A/layer3/res0/concat", "gen/A/layer3/res0/conv2/W"], "device": "/device:CPU:0", "attr": {"use_cudnn_on_gpu": {"b": true}, "T": {"type": "DT_FLOAT"}, "padding": {"s": "U0FNRQ=="}, "strides": {"list": {"i": ["1", "1", "1", "1"]}}, "explicit_paddings": {"list": {}}, "dilations": {"list": {"i": ["1", "1", "1", "1"]}}, "data_format": {"s": "TkhXQw=="}}}, {"name": "gen/A/layer3/res0/conv2/inorm/moments/mean", "op": "Mean", "input": ["gen/A/layer3/res0/conv2/Conv2D", "gen/A/conv1/inorm/moments/mean/reduction_indices"], "attr": {"Tidx": {"type": "DT_INT32"}, "T": {"type": "DT_FLOAT"}, "keep_dims": {"b": true}}}, {"name": "gen/A/layer3/res0/conv2/inorm/moments/SquaredDifference", "op": "SquaredDifference", "input": ["gen/A/layer3/res0/conv2/Conv2D", "gen/A/layer3/res0/conv2/inorm/moments/mean"], "attr": {"T": {"type": "DT_FLOAT"}}}, {"name": "gen/A/layer3/res0/conv2/inorm/moments/variance", "op": "Mean", "input": ["gen/A/layer3/res0/conv2/inorm/moments/SquaredDifference", "gen/A/conv1/inorm/moments/mean/reduction_indices"], "attr": {"T": {"type": "DT_FLOAT"}, "Tidx": {"type": "DT_INT32"}, "keep_dims": {"b": true}}}, {"name": "gen/A/layer3/res0/conv2/inorm/output/add", "op": "AddV2", "input": ["gen/A/conv1/inorm/output/add/y", "gen/A/layer3/res0/conv2/inorm/moments/variance"], "attr": {"T": {"type": "DT_FLOAT"}}}, {"name": "gen/A/layer3/res0/conv2/inorm/output/Rsqrt", "op": "Rsqrt", "input": ["gen/A/layer3/res0/conv2/inorm/output/add"], "attr": {"T": {"type": "DT_FLOAT"}}}, {"name": "gen/A/layer3/res0/conv2/inorm/output/mul", "op": "Mul", "input": ["gen/A/layer3/res0/conv2/inorm/Reshape_1", "gen/A/layer3/res0/conv2/inorm/output/Rsqrt"], "attr": {"T": {"type": "DT_FLOAT"}}}, {"name": "gen/A/layer3/res0/conv2/inorm/output/mul_2", "op": "Mul", "input": ["gen/A/layer3/res0/conv2/inorm/moments/mean", "gen/A/layer3/res0/conv2/inorm/output/mul"], "attr": {"T": {"type": "DT_FLOAT"}}}, {"name": "gen/A/layer3/res0/conv2/inorm/output/mul_1", "op": "Mul", "input": ["gen/A/layer3/res0/conv2/Conv2D", "gen/A/layer3/res0/conv2/inorm/output/mul"], "attr": {"T": {"type": "DT_FLOAT"}}}, {"name": "gen/A/layer3/res0/conv2/inorm/output/sub", "op": "Sub", "input": ["gen/A/layer3/res0/conv2/inorm/Reshape", "gen/A/layer3/res0/conv2/inorm/output/mul_2"], "attr": {"T": {"type": "DT_FLOAT"}}}, {"name": "gen/A/layer3/res0/conv2/inorm/output/add_1", "op": "AddV2", "input": ["gen/A/layer3/res0/conv2/inorm/output/mul_1", "gen/A/layer3/res0/conv2/inorm/output/sub"], "attr": {"T": {"type": "DT_FLOAT"}}}, {"name": "gen/A/layer3/res0/conv2/Relu", "op": "Relu", "input": ["gen/A/layer3/res0/conv2/inorm/output/add_1"], "attr": {"T": {"type": "DT_FLOAT"}}}, {"name": "gen/A/layer3/res1/conv0/Conv2D", "op": "Conv2D", "input": ["gen/A/layer3/res0/conv2/Relu", "gen/A/layer3/res1/conv0/W"], "device": "/device:CPU:0", "attr": {"data_format": {"s": "TkhXQw=="}, "dilations": {"list": {"i": ["1", "1", "1", "1"]}}, "T": {"type": "DT_FLOAT"}, "explicit_paddings": {"list": {}}, "use_cudnn_on_gpu": {"b": true}, "strides": {"list": {"i": ["1", "1", "1", "1"]}}, "padding": {"s": "U0FNRQ=="}}}, {"name": "gen/A/layer3/res1/conv0/inorm/moments/mean", "op": "Mean", "input": ["gen/A/layer3/res1/conv0/Conv2D", "gen/A/conv1/inorm/moments/mean/reduction_indices"], "attr": {"keep_dims": {"b": true}, "Tidx": {"type": "DT_INT32"}, "T": {"type": "DT_FLOAT"}}}, {"name": "gen/A/layer3/res1/conv0/inorm/moments/SquaredDifference", "op": "SquaredDifference", "input": ["gen/A/layer3/res1/conv0/Conv2D", "gen/A/layer3/res1/conv0/inorm/moments/mean"], "attr": {"T": {"type": "DT_FLOAT"}}}, {"name": "gen/A/layer3/res1/conv0/inorm/moments/variance", "op": "Mean", "input": ["gen/A/layer3/res1/conv0/inorm/moments/SquaredDifference", "gen/A/conv1/inorm/moments/mean/reduction_indices"], "attr": {"T": {"type": "DT_FLOAT"}, "keep_dims": {"b": true}, "Tidx": {"type": "DT_INT32"}}}, {"name": "gen/A/layer3/res1/conv0/inorm/output/add", "op": "AddV2", "input": ["gen/A/conv1/inorm/output/add/y", "gen/A/layer3/res1/conv0/inorm/moments/variance"], "attr": {"T": {"type": "DT_FLOAT"}}}, {"name": "gen/A/layer3/res1/conv0/inorm/output/Rsqrt", "op": "Rsqrt", "input": ["gen/A/layer3/res1/conv0/inorm/output/add"], "attr": {"T": {"type": "DT_FLOAT"}}}, {"name": "gen/A/layer3/res1/conv0/inorm/output/mul", "op": "Mul", "input": ["gen/A/layer3/res1/conv0/inorm/Reshape_1", "gen/A/layer3/res1/conv0/inorm/output/Rsqrt"], "attr": {"T": {"type": "DT_FLOAT"}}}, {"name": "gen/A/layer3/res1/conv0/inorm/output/mul_2", "op": "Mul", "input": ["gen/A/layer3/res1/conv0/inorm/moments/mean", "gen/A/layer3/res1/conv0/inorm/output/mul"], "attr": {"T": {"type": "DT_FLOAT"}}}, {"name": "gen/A/layer3/res1/conv0/inorm/output/mul_1", "op": "Mul", "input": ["gen/A/layer3/res1/conv0/Conv2D", "gen/A/layer3/res1/conv0/inorm/output/mul"], "attr": {"T": {"type": "DT_FLOAT"}}}, {"name": "gen/A/layer3/res1/conv0/inorm/output/sub", "op": "Sub", "input": ["gen/A/layer3/res1/conv0/inorm/Reshape", "gen/A/layer3/res1/conv0/inorm/output/mul_2"], "attr": {"T": {"type": "DT_FLOAT"}}}, {"name": "gen/A/layer3/res1/conv0/inorm/output/add_1", "op": "AddV2", "input": ["gen/A/layer3/res1/conv0/inorm/output/mul_1", "gen/A/layer3/res1/conv0/inorm/output/sub"], "attr": {"T": {"type": "DT_FLOAT"}}}, {"name": "gen/A/layer3/res1/conv0/Relu", "op": "Relu", "input": ["gen/A/layer3/res1/conv0/inorm/output/add_1"], "attr": {"T": {"type": "DT_FLOAT"}}}, {"name": "gen/A/layer3/res1/conv1/Conv2D", "op": "Conv2D", "input": ["gen/A/layer3/res1/conv0/Relu", "gen/A/layer3/res1/conv1/W"], "device": "/device:CPU:0", "attr": {"T": {"type": "DT_FLOAT"}, "data_format": {"s": "TkhXQw=="}, "dilations": {"list": {"i": ["1", "1", "1", "1"]}}, "padding": {"s": "U0FNRQ=="}, "explicit_paddings": {"list": {}}, "use_cudnn_on_gpu": {"b": true}, "strides": {"list": {"i": ["1", "1", "1", "1"]}}}}, {"name": "gen/A/layer3/res1/conv1/inorm/moments/mean", "op": "Mean", "input": ["gen/A/layer3/res1/conv1/Conv2D", "gen/A/conv1/inorm/moments/mean/reduction_indices"], "attr": {"Tidx": {"type": "DT_INT32"}, "keep_dims": {"b": true}, "T": {"type": "DT_FLOAT"}}}, {"name": "gen/A/layer3/res1/conv1/inorm/moments/SquaredDifference", "op": "SquaredDifference", "input": ["gen/A/layer3/res1/conv1/Conv2D", "gen/A/layer3/res1/conv1/inorm/moments/mean"], "attr": {"T": {"type": "DT_FLOAT"}}}, {"name": "gen/A/layer3/res1/conv1/inorm/moments/variance", "op": "Mean", "input": ["gen/A/layer3/res1/conv1/inorm/moments/SquaredDifference", "gen/A/conv1/inorm/moments/mean/reduction_indices"], "attr": {"Tidx": {"type": "DT_INT32"}, "T": {"type": "DT_FLOAT"}, "keep_dims": {"b": true}}}, {"name": "gen/A/layer3/res1/conv1/inorm/output/add", "op": "AddV2", "input": ["gen/A/conv1/inorm/output/add/y", "gen/A/layer3/res1/conv1/inorm/moments/variance"], "attr": {"T": {"type": "DT_FLOAT"}}}, {"name": "gen/A/layer3/res1/conv1/inorm/output/Rsqrt", "op": "Rsqrt", "input": ["gen/A/layer3/res1/conv1/inorm/output/add"], "attr": {"T": {"type": "DT_FLOAT"}}}, {"name": "gen/A/layer3/res1/conv1/inorm/output/mul", "op": "Mul", "input": ["gen/A/layer3/res1/conv1/inorm/Reshape_1", "gen/A/layer3/res1/conv1/inorm/output/Rsqrt"], "attr": {"T": {"type": "DT_FLOAT"}}}, {"name": "gen/A/layer3/res1/conv1/inorm/output/mul_2", "op": "Mul", "input": ["gen/A/layer3/res1/conv1/inorm/moments/mean", "gen/A/layer3/res1/conv1/inorm/output/mul"], "attr": {"T": {"type": "DT_FLOAT"}}}, {"name": "gen/A/layer3/res1/conv1/inorm/output/mul_1", "op": "Mul", "input": ["gen/A/layer3/res1/conv1/Conv2D", "gen/A/layer3/res1/conv1/inorm/output/mul"], "attr": {"T": {"type": "DT_FLOAT"}}}, {"name": "gen/A/layer3/res1/conv1/inorm/output/sub", "op": "Sub", "input": ["gen/A/layer3/res1/conv1/inorm/Reshape", "gen/A/layer3/res1/conv1/inorm/output/mul_2"], "attr": {"T": {"type": "DT_FLOAT"}}}, {"name": "gen/A/layer3/res1/conv1/inorm/output/add_1", "op": "AddV2", "input": ["gen/A/layer3/res1/conv1/inorm/output/mul_1", "gen/A/layer3/res1/conv1/inorm/output/sub"], "attr": {"T": {"type": "DT_FLOAT"}}}, {"name": "gen/A/layer3/res1/conv1/Relu", "op": "Relu", "input": ["gen/A/layer3/res1/conv1/inorm/output/add_1"], "attr": {"T": {"type": "DT_FLOAT"}}}, {"name": "gen/A/layer3/res1/concat", "op": "ConcatV2", "input": ["gen/A/layer3/res1/conv1/Relu", "gen/A/layer3/res0/conv2/Relu", "gen/A/layer1/res0/concat/axis"], "attr": {"T": {"type": "DT_FLOAT"}, "N": {"i": "2"}, "Tidx": {"type": "DT_INT32"}}}, {"name": "gen/A/layer3/res1/conv2/Conv2D", "op": "Conv2D", "input": ["gen/A/layer3/res1/concat", "gen/A/layer3/res1/conv2/W"], "device": "/device:CPU:0", "attr": {"explicit_paddings": {"list": {}}, "use_cudnn_on_gpu": {"b": true}, "padding": {"s": "U0FNRQ=="}, "T": {"type": "DT_FLOAT"}, "dilations": {"list": {"i": ["1", "1", "1", "1"]}}, "data_format": {"s": "TkhXQw=="}, "strides": {"list": {"i": ["1", "1", "1", "1"]}}}}, {"name": "gen/A/layer3/res1/conv2/inorm/moments/mean", "op": "Mean", "input": ["gen/A/layer3/res1/conv2/Conv2D", "gen/A/conv1/inorm/moments/mean/reduction_indices"], "attr": {"Tidx": {"type": "DT_INT32"}, "keep_dims": {"b": true}, "T": {"type": "DT_FLOAT"}}}, {"name": "gen/A/layer3/res1/conv2/inorm/moments/SquaredDifference", "op": "SquaredDifference", "input": ["gen/A/layer3/res1/conv2/Conv2D", "gen/A/layer3/res1/conv2/inorm/moments/mean"], "attr": {"T": {"type": "DT_FLOAT"}}}, {"name": "gen/A/layer3/res1/conv2/inorm/moments/variance", "op": "Mean", "input": ["gen/A/layer3/res1/conv2/inorm/moments/SquaredDifference", "gen/A/conv1/inorm/moments/mean/reduction_indices"], "attr": {"Tidx": {"type": "DT_INT32"}, "keep_dims": {"b": true}, "T": {"type": "DT_FLOAT"}}}, {"name": "gen/A/layer3/res1/conv2/inorm/output/add", "op": "AddV2", "input": ["gen/A/conv1/inorm/output/add/y", "gen/A/layer3/res1/conv2/inorm/moments/variance"], "attr": {"T": {"type": "DT_FLOAT"}}}, {"name": "gen/A/layer3/res1/conv2/inorm/output/Rsqrt", "op": "Rsqrt", "input": ["gen/A/layer3/res1/conv2/inorm/output/add"], "attr": {"T": {"type": "DT_FLOAT"}}}, {"name": "gen/A/layer3/res1/conv2/inorm/output/mul", "op": "Mul", "input": ["gen/A/layer3/res1/conv2/inorm/Reshape_1", "gen/A/layer3/res1/conv2/inorm/output/Rsqrt"], "attr": {"T": {"type": "DT_FLOAT"}}}, {"name": "gen/A/layer3/res1/conv2/inorm/output/mul_2", "op": "Mul", "input": ["gen/A/layer3/res1/conv2/inorm/moments/mean", "gen/A/layer3/res1/conv2/inorm/output/mul"], "attr": {"T": {"type": "DT_FLOAT"}}}, {"name": "gen/A/layer3/res1/conv2/inorm/output/mul_1", "op": "Mul", "input": ["gen/A/layer3/res1/conv2/Conv2D", "gen/A/layer3/res1/conv2/inorm/output/mul"], "attr": {"T": {"type": "DT_FLOAT"}}}, {"name": "gen/A/layer3/res1/conv2/inorm/output/sub", "op": "Sub", "input": ["gen/A/layer3/res1/conv2/inorm/Reshape", "gen/A/layer3/res1/conv2/inorm/output/mul_2"], "attr": {"T": {"type": "DT_FLOAT"}}}, {"name": "gen/A/layer3/res1/conv2/inorm/output/add_1", "op": "AddV2", "input": ["gen/A/layer3/res1/conv2/inorm/output/mul_1", "gen/A/layer3/res1/conv2/inorm/output/sub"], "attr": {"T": {"type": "DT_FLOAT"}}}, {"name": "gen/A/layer3/res1/conv2/Relu", "op": "Relu", "input": ["gen/A/layer3/res1/conv2/inorm/output/add_1"], "attr": {"T": {"type": "DT_FLOAT"}}}, {"name": "gen/A/layer3/res2/conv0/Conv2D", "op": "Conv2D", "input": ["gen/A/layer3/res1/conv2/Relu", "gen/A/layer3/res2/conv0/W"], "device": "/device:CPU:0", "attr": {"padding": {"s": "U0FNRQ=="}, "dilations": {"list": {"i": ["1", "1", "1", "1"]}}, "data_format": {"s": "TkhXQw=="}, "strides": {"list": {"i": ["1", "1", "1", "1"]}}, "explicit_paddings": {"list": {}}, "use_cudnn_on_gpu": {"b": true}, "T": {"type": "DT_FLOAT"}}}, {"name": "gen/A/layer3/res2/conv0/inorm/moments/mean", "op": "Mean", "input": ["gen/A/layer3/res2/conv0/Conv2D", "gen/A/conv1/inorm/moments/mean/reduction_indices"], "attr": {"keep_dims": {"b": true}, "Tidx": {"type": "DT_INT32"}, "T": {"type": "DT_FLOAT"}}}, {"name": "gen/A/layer3/res2/conv0/inorm/moments/SquaredDifference", "op": "SquaredDifference", "input": ["gen/A/layer3/res2/conv0/Conv2D", "gen/A/layer3/res2/conv0/inorm/moments/mean"], "attr": {"T": {"type": "DT_FLOAT"}}}, {"name": "gen/A/layer3/res2/conv0/inorm/moments/variance", "op": "Mean", "input": ["gen/A/layer3/res2/conv0/inorm/moments/SquaredDifference", "gen/A/conv1/inorm/moments/mean/reduction_indices"], "attr": {"keep_dims": {"b": true}, "Tidx": {"type": "DT_INT32"}, "T": {"type": "DT_FLOAT"}}}, {"name": "gen/A/layer3/res2/conv0/inorm/output/add", "op": "AddV2", "input": ["gen/A/conv1/inorm/output/add/y", "gen/A/layer3/res2/conv0/inorm/moments/variance"], "attr": {"T": {"type": "DT_FLOAT"}}}, {"name": "gen/A/layer3/res2/conv0/inorm/output/Rsqrt", "op": "Rsqrt", "input": ["gen/A/layer3/res2/conv0/inorm/output/add"], "attr": {"T": {"type": "DT_FLOAT"}}}, {"name": "gen/A/layer3/res2/conv0/inorm/output/mul", "op": "Mul", "input": ["gen/A/layer3/res2/conv0/inorm/Reshape_1", "gen/A/layer3/res2/conv0/inorm/output/Rsqrt"], "attr": {"T": {"type": "DT_FLOAT"}}}, {"name": "gen/A/layer3/res2/conv0/inorm/output/mul_2", "op": "Mul", "input": ["gen/A/layer3/res2/conv0/inorm/moments/mean", "gen/A/layer3/res2/conv0/inorm/output/mul"], "attr": {"T": {"type": "DT_FLOAT"}}}, {"name": "gen/A/layer3/res2/conv0/inorm/output/mul_1", "op": "Mul", "input": ["gen/A/layer3/res2/conv0/Conv2D", "gen/A/layer3/res2/conv0/inorm/output/mul"], "attr": {"T": {"type": "DT_FLOAT"}}}, {"name": "gen/A/layer3/res2/conv0/inorm/output/sub", "op": "Sub", "input": ["gen/A/layer3/res2/conv0/inorm/Reshape", "gen/A/layer3/res2/conv0/inorm/output/mul_2"], "attr": {"T": {"type": "DT_FLOAT"}}}, {"name": "gen/A/layer3/res2/conv0/inorm/output/add_1", "op": "AddV2", "input": ["gen/A/layer3/res2/conv0/inorm/output/mul_1", "gen/A/layer3/res2/conv0/inorm/output/sub"], "attr": {"T": {"type": "DT_FLOAT"}}}, {"name": "gen/A/layer3/res2/conv0/Relu", "op": "Relu", "input": ["gen/A/layer3/res2/conv0/inorm/output/add_1"], "attr": {"T": {"type": "DT_FLOAT"}}}, {"name": "gen/A/layer3/res2/conv1/Conv2D", "op": "Conv2D", "input": ["gen/A/layer3/res2/conv0/Relu", "gen/A/layer3/res2/conv1/W"], "device": "/device:CPU:0", "attr": {"data_format": {"s": "TkhXQw=="}, "dilations": {"list": {"i": ["1", "1", "1", "1"]}}, "strides": {"list": {"i": ["1", "1", "1", "1"]}}, "explicit_paddings": {"list": {}}, "T": {"type": "DT_FLOAT"}, "padding": {"s": "U0FNRQ=="}, "use_cudnn_on_gpu": {"b": true}}}, {"name": "gen/A/layer3/res2/conv1/inorm/moments/mean", "op": "Mean", "input": ["gen/A/layer3/res2/conv1/Conv2D", "gen/A/conv1/inorm/moments/mean/reduction_indices"], "attr": {"keep_dims": {"b": true}, "Tidx": {"type": "DT_INT32"}, "T": {"type": "DT_FLOAT"}}}, {"name": "gen/A/layer3/res2/conv1/inorm/moments/SquaredDifference", "op": "SquaredDifference", "input": ["gen/A/layer3/res2/conv1/Conv2D", "gen/A/layer3/res2/conv1/inorm/moments/mean"], "attr": {"T": {"type": "DT_FLOAT"}}}, {"name": "gen/A/layer3/res2/conv1/inorm/moments/variance", "op": "Mean", "input": ["gen/A/layer3/res2/conv1/inorm/moments/SquaredDifference", "gen/A/conv1/inorm/moments/mean/reduction_indices"], "attr": {"T": {"type": "DT_FLOAT"}, "keep_dims": {"b": true}, "Tidx": {"type": "DT_INT32"}}}, {"name": "gen/A/layer3/res2/conv1/inorm/output/add", "op": "AddV2", "input": ["gen/A/conv1/inorm/output/add/y", "gen/A/layer3/res2/conv1/inorm/moments/variance"], "attr": {"T": {"type": "DT_FLOAT"}}}, {"name": "gen/A/layer3/res2/conv1/inorm/output/Rsqrt", "op": "Rsqrt", "input": ["gen/A/layer3/res2/conv1/inorm/output/add"], "attr": {"T": {"type": "DT_FLOAT"}}}, {"name": "gen/A/layer3/res2/conv1/inorm/output/mul", "op": "Mul", "input": ["gen/A/layer3/res2/conv1/inorm/Reshape_1", "gen/A/layer3/res2/conv1/inorm/output/Rsqrt"], "attr": {"T": {"type": "DT_FLOAT"}}}, {"name": "gen/A/layer3/res2/conv1/inorm/output/mul_2", "op": "Mul", "input": ["gen/A/layer3/res2/conv1/inorm/moments/mean", "gen/A/layer3/res2/conv1/inorm/output/mul"], "attr": {"T": {"type": "DT_FLOAT"}}}, {"name": "gen/A/layer3/res2/conv1/inorm/output/mul_1", "op": "Mul", "input": ["gen/A/layer3/res2/conv1/Conv2D", "gen/A/layer3/res2/conv1/inorm/output/mul"], "attr": {"T": {"type": "DT_FLOAT"}}}, {"name": "gen/A/layer3/res2/conv1/inorm/output/sub", "op": "Sub", "input": ["gen/A/layer3/res2/conv1/inorm/Reshape", "gen/A/layer3/res2/conv1/inorm/output/mul_2"], "attr": {"T": {"type": "DT_FLOAT"}}}, {"name": "gen/A/layer3/res2/conv1/inorm/output/add_1", "op": "AddV2", "input": ["gen/A/layer3/res2/conv1/inorm/output/mul_1", "gen/A/layer3/res2/conv1/inorm/output/sub"], "attr": {"T": {"type": "DT_FLOAT"}}}, {"name": "gen/A/layer3/res2/conv1/Relu", "op": "Relu", "input": ["gen/A/layer3/res2/conv1/inorm/output/add_1"], "attr": {"T": {"type": "DT_FLOAT"}}}, {"name": "gen/A/layer3/res2/concat", "op": "ConcatV2", "input": ["gen/A/layer3/res2/conv1/Relu", "gen/A/layer3/res1/conv2/Relu", "gen/A/layer1/res0/concat/axis"], "attr": {"T": {"type": "DT_FLOAT"}, "N": {"i": "2"}, "Tidx": {"type": "DT_INT32"}}}, {"name": "gen/A/layer3/res2/conv2/Conv2D", "op": "Conv2D", "input": ["gen/A/layer3/res2/concat", "gen/A/layer3/res2/conv2/W"], "device": "/device:CPU:0", "attr": {"dilations": {"list": {"i": ["1", "1", "1", "1"]}}, "strides": {"list": {"i": ["1", "1", "1", "1"]}}, "explicit_paddings": {"list": {}}, "use_cudnn_on_gpu": {"b": true}, "T": {"type": "DT_FLOAT"}, "data_format": {"s": "TkhXQw=="}, "padding": {"s": "U0FNRQ=="}}}, {"name": "gen/A/layer3/res2/conv2/inorm/moments/mean", "op": "Mean", "input": ["gen/A/layer3/res2/conv2/Conv2D", "gen/A/conv1/inorm/moments/mean/reduction_indices"], "attr": {"keep_dims": {"b": true}, "T": {"type": "DT_FLOAT"}, "Tidx": {"type": "DT_INT32"}}}, {"name": "gen/A/layer3/res2/conv2/inorm/moments/SquaredDifference", "op": "SquaredDifference", "input": ["gen/A/layer3/res2/conv2/Conv2D", "gen/A/layer3/res2/conv2/inorm/moments/mean"], "attr": {"T": {"type": "DT_FLOAT"}}}, {"name": "gen/A/layer3/res2/conv2/inorm/moments/variance", "op": "Mean", "input": ["gen/A/layer3/res2/conv2/inorm/moments/SquaredDifference", "gen/A/conv1/inorm/moments/mean/reduction_indices"], "attr": {"Tidx": {"type": "DT_INT32"}, "keep_dims": {"b": true}, "T": {"type": "DT_FLOAT"}}}, {"name": "gen/A/layer3/res2/conv2/inorm/output/add", "op": "AddV2", "input": ["gen/A/conv1/inorm/output/add/y", "gen/A/layer3/res2/conv2/inorm/moments/variance"], "attr": {"T": {"type": "DT_FLOAT"}}}, {"name": "gen/A/layer3/res2/conv2/inorm/output/Rsqrt", "op": "Rsqrt", "input": ["gen/A/layer3/res2/conv2/inorm/output/add"], "attr": {"T": {"type": "DT_FLOAT"}}}, {"name": "gen/A/layer3/res2/conv2/inorm/output/mul", "op": "Mul", "input": ["gen/A/layer3/res2/conv2/inorm/Reshape_1", "gen/A/layer3/res2/conv2/inorm/output/Rsqrt"], "attr": {"T": {"type": "DT_FLOAT"}}}, {"name": "gen/A/layer3/res2/conv2/inorm/output/mul_2", "op": "Mul", "input": ["gen/A/layer3/res2/conv2/inorm/moments/mean", "gen/A/layer3/res2/conv2/inorm/output/mul"], "attr": {"T": {"type": "DT_FLOAT"}}}, {"name": "gen/A/layer3/res2/conv2/inorm/output/mul_1", "op": "Mul", "input": ["gen/A/layer3/res2/conv2/Conv2D", "gen/A/layer3/res2/conv2/inorm/output/mul"], "attr": {"T": {"type": "DT_FLOAT"}}}, {"name": "gen/A/layer3/res2/conv2/inorm/output/sub", "op": "Sub", "input": ["gen/A/layer3/res2/conv2/inorm/Reshape", "gen/A/layer3/res2/conv2/inorm/output/mul_2"], "attr": {"T": {"type": "DT_FLOAT"}}}, {"name": "gen/A/layer3/res2/conv2/inorm/output/add_1", "op": "AddV2", "input": ["gen/A/layer3/res2/conv2/inorm/output/mul_1", "gen/A/layer3/res2/conv2/inorm/output/sub"], "attr": {"T": {"type": "DT_FLOAT"}}}, {"name": "gen/A/layer3/res2/conv2/Relu", "op": "Relu", "input": ["gen/A/layer3/res2/conv2/inorm/output/add_1"], "attr": {"T": {"type": "DT_FLOAT"}}}, {"name": "gen/A/deconv0/Shape", "op": "Shape", "input": ["gen/A/layer3/res2/conv2/Relu"], "attr": {"T": {"type": "DT_FLOAT"}, "out_type": {"type": "DT_INT32"}}}, {"name": "gen/A/deconv0/strided_slice", "op": "StridedSlice", "input": ["gen/A/deconv0/Shape", "gen/A/deconv3/strided_slice/stack", "gen/A/deconv3/strided_slice/stack_1", "gen/A/deconv3/strided_slice/stack_1"], "attr": {"new_axis_mask": {"i": "0"}, "begin_mask": {"i": "0"}, "end_mask": {"i": "0"}, "Index": {"type": "DT_INT32"}, "shrink_axis_mask": {"i": "1"}, "T": {"type": "DT_INT32"}, "ellipsis_mask": {"i": "0"}}}, {"name": "gen/A/deconv0/strided_slice_1", "op": "StridedSlice", "input": ["gen/A/deconv0/Shape", "gen/A/deconv3/strided_slice/stack_1", "gen/A/deconv0/strided_slice_1/stack_1", "gen/A/deconv3/strided_slice/stack_1"], "attr": {"Index": {"type": "DT_INT32"}, "end_mask": {"i": "0"}, "shrink_axis_mask": {"i": "1"}, "new_axis_mask": {"i": "0"}, "T": {"type": "DT_INT32"}, "begin_mask": {"i": "0"}, "ellipsis_mask": {"i": "0"}}}, {"name": "gen/A/deconv0/strided_slice_2", "op": "StridedSlice", "input": ["gen/A/deconv0/Shape", "gen/A/deconv0/strided_slice_1/stack_1", "gen/A/deconv0/strided_slice_2/stack_1", "gen/A/deconv3/strided_slice/stack_1"], "attr": {"begin_mask": {"i": "0"}, "ellipsis_mask": {"i": "0"}, "shrink_axis_mask": {"i": "1"}, "new_axis_mask": {"i": "0"}, "Index": {"type": "DT_INT32"}, "end_mask": {"i": "0"}, "T": {"type": "DT_INT32"}}}, {"name": "gen/A/deconv0/mul", "op": "Mul", "input": ["gen/A/deconv0/mul/y", "gen/A/deconv0/strided_slice_1"], "attr": {"T": {"type": "DT_INT32"}}}, {"name": "gen/A/deconv0/mul_1", "op": "Mul", "input": ["gen/A/deconv0/mul/y", "gen/A/deconv0/strided_slice_2"], "attr": {"T": {"type": "DT_INT32"}}}, {"name": "gen/A/deconv0/stack", "op": "Pack", "input": ["gen/A/deconv0/strided_slice", "gen/A/deconv0/mul", "gen/A/deconv0/mul_1", "gen/A/deconv0/stack/3"], "attr": {"axis": {"i": "0"}, "T": {"type": "DT_INT32"}, "N": {"i": "4"}}}, {"name": "gen/A/deconv0/conv2d_transpose", "op": "Conv2DBackpropInput", "input": ["gen/A/deconv0/stack", "gen/A/deconv0/W", "gen/A/layer3/res2/conv2/Relu"], "attr": {"dilations": {"list": {"i": ["1", "1", "1", "1"]}}, "strides": {"list": {"i": ["1", "2", "2", "1"]}}, "data_format": {"s": "TkhXQw=="}, "explicit_paddings": {"list": {}}, "use_cudnn_on_gpu": {"b": true}, "T": {"type": "DT_FLOAT"}, "padding": {"s": "U0FNRQ=="}}}, {"name": "gen/A/deconv0/inorm/moments/mean", "op": "Mean", "input": ["gen/A/deconv0/conv2d_transpose", "gen/A/conv1/inorm/moments/mean/reduction_indices"], "attr": {"T": {"type": "DT_FLOAT"}, "Tidx": {"type": "DT_INT32"}, "keep_dims": {"b": true}}}, {"name": "gen/A/deconv0/inorm/moments/SquaredDifference", "op": "SquaredDifference", "input": ["gen/A/deconv0/conv2d_transpose", "gen/A/deconv0/inorm/moments/mean"], "attr": {"T": {"type": "DT_FLOAT"}}}, {"name": "gen/A/deconv0/inorm/moments/variance", "op": "Mean", "input": ["gen/A/deconv0/inorm/moments/SquaredDifference", "gen/A/conv1/inorm/moments/mean/reduction_indices"], "attr": {"Tidx": {"type": "DT_INT32"}, "T": {"type": "DT_FLOAT"}, "keep_dims": {"b": true}}}, {"name": "gen/A/deconv0/inorm/output/add", "op": "AddV2", "input": ["gen/A/conv1/inorm/output/add/y", "gen/A/deconv0/inorm/moments/variance"], "attr": {"T": {"type": "DT_FLOAT"}}}, {"name": "gen/A/deconv0/inorm/output/Rsqrt", "op": "Rsqrt", "input": ["gen/A/deconv0/inorm/output/add"], "attr": {"T": {"type": "DT_FLOAT"}}}, {"name": "gen/A/deconv0/inorm/output/mul", "op": "Mul", "input": ["gen/A/deconv0/inorm/Reshape_1", "gen/A/deconv0/inorm/output/Rsqrt"], "attr": {"T": {"type": "DT_FLOAT"}}}, {"name": "gen/A/deconv0/inorm/output/mul_2", "op": "Mul", "input": ["gen/A/deconv0/inorm/moments/mean", "gen/A/deconv0/inorm/output/mul"], "attr": {"T": {"type": "DT_FLOAT"}}}, {"name": "gen/A/deconv0/inorm/output/mul_1", "op": "Mul", "input": ["gen/A/deconv0/conv2d_transpose", "gen/A/deconv0/inorm/output/mul"], "attr": {"T": {"type": "DT_FLOAT"}}}, {"name": "gen/A/deconv0/inorm/output/sub", "op": "Sub", "input": ["gen/A/deconv0/inorm/Reshape", "gen/A/deconv0/inorm/output/mul_2"], "attr": {"T": {"type": "DT_FLOAT"}}}, {"name": "gen/A/deconv0/inorm/output/add_1", "op": "AddV2", "input": ["gen/A/deconv0/inorm/output/mul_1", "gen/A/deconv0/inorm/output/sub"], "attr": {"T": {"type": "DT_FLOAT"}}}, {"name": "gen/A/deconv0/Relu", "op": "Relu", "input": ["gen/A/deconv0/inorm/output/add_1"], "attr": {"T": {"type": "DT_FLOAT"}}}, {"name": "gen/A/concat", "op": "ConcatV2", "input": ["gen/A/deconv0/Relu", "gen/A/layer2/res2/conv2/Relu", "gen/A/layer1/res0/concat/axis"], "attr": {"N": {"i": "2"}, "Tidx": {"type": "DT_INT32"}, "T": {"type": "DT_FLOAT"}}}, {"name": "gen/A/blayer2/res0/conv0/Conv2D", "op": "Conv2D", "input": ["gen/A/concat", "gen/A/blayer2/res0/conv0/W"], "device": "/device:CPU:0", "attr": {"padding": {"s": "U0FNRQ=="}, "dilations": {"list": {"i": ["1", "1", "1", "1"]}}, "strides": {"list": {"i": ["1", "1", "1", "1"]}}, "data_format": {"s": "TkhXQw=="}, "explicit_paddings": {"list": {}}, "use_cudnn_on_gpu": {"b": true}, "T": {"type": "DT_FLOAT"}}}, {"name": "gen/A/blayer2/res0/conv0/inorm/moments/mean", "op": "Mean", "input": ["gen/A/blayer2/res0/conv0/Conv2D", "gen/A/conv1/inorm/moments/mean/reduction_indices"], "attr": {"T": {"type": "DT_FLOAT"}, "Tidx": {"type": "DT_INT32"}, "keep_dims": {"b": true}}}, {"name": "gen/A/blayer2/res0/conv0/inorm/moments/SquaredDifference", "op": "SquaredDifference", "input": ["gen/A/blayer2/res0/conv0/Conv2D", "gen/A/blayer2/res0/conv0/inorm/moments/mean"], "attr": {"T": {"type": "DT_FLOAT"}}}, {"name": "gen/A/blayer2/res0/conv0/inorm/moments/variance", "op": "Mean", "input": ["gen/A/blayer2/res0/conv0/inorm/moments/SquaredDifference", "gen/A/conv1/inorm/moments/mean/reduction_indices"], "attr": {"T": {"type": "DT_FLOAT"}, "Tidx": {"type": "DT_INT32"}, "keep_dims": {"b": true}}}, {"name": "gen/A/blayer2/res0/conv0/inorm/output/add", "op": "AddV2", "input": ["gen/A/blayer2/res0/conv0/inorm/moments/variance", "gen/A/conv1/inorm/output/add/y"], "attr": {"T": {"type": "DT_FLOAT"}}}, {"name": "gen/A/blayer2/res0/conv0/inorm/output/Rsqrt", "op": "Rsqrt", "input": ["gen/A/blayer2/res0/conv0/inorm/output/add"], "attr": {"T": {"type": "DT_FLOAT"}}}, {"name": "gen/A/blayer2/res0/conv0/inorm/output/mul", "op": "Mul", "input": ["gen/A/blayer2/res0/conv0/inorm/Reshape_1", "gen/A/blayer2/res0/conv0/inorm/output/Rsqrt"], "attr": {"T": {"type": "DT_FLOAT"}}}, {"name": "gen/A/blayer2/res0/conv0/inorm/output/mul_2", "op": "Mul", "input": ["gen/A/blayer2/res0/conv0/inorm/moments/mean", "gen/A/blayer2/res0/conv0/inorm/output/mul"], "attr": {"T": {"type": "DT_FLOAT"}}}, {"name": "gen/A/blayer2/res0/conv0/inorm/output/mul_1", "op": "Mul", "input": ["gen/A/blayer2/res0/conv0/Conv2D", "gen/A/blayer2/res0/conv0/inorm/output/mul"], "attr": {"T": {"type": "DT_FLOAT"}}}, {"name": "gen/A/blayer2/res0/conv0/inorm/output/sub", "op": "Sub", "input": ["gen/A/blayer2/res0/conv0/inorm/Reshape", "gen/A/blayer2/res0/conv0/inorm/output/mul_2"], "attr": {"T": {"type": "DT_FLOAT"}}}, {"name": "gen/A/blayer2/res0/conv0/inorm/output/add_1", "op": "AddV2", "input": ["gen/A/blayer2/res0/conv0/inorm/output/mul_1", "gen/A/blayer2/res0/conv0/inorm/output/sub"], "attr": {"T": {"type": "DT_FLOAT"}}}, {"name": "gen/A/blayer2/res0/conv0/Relu", "op": "Relu", "input": ["gen/A/blayer2/res0/conv0/inorm/output/add_1"], "attr": {"T": {"type": "DT_FLOAT"}}}, {"name": "gen/A/blayer2/res0/conv1/Conv2D", "op": "Conv2D", "input": ["gen/A/blayer2/res0/conv0/Relu", "gen/A/blayer2/res0/conv1/W"], "device": "/device:CPU:0", "attr": {"dilations": {"list": {"i": ["1", "1", "1", "1"]}}, "strides": {"list": {"i": ["1", "1", "1", "1"]}}, "data_format": {"s": "TkhXQw=="}, "explicit_paddings": {"list": {}}, "use_cudnn_on_gpu": {"b": true}, "T": {"type": "DT_FLOAT"}, "padding": {"s": "U0FNRQ=="}}}, {"name": "gen/A/blayer2/res0/conv1/inorm/moments/mean", "op": "Mean", "input": ["gen/A/blayer2/res0/conv1/Conv2D", "gen/A/conv1/inorm/moments/mean/reduction_indices"], "attr": {"Tidx": {"type": "DT_INT32"}, "T": {"type": "DT_FLOAT"}, "keep_dims": {"b": true}}}, {"name": "gen/A/blayer2/res0/conv1/inorm/moments/SquaredDifference", "op": "SquaredDifference", "input": ["gen/A/blayer2/res0/conv1/Conv2D", "gen/A/blayer2/res0/conv1/inorm/moments/mean"], "attr": {"T": {"type": "DT_FLOAT"}}}, {"name": "gen/A/blayer2/res0/conv1/inorm/moments/variance", "op": "Mean", "input": ["gen/A/blayer2/res0/conv1/inorm/moments/SquaredDifference", "gen/A/conv1/inorm/moments/mean/reduction_indices"], "attr": {"Tidx": {"type": "DT_INT32"}, "T": {"type": "DT_FLOAT"}, "keep_dims": {"b": true}}}, {"name": "gen/A/blayer2/res0/conv1/inorm/output/add", "op": "AddV2", "input": ["gen/A/blayer2/res0/conv1/inorm/moments/variance", "gen/A/conv1/inorm/output/add/y"], "attr": {"T": {"type": "DT_FLOAT"}}}, {"name": "gen/A/blayer2/res0/conv1/inorm/output/Rsqrt", "op": "Rsqrt", "input": ["gen/A/blayer2/res0/conv1/inorm/output/add"], "attr": {"T": {"type": "DT_FLOAT"}}}, {"name": "gen/A/blayer2/res0/conv1/inorm/output/mul", "op": "Mul", "input": ["gen/A/blayer2/res0/conv1/inorm/Reshape_1", "gen/A/blayer2/res0/conv1/inorm/output/Rsqrt"], "attr": {"T": {"type": "DT_FLOAT"}}}, {"name": "gen/A/blayer2/res0/conv1/inorm/output/mul_2", "op": "Mul", "input": ["gen/A/blayer2/res0/conv1/inorm/moments/mean", "gen/A/blayer2/res0/conv1/inorm/output/mul"], "attr": {"T": {"type": "DT_FLOAT"}}}, {"name": "gen/A/blayer2/res0/conv1/inorm/output/mul_1", "op": "Mul", "input": ["gen/A/blayer2/res0/conv1/Conv2D", "gen/A/blayer2/res0/conv1/inorm/output/mul"], "attr": {"T": {"type": "DT_FLOAT"}}}, {"name": "gen/A/blayer2/res0/conv1/inorm/output/sub", "op": "Sub", "input": ["gen/A/blayer2/res0/conv1/inorm/Reshape", "gen/A/blayer2/res0/conv1/inorm/output/mul_2"], "attr": {"T": {"type": "DT_FLOAT"}}}, {"name": "gen/A/blayer2/res0/conv1/inorm/output/add_1", "op": "AddV2", "input": ["gen/A/blayer2/res0/conv1/inorm/output/mul_1", "gen/A/blayer2/res0/conv1/inorm/output/sub"], "attr": {"T": {"type": "DT_FLOAT"}}}, {"name": "gen/A/blayer2/res0/conv1/Relu", "op": "Relu", "input": ["gen/A/blayer2/res0/conv1/inorm/output/add_1"], "attr": {"T": {"type": "DT_FLOAT"}}}, {"name": "gen/A/blayer2/res0/concat", "op": "ConcatV2", "input": ["gen/A/blayer2/res0/conv1/Relu", "gen/A/concat", "gen/A/layer1/res0/concat/axis"], "attr": {"N": {"i": "2"}, "Tidx": {"type": "DT_INT32"}, "T": {"type": "DT_FLOAT"}}}, {"name": "gen/A/blayer2/res0/conv2/Conv2D", "op": "Conv2D", "input": ["gen/A/blayer2/res0/concat", "gen/A/blayer2/res0/conv2/W"], "device": "/device:CPU:0", "attr": {"data_format": {"s": "TkhXQw=="}, "strides": {"list": {"i": ["1", "1", "1", "1"]}}, "dilations": {"list": {"i": ["1", "1", "1", "1"]}}, "explicit_paddings": {"list": {}}, "T": {"type": "DT_FLOAT"}, "use_cudnn_on_gpu": {"b": true}, "padding": {"s": "U0FNRQ=="}}}, {"name": "gen/A/blayer2/res0/conv2/inorm/moments/mean", "op": "Mean", "input": ["gen/A/blayer2/res0/conv2/Conv2D", "gen/A/conv1/inorm/moments/mean/reduction_indices"], "attr": {"Tidx": {"type": "DT_INT32"}, "T": {"type": "DT_FLOAT"}, "keep_dims": {"b": true}}}, {"name": "gen/A/blayer2/res0/conv2/inorm/moments/SquaredDifference", "op": "SquaredDifference", "input": ["gen/A/blayer2/res0/conv2/Conv2D", "gen/A/blayer2/res0/conv2/inorm/moments/mean"], "attr": {"T": {"type": "DT_FLOAT"}}}, {"name": "gen/A/blayer2/res0/conv2/inorm/moments/variance", "op": "Mean", "input": ["gen/A/blayer2/res0/conv2/inorm/moments/SquaredDifference", "gen/A/conv1/inorm/moments/mean/reduction_indices"], "attr": {"Tidx": {"type": "DT_INT32"}, "T": {"type": "DT_FLOAT"}, "keep_dims": {"b": true}}}, {"name": "gen/A/blayer2/res0/conv2/inorm/output/add", "op": "AddV2", "input": ["gen/A/blayer2/res0/conv2/inorm/moments/variance", "gen/A/conv1/inorm/output/add/y"], "attr": {"T": {"type": "DT_FLOAT"}}}, {"name": "gen/A/blayer2/res0/conv2/inorm/output/Rsqrt", "op": "Rsqrt", "input": ["gen/A/blayer2/res0/conv2/inorm/output/add"], "attr": {"T": {"type": "DT_FLOAT"}}}, {"name": "gen/A/blayer2/res0/conv2/inorm/output/mul", "op": "Mul", "input": ["gen/A/blayer2/res0/conv2/inorm/Reshape_1", "gen/A/blayer2/res0/conv2/inorm/output/Rsqrt"], "attr": {"T": {"type": "DT_FLOAT"}}}, {"name": "gen/A/blayer2/res0/conv2/inorm/output/mul_2", "op": "Mul", "input": ["gen/A/blayer2/res0/conv2/inorm/moments/mean", "gen/A/blayer2/res0/conv2/inorm/output/mul"], "attr": {"T": {"type": "DT_FLOAT"}}}, {"name": "gen/A/blayer2/res0/conv2/inorm/output/mul_1", "op": "Mul", "input": ["gen/A/blayer2/res0/conv2/Conv2D", "gen/A/blayer2/res0/conv2/inorm/output/mul"], "attr": {"T": {"type": "DT_FLOAT"}}}, {"name": "gen/A/blayer2/res0/conv2/inorm/output/sub", "op": "Sub", "input": ["gen/A/blayer2/res0/conv2/inorm/Reshape", "gen/A/blayer2/res0/conv2/inorm/output/mul_2"], "attr": {"T": {"type": "DT_FLOAT"}}}, {"name": "gen/A/blayer2/res0/conv2/inorm/output/add_1", "op": "AddV2", "input": ["gen/A/blayer2/res0/conv2/inorm/output/mul_1", "gen/A/blayer2/res0/conv2/inorm/output/sub"], "attr": {"T": {"type": "DT_FLOAT"}}}, {"name": "gen/A/blayer2/res0/conv2/Relu", "op": "Relu", "input": ["gen/A/blayer2/res0/conv2/inorm/output/add_1"], "attr": {"T": {"type": "DT_FLOAT"}}}, {"name": "gen/A/blayer2/res1/conv0/Conv2D", "op": "Conv2D", "input": ["gen/A/blayer2/res0/conv2/Relu", "gen/A/blayer2/res1/conv0/W"], "device": "/device:CPU:0", "attr": {"T": {"type": "DT_FLOAT"}, "padding": {"s": "U0FNRQ=="}, "dilations": {"list": {"i": ["1", "1", "1", "1"]}}, "data_format": {"s": "TkhXQw=="}, "strides": {"list": {"i": ["1", "1", "1", "1"]}}, "explicit_paddings": {"list": {}}, "use_cudnn_on_gpu": {"b": true}}}, {"name": "gen/A/blayer2/res1/conv0/inorm/moments/mean", "op": "Mean", "input": ["gen/A/blayer2/res1/conv0/Conv2D", "gen/A/conv1/inorm/moments/mean/reduction_indices"], "attr": {"Tidx": {"type": "DT_INT32"}, "T": {"type": "DT_FLOAT"}, "keep_dims": {"b": true}}}, {"name": "gen/A/blayer2/res1/conv0/inorm/moments/SquaredDifference", "op": "SquaredDifference", "input": ["gen/A/blayer2/res1/conv0/Conv2D", "gen/A/blayer2/res1/conv0/inorm/moments/mean"], "attr": {"T": {"type": "DT_FLOAT"}}}, {"name": "gen/A/blayer2/res1/conv0/inorm/moments/variance", "op": "Mean", "input": ["gen/A/blayer2/res1/conv0/inorm/moments/SquaredDifference", "gen/A/conv1/inorm/moments/mean/reduction_indices"], "attr": {"T": {"type": "DT_FLOAT"}, "Tidx": {"type": "DT_INT32"}, "keep_dims": {"b": true}}}, {"name": "gen/A/blayer2/res1/conv0/inorm/output/add", "op": "AddV2", "input": ["gen/A/blayer2/res1/conv0/inorm/moments/variance", "gen/A/conv1/inorm/output/add/y"], "attr": {"T": {"type": "DT_FLOAT"}}}, {"name": "gen/A/blayer2/res1/conv0/inorm/output/Rsqrt", "op": "Rsqrt", "input": ["gen/A/blayer2/res1/conv0/inorm/output/add"], "attr": {"T": {"type": "DT_FLOAT"}}}, {"name": "gen/A/blayer2/res1/conv0/inorm/output/mul", "op": "Mul", "input": ["gen/A/blayer2/res1/conv0/inorm/Reshape_1", "gen/A/blayer2/res1/conv0/inorm/output/Rsqrt"], "attr": {"T": {"type": "DT_FLOAT"}}}, {"name": "gen/A/blayer2/res1/conv0/inorm/output/mul_2", "op": "Mul", "input": ["gen/A/blayer2/res1/conv0/inorm/moments/mean", "gen/A/blayer2/res1/conv0/inorm/output/mul"], "attr": {"T": {"type": "DT_FLOAT"}}}, {"name": "gen/A/blayer2/res1/conv0/inorm/output/mul_1", "op": "Mul", "input": ["gen/A/blayer2/res1/conv0/Conv2D", "gen/A/blayer2/res1/conv0/inorm/output/mul"], "attr": {"T": {"type": "DT_FLOAT"}}}, {"name": "gen/A/blayer2/res1/conv0/inorm/output/sub", "op": "Sub", "input": ["gen/A/blayer2/res1/conv0/inorm/Reshape", "gen/A/blayer2/res1/conv0/inorm/output/mul_2"], "attr": {"T": {"type": "DT_FLOAT"}}}, {"name": "gen/A/blayer2/res1/conv0/inorm/output/add_1", "op": "AddV2", "input": ["gen/A/blayer2/res1/conv0/inorm/output/mul_1", "gen/A/blayer2/res1/conv0/inorm/output/sub"], "attr": {"T": {"type": "DT_FLOAT"}}}, {"name": "gen/A/blayer2/res1/conv0/Relu", "op": "Relu", "input": ["gen/A/blayer2/res1/conv0/inorm/output/add_1"], "attr": {"T": {"type": "DT_FLOAT"}}}, {"name": "gen/A/blayer2/res1/conv1/Conv2D", "op": "Conv2D", "input": ["gen/A/blayer2/res1/conv0/Relu", "gen/A/blayer2/res1/conv1/W"], "device": "/device:CPU:0", "attr": {"data_format": {"s": "TkhXQw=="}, "strides": {"list": {"i": ["1", "1", "1", "1"]}}, "dilations": {"list": {"i": ["1", "1", "1", "1"]}}, "explicit_paddings": {"list": {}}, "T": {"type": "DT_FLOAT"}, "use_cudnn_on_gpu": {"b": true}, "padding": {"s": "U0FNRQ=="}}}, {"name": "gen/A/blayer2/res1/conv1/inorm/moments/mean", "op": "Mean", "input": ["gen/A/blayer2/res1/conv1/Conv2D", "gen/A/conv1/inorm/moments/mean/reduction_indices"], "attr": {"T": {"type": "DT_FLOAT"}, "Tidx": {"type": "DT_INT32"}, "keep_dims": {"b": true}}}, {"name": "gen/A/blayer2/res1/conv1/inorm/moments/SquaredDifference", "op": "SquaredDifference", "input": ["gen/A/blayer2/res1/conv1/Conv2D", "gen/A/blayer2/res1/conv1/inorm/moments/mean"], "attr": {"T": {"type": "DT_FLOAT"}}}, {"name": "gen/A/blayer2/res1/conv1/inorm/moments/variance", "op": "Mean", "input": ["gen/A/blayer2/res1/conv1/inorm/moments/SquaredDifference", "gen/A/conv1/inorm/moments/mean/reduction_indices"], "attr": {"keep_dims": {"b": true}, "T": {"type": "DT_FLOAT"}, "Tidx": {"type": "DT_INT32"}}}, {"name": "gen/A/blayer2/res1/conv1/inorm/output/add", "op": "AddV2", "input": ["gen/A/blayer2/res1/conv1/inorm/moments/variance", "gen/A/conv1/inorm/output/add/y"], "attr": {"T": {"type": "DT_FLOAT"}}}, {"name": "gen/A/blayer2/res1/conv1/inorm/output/Rsqrt", "op": "Rsqrt", "input": ["gen/A/blayer2/res1/conv1/inorm/output/add"], "attr": {"T": {"type": "DT_FLOAT"}}}, {"name": "gen/A/blayer2/res1/conv1/inorm/output/mul", "op": "Mul", "input": ["gen/A/blayer2/res1/conv1/inorm/Reshape_1", "gen/A/blayer2/res1/conv1/inorm/output/Rsqrt"], "attr": {"T": {"type": "DT_FLOAT"}}}, {"name": "gen/A/blayer2/res1/conv1/inorm/output/mul_2", "op": "Mul", "input": ["gen/A/blayer2/res1/conv1/inorm/moments/mean", "gen/A/blayer2/res1/conv1/inorm/output/mul"], "attr": {"T": {"type": "DT_FLOAT"}}}, {"name": "gen/A/blayer2/res1/conv1/inorm/output/mul_1", "op": "Mul", "input": ["gen/A/blayer2/res1/conv1/Conv2D", "gen/A/blayer2/res1/conv1/inorm/output/mul"], "attr": {"T": {"type": "DT_FLOAT"}}}, {"name": "gen/A/blayer2/res1/conv1/inorm/output/sub", "op": "Sub", "input": ["gen/A/blayer2/res1/conv1/inorm/Reshape", "gen/A/blayer2/res1/conv1/inorm/output/mul_2"], "attr": {"T": {"type": "DT_FLOAT"}}}, {"name": "gen/A/blayer2/res1/conv1/inorm/output/add_1", "op": "AddV2", "input": ["gen/A/blayer2/res1/conv1/inorm/output/mul_1", "gen/A/blayer2/res1/conv1/inorm/output/sub"], "attr": {"T": {"type": "DT_FLOAT"}}}, {"name": "gen/A/blayer2/res1/conv1/Relu", "op": "Relu", "input": ["gen/A/blayer2/res1/conv1/inorm/output/add_1"], "attr": {"T": {"type": "DT_FLOAT"}}}, {"name": "gen/A/blayer2/res1/concat", "op": "ConcatV2", "input": ["gen/A/blayer2/res1/conv1/Relu", "gen/A/blayer2/res0/conv2/Relu", "gen/A/layer1/res0/concat/axis"], "attr": {"N": {"i": "2"}, "Tidx": {"type": "DT_INT32"}, "T": {"type": "DT_FLOAT"}}}, {"name": "gen/A/blayer2/res1/conv2/Conv2D", "op": "Conv2D", "input": ["gen/A/blayer2/res1/concat", "gen/A/blayer2/res1/conv2/W"], "device": "/device:CPU:0", "attr": {"strides": {"list": {"i": ["1", "1", "1", "1"]}}, "padding": {"s": "U0FNRQ=="}, "dilations": {"list": {"i": ["1", "1", "1", "1"]}}, "data_format": {"s": "TkhXQw=="}, "T": {"type": "DT_FLOAT"}, "explicit_paddings": {"list": {}}, "use_cudnn_on_gpu": {"b": true}}}, {"name": "gen/A/blayer2/res1/conv2/inorm/moments/mean", "op": "Mean", "input": ["gen/A/blayer2/res1/conv2/Conv2D", "gen/A/conv1/inorm/moments/mean/reduction_indices"], "attr": {"keep_dims": {"b": true}, "T": {"type": "DT_FLOAT"}, "Tidx": {"type": "DT_INT32"}}}, {"name": "gen/A/blayer2/res1/conv2/inorm/moments/SquaredDifference", "op": "SquaredDifference", "input": ["gen/A/blayer2/res1/conv2/Conv2D", "gen/A/blayer2/res1/conv2/inorm/moments/mean"], "attr": {"T": {"type": "DT_FLOAT"}}}, {"name": "gen/A/blayer2/res1/conv2/inorm/moments/variance", "op": "Mean", "input": ["gen/A/blayer2/res1/conv2/inorm/moments/SquaredDifference", "gen/A/conv1/inorm/moments/mean/reduction_indices"], "attr": {"Tidx": {"type": "DT_INT32"}, "keep_dims": {"b": true}, "T": {"type": "DT_FLOAT"}}}, {"name": "gen/A/blayer2/res1/conv2/inorm/output/add", "op": "AddV2", "input": ["gen/A/blayer2/res1/conv2/inorm/moments/variance", "gen/A/conv1/inorm/output/add/y"], "attr": {"T": {"type": "DT_FLOAT"}}}, {"name": "gen/A/blayer2/res1/conv2/inorm/output/Rsqrt", "op": "Rsqrt", "input": ["gen/A/blayer2/res1/conv2/inorm/output/add"], "attr": {"T": {"type": "DT_FLOAT"}}}, {"name": "gen/A/blayer2/res1/conv2/inorm/output/mul", "op": "Mul", "input": ["gen/A/blayer2/res1/conv2/inorm/Reshape_1", "gen/A/blayer2/res1/conv2/inorm/output/Rsqrt"], "attr": {"T": {"type": "DT_FLOAT"}}}, {"name": "gen/A/blayer2/res1/conv2/inorm/output/mul_2", "op": "Mul", "input": ["gen/A/blayer2/res1/conv2/inorm/moments/mean", "gen/A/blayer2/res1/conv2/inorm/output/mul"], "attr": {"T": {"type": "DT_FLOAT"}}}, {"name": "gen/A/blayer2/res1/conv2/inorm/output/mul_1", "op": "Mul", "input": ["gen/A/blayer2/res1/conv2/Conv2D", "gen/A/blayer2/res1/conv2/inorm/output/mul"], "attr": {"T": {"type": "DT_FLOAT"}}}, {"name": "gen/A/blayer2/res1/conv2/inorm/output/sub", "op": "Sub", "input": ["gen/A/blayer2/res1/conv2/inorm/Reshape", "gen/A/blayer2/res1/conv2/inorm/output/mul_2"], "attr": {"T": {"type": "DT_FLOAT"}}}, {"name": "gen/A/blayer2/res1/conv2/inorm/output/add_1", "op": "AddV2", "input": ["gen/A/blayer2/res1/conv2/inorm/output/mul_1", "gen/A/blayer2/res1/conv2/inorm/output/sub"], "attr": {"T": {"type": "DT_FLOAT"}}}, {"name": "gen/A/blayer2/res1/conv2/Relu", "op": "Relu", "input": ["gen/A/blayer2/res1/conv2/inorm/output/add_1"], "attr": {"T": {"type": "DT_FLOAT"}}}, {"name": "gen/A/blayer2/res2/conv0/Conv2D", "op": "Conv2D", "input": ["gen/A/blayer2/res1/conv2/Relu", "gen/A/blayer2/res2/conv0/W"], "device": "/device:CPU:0", "attr": {"explicit_paddings": {"list": {}}, "T": {"type": "DT_FLOAT"}, "padding": {"s": "U0FNRQ=="}, "use_cudnn_on_gpu": {"b": true}, "strides": {"list": {"i": ["1", "1", "1", "1"]}}, "data_format": {"s": "TkhXQw=="}, "dilations": {"list": {"i": ["1", "1", "1", "1"]}}}}, {"name": "gen/A/blayer2/res2/conv0/inorm/moments/mean", "op": "Mean", "input": ["gen/A/blayer2/res2/conv0/Conv2D", "gen/A/conv1/inorm/moments/mean/reduction_indices"], "attr": {"keep_dims": {"b": true}, "Tidx": {"type": "DT_INT32"}, "T": {"type": "DT_FLOAT"}}}, {"name": "gen/A/blayer2/res2/conv0/inorm/moments/SquaredDifference", "op": "SquaredDifference", "input": ["gen/A/blayer2/res2/conv0/Conv2D", "gen/A/blayer2/res2/conv0/inorm/moments/mean"], "attr": {"T": {"type": "DT_FLOAT"}}}, {"name": "gen/A/blayer2/res2/conv0/inorm/moments/variance", "op": "Mean", "input": ["gen/A/blayer2/res2/conv0/inorm/moments/SquaredDifference", "gen/A/conv1/inorm/moments/mean/reduction_indices"], "attr": {"keep_dims": {"b": true}, "T": {"type": "DT_FLOAT"}, "Tidx": {"type": "DT_INT32"}}}, {"name": "gen/A/blayer2/res2/conv0/inorm/output/add", "op": "AddV2", "input": ["gen/A/blayer2/res2/conv0/inorm/moments/variance", "gen/A/conv1/inorm/output/add/y"], "attr": {"T": {"type": "DT_FLOAT"}}}, {"name": "gen/A/blayer2/res2/conv0/inorm/output/Rsqrt", "op": "Rsqrt", "input": ["gen/A/blayer2/res2/conv0/inorm/output/add"], "attr": {"T": {"type": "DT_FLOAT"}}}, {"name": "gen/A/blayer2/res2/conv0/inorm/output/mul", "op": "Mul", "input": ["gen/A/blayer2/res2/conv0/inorm/Reshape_1", "gen/A/blayer2/res2/conv0/inorm/output/Rsqrt"], "attr": {"T": {"type": "DT_FLOAT"}}}, {"name": "gen/A/blayer2/res2/conv0/inorm/output/mul_2", "op": "Mul", "input": ["gen/A/blayer2/res2/conv0/inorm/moments/mean", "gen/A/blayer2/res2/conv0/inorm/output/mul"], "attr": {"T": {"type": "DT_FLOAT"}}}, {"name": "gen/A/blayer2/res2/conv0/inorm/output/mul_1", "op": "Mul", "input": ["gen/A/blayer2/res2/conv0/Conv2D", "gen/A/blayer2/res2/conv0/inorm/output/mul"], "attr": {"T": {"type": "DT_FLOAT"}}}, {"name": "gen/A/blayer2/res2/conv0/inorm/output/sub", "op": "Sub", "input": ["gen/A/blayer2/res2/conv0/inorm/Reshape", "gen/A/blayer2/res2/conv0/inorm/output/mul_2"], "attr": {"T": {"type": "DT_FLOAT"}}}, {"name": "gen/A/blayer2/res2/conv0/inorm/output/add_1", "op": "AddV2", "input": ["gen/A/blayer2/res2/conv0/inorm/output/mul_1", "gen/A/blayer2/res2/conv0/inorm/output/sub"], "attr": {"T": {"type": "DT_FLOAT"}}}, {"name": "gen/A/blayer2/res2/conv0/Relu", "op": "Relu", "input": ["gen/A/blayer2/res2/conv0/inorm/output/add_1"], "attr": {"T": {"type": "DT_FLOAT"}}}, {"name": "gen/A/blayer2/res2/conv1/Conv2D", "op": "Conv2D", "input": ["gen/A/blayer2/res2/conv0/Relu", "gen/A/blayer2/res2/conv1/W"], "device": "/device:CPU:0", "attr": {"strides": {"list": {"i": ["1", "1", "1", "1"]}}, "dilations": {"list": {"i": ["1", "1", "1", "1"]}}, "data_format": {"s": "TkhXQw=="}, "explicit_paddings": {"list": {}}, "padding": {"s": "U0FNRQ=="}, "use_cudnn_on_gpu": {"b": true}, "T": {"type": "DT_FLOAT"}}}, {"name": "gen/A/blayer2/res2/conv1/inorm/moments/mean", "op": "Mean", "input": ["gen/A/blayer2/res2/conv1/Conv2D", "gen/A/conv1/inorm/moments/mean/reduction_indices"], "attr": {"Tidx": {"type": "DT_INT32"}, "T": {"type": "DT_FLOAT"}, "keep_dims": {"b": true}}}, {"name": "gen/A/blayer2/res2/conv1/inorm/moments/SquaredDifference", "op": "SquaredDifference", "input": ["gen/A/blayer2/res2/conv1/Conv2D", "gen/A/blayer2/res2/conv1/inorm/moments/mean"], "attr": {"T": {"type": "DT_FLOAT"}}}, {"name": "gen/A/blayer2/res2/conv1/inorm/moments/variance", "op": "Mean", "input": ["gen/A/blayer2/res2/conv1/inorm/moments/SquaredDifference", "gen/A/conv1/inorm/moments/mean/reduction_indices"], "attr": {"Tidx": {"type": "DT_INT32"}, "keep_dims": {"b": true}, "T": {"type": "DT_FLOAT"}}}, {"name": "gen/A/blayer2/res2/conv1/inorm/output/add", "op": "AddV2", "input": ["gen/A/blayer2/res2/conv1/inorm/moments/variance", "gen/A/conv1/inorm/output/add/y"], "attr": {"T": {"type": "DT_FLOAT"}}}, {"name": "gen/A/blayer2/res2/conv1/inorm/output/Rsqrt", "op": "Rsqrt", "input": ["gen/A/blayer2/res2/conv1/inorm/output/add"], "attr": {"T": {"type": "DT_FLOAT"}}}, {"name": "gen/A/blayer2/res2/conv1/inorm/output/mul", "op": "Mul", "input": ["gen/A/blayer2/res2/conv1/inorm/Reshape_1", "gen/A/blayer2/res2/conv1/inorm/output/Rsqrt"], "attr": {"T": {"type": "DT_FLOAT"}}}, {"name": "gen/A/blayer2/res2/conv1/inorm/output/mul_2", "op": "Mul", "input": ["gen/A/blayer2/res2/conv1/inorm/moments/mean", "gen/A/blayer2/res2/conv1/inorm/output/mul"], "attr": {"T": {"type": "DT_FLOAT"}}}, {"name": "gen/A/blayer2/res2/conv1/inorm/output/mul_1", "op": "Mul", "input": ["gen/A/blayer2/res2/conv1/Conv2D", "gen/A/blayer2/res2/conv1/inorm/output/mul"], "attr": {"T": {"type": "DT_FLOAT"}}}, {"name": "gen/A/blayer2/res2/conv1/inorm/output/sub", "op": "Sub", "input": ["gen/A/blayer2/res2/conv1/inorm/Reshape", "gen/A/blayer2/res2/conv1/inorm/output/mul_2"], "attr": {"T": {"type": "DT_FLOAT"}}}, {"name": "gen/A/blayer2/res2/conv1/inorm/output/add_1", "op": "AddV2", "input": ["gen/A/blayer2/res2/conv1/inorm/output/mul_1", "gen/A/blayer2/res2/conv1/inorm/output/sub"], "attr": {"T": {"type": "DT_FLOAT"}}}, {"name": "gen/A/blayer2/res2/conv1/Relu", "op": "Relu", "input": ["gen/A/blayer2/res2/conv1/inorm/output/add_1"], "attr": {"T": {"type": "DT_FLOAT"}}}, {"name": "gen/A/blayer2/res2/concat", "op": "ConcatV2", "input": ["gen/A/blayer2/res2/conv1/Relu", "gen/A/blayer2/res1/conv2/Relu", "gen/A/layer1/res0/concat/axis"], "attr": {"Tidx": {"type": "DT_INT32"}, "T": {"type": "DT_FLOAT"}, "N": {"i": "2"}}}, {"name": "gen/A/blayer2/res2/conv2/Conv2D", "op": "Conv2D", "input"…
": {"type": "DT_FLOAT"}}}, {"name": "gen/A/deconv1/inorm/output/sub", "op": "Sub", "input": ["gen/A/deconv1/inorm/Reshape", "gen/A/deconv1/inorm/output/mul_2"], "attr": {"T": {"type": "DT_FLOAT"}}}, {"name": "gen/A/deconv1/inorm/output/add_1", "op": "AddV2", "input": ["gen/A/deconv1/inorm/output/mul_1", "gen/A/deconv1/inorm/output/sub"], "attr": {"T": {"type": "DT_FLOAT"}}}, {"name": "gen/A/deconv1/Relu", "op": "Relu", "input": ["gen/A/deconv1/inorm/output/add_1"], "attr": {"T": {"type": "DT_FLOAT"}}}, {"name": "gen/A/concat_1", "op": "ConcatV2", "input": ["gen/A/deconv1/Relu", "gen/A/layer1/res2/conv2/Relu", "gen/A/layer1/res0/concat/axis"], "attr": {"Tidx": {"type": "DT_INT32"}, "N": {"i": "2"}, "T": {"type": "DT_FLOAT"}}}, {"name": "gen/A/blayer1/res0/conv0/Conv2D", "op": "Conv2D", "input": ["gen/A/concat_1", "gen/A/blayer1/res0/conv0/W"], "device": "/device:CPU:0", "attr": {"data_format": {"s": "TkhXQw=="}, "padding": {"s": "U0FNRQ=="}, "dilations": {"list": {"i": ["1", "1", "1", "1"]}}, "use_cudnn_on_gpu": {"b": true}, "explicit_paddings": {"list": {}}, "strides": {"list": {"i": ["1", "1", "1", "1"]}}, "T": {"type": "DT_FLOAT"}}}, {"name": "gen/A/blayer1/res0/conv0/inorm/moments/mean", "op": "Mean", "input": ["gen/A/blayer1/res0/conv0/Conv2D", "gen/A/conv1/inorm/moments/mean/reduction_indices"], "attr": {"Tidx": {"type": "DT_INT32"}, "keep_dims": {"b": true}, "T": {"type": "DT_FLOAT"}}}, {"name": "gen/A/blayer1/res0/conv0/inorm/moments/SquaredDifference", "op": "SquaredDifference", "input": ["gen/A/blayer1/res0/conv0/Conv2D", "gen/A/blayer1/res0/conv0/inorm/moments/mean"], "attr": {"T": {"type": "DT_FLOAT"}}}, {"name": "gen/A/blayer1/res0/conv0/inorm/moments/variance", "op": "Mean", "input": ["gen/A/blayer1/res0/conv0/inorm/moments/SquaredDifference", "gen/A/conv1/inorm/moments/mean/reduction_indices"], "attr": {"Tidx": {"type": "DT_INT32"}, "keep_dims": {"b": true}, "T": {"type": "DT_FLOAT"}}}, {"name": "gen/A/blayer1/res0/conv0/inorm/output/add", "op": "AddV2", "input": ["gen/A/blayer1/res0/conv0/inorm/moments/variance", "gen/A/conv1/inorm/output/add/y"], "attr": {"T": {"type": "DT_FLOAT"}}}, {"name": "gen/A/blayer1/res0/conv0/inorm/output/Rsqrt", "op": "Rsqrt", "input": ["gen/A/blayer1/res0/conv0/inorm/output/add"], "attr": {"T": {"type": "DT_FLOAT"}}}, {"name": "gen/A/blayer1/res0/conv0/inorm/output/mul", "op": "Mul", "input": ["gen/A/blayer1/res0/conv0/inorm/Reshape_1", "gen/A/blayer1/res0/conv0/inorm/output/Rsqrt"], "attr": {"T": {"type": "DT_FLOAT"}}}, {"name": "gen/A/blayer1/res0/conv0/inorm/output/mul_2", "op": "Mul", "input": ["gen/A/blayer1/res0/conv0/inorm/moments/mean", "gen/A/blayer1/res0/conv0/inorm/output/mul"], "attr": {"T": {"type": "DT_FLOAT"}}}, {"name": "gen/A/blayer1/res0/conv0/inorm/output/mul_1", "op": "Mul", "input": ["gen/A/blayer1/res0/conv0/Conv2D", "gen/A/blayer1/res0/conv0/inorm/output/mul"], "attr": {"T": {"type": "DT_FLOAT"}}}, {"name": "gen/A/blayer1/res0/conv0/inorm/output/sub", "op": "Sub", "input": ["gen/A/blayer1/res0/conv0/inorm/Reshape", "gen/A/blayer1/res0/conv0/inorm/output/mul_2"], "attr": {"T": {"type": "DT_FLOAT"}}}, {"name": "gen/A/blayer1/res0/conv0/inorm/output/add_1", "op": "AddV2", "input": ["gen/A/blayer1/res0/conv0/inorm/output/mul_1", "gen/A/blayer1/res0/conv0/inorm/output/sub"], "attr": {"T": {"type": "DT_FLOAT"}}}, {"name": "gen/A/blayer1/res0/conv0/Relu", "op": "Relu", "input": ["gen/A/blayer1/res0/conv0/inorm/output/add_1"], "attr": {"T": {"type": "DT_FLOAT"}}}, {"name": "gen/A/blayer1/res0/conv1/Conv2D", "op": "Conv2D", "input": ["gen/A/blayer1/res0/conv0/Relu", "gen/A/blayer1/res0/conv1/W"], "device": "/device:CPU:0", "attr": {"data_format": {"s": "TkhXQw=="}, "padding": {"s": "U0FNRQ=="}, "dilations": {"list": {"i": ["1", "1", "1", "1"]}}, "explicit_paddings": {"list": {}}, "use_cudnn_on_gpu": {"b": true}, "strides": {"list": {"i": ["1", "1", "1", "1"]}}, "T": {"type": "DT_FLOAT"}}}, {"name": "gen/A/blayer1/res0/conv1/inorm/moments/mean", "op": "Mean", "input": ["gen/A/blayer1/res0/conv1/Conv2D", "gen/A/conv1/inorm/moments/mean/reduction_indices"], "attr": {"keep_dims": {"b": true}, "Tidx": {"type": "DT_INT32"}, "T": {"type": "DT_FLOAT"}}}, {"name": "gen/A/blayer1/res0/conv1/inorm/moments/SquaredDifference", "op": "SquaredDifference", "input": ["gen/A/blayer1/res0/conv1/Conv2D", "gen/A/blayer1/res0/conv1/inorm/moments/mean"], "attr": {"T": {"type": "DT_FLOAT"}}}, {"name": "gen/A/blayer1/res0/conv1/inorm/moments/variance", "op": "Mean", "input": ["gen/A/blayer1/res0/conv1/inorm/moments/SquaredDifference", "gen/A/conv1/inorm/moments/mean/reduction_indices"], "attr": {"Tidx": {"type": "DT_INT32"}, "keep_dims": {"b": true}, "T": {"type": "DT_FLOAT"}}}, {"name": "gen/A/blayer1/res0/conv1/inorm/output/add", "op": "AddV2", "input": ["gen/A/blayer1/res0/conv1/inorm/moments/variance", "gen/A/conv1/inorm/output/add/y"], "attr": {"T": {"type": "DT_FLOAT"}}}, {"name": "gen/A/blayer1/res0/conv1/inorm/output/Rsqrt", "op": "Rsqrt", "input": ["gen/A/blayer1/res0/conv1/inorm/output/add"], "attr": {"T": {"type": "DT_FLOAT"}}}, {"name": "gen/A/blayer1/res0/conv1/inorm/output/mul", "op": "Mul", "input": ["gen/A/blayer1/res0/conv1/inorm/Reshape_1", "gen/A/blayer1/res0/conv1/inorm/output/Rsqrt"], "attr": {"T": {"type": "DT_FLOAT"}}}, {"name": "gen/A/blayer1/res0/conv1/inorm/output/mul_2", "op": "Mul", "input": ["gen/A/blayer1/res0/conv1/inorm/moments/mean", "gen/A/blayer1/res0/conv1/inorm/output/mul"], "attr": {"T": {"type": "DT_FLOAT"}}}, {"name": "gen/A/blayer1/res0/conv1/inorm/output/mul_1", "op": "Mul", "input": ["gen/A/blayer1/res0/conv1/Conv2D", "gen/A/blayer1/res0/conv1/inorm/output/mul"], "attr": {"T": {"type": "DT_FLOAT"}}}, {"name": "gen/A/blayer1/res0/conv1/inorm/output/sub", "op": "Sub", "input": ["gen/A/blayer1/res0/conv1/inorm/Reshape", "gen/A/blayer1/res0/conv1/inorm/output/mul_2"], "attr": {"T": {"type": "DT_FLOAT"}}}, {"name": "gen/A/blayer1/res0/conv1/inorm/output/add_1", "op": "AddV2", "input": ["gen/A/blayer1/res0/conv1/inorm/output/mul_1", "gen/A/blayer1/res0/conv1/inorm/output/sub"], "attr": {"T": {"type": "DT_FLOAT"}}}, {"name": "gen/A/blayer1/res0/conv1/Relu", "op": "Relu", "input": ["gen/A/blayer1/res0/conv1/inorm/output/add_1"], "attr": {"T": {"type": "DT_FLOAT"}}}, {"name": "gen/A/blayer1/res0/concat", "op": "ConcatV2", "input": ["gen/A/blayer1/res0/conv1/Relu", "gen/A/concat_1", "gen/A/layer1/res0/concat/axis"], "attr": {"T": {"type": "DT_FLOAT"}, "N": {"i": "2"}, "Tidx": {"type": "DT_INT32"}}}, {"name": "gen/A/blayer1/res0/conv2/Conv2D", "op": "Conv2D", "input": ["gen/A/blayer1/res0/concat", "gen/A/blayer1/res0/conv2/W"], "device": "/device:CPU:0", "attr": {"data_format": {"s": "TkhXQw=="}, "dilations": {"list": {"i": ["1", "1", "1", "1"]}}, "T": {"type": "DT_FLOAT"}, "use_cudnn_on_gpu": {"b": true}, "explicit_paddings": {"list": {}}, "strides": {"list": {"i": ["1", "1", "1", "1"]}}, "padding": {"s": "U0FNRQ=="}}}, {"name": "gen/A/blayer1/res0/conv2/inorm/moments/mean", "op": "Mean", "input": ["gen/A/blayer1/res0/conv2/Conv2D", "gen/A/conv1/inorm/moments/mean/reduction_indices"], "attr": {"T": {"type": "DT_FLOAT"}, "Tidx": {"type": "DT_INT32"}, "keep_dims": {"b": true}}}, {"name": "gen/A/blayer1/res0/conv2/inorm/moments/SquaredDifference", "op": "SquaredDifference", "input": ["gen/A/blayer1/res0/conv2/Conv2D", "gen/A/blayer1/res0/conv2/inorm/moments/mean"], "attr": {"T": {"type": "DT_FLOAT"}}}, {"name": "gen/A/blayer1/res0/conv2/inorm/moments/variance", "op": "Mean", "input": ["gen/A/blayer1/res0/conv2/inorm/moments/SquaredDifference", "gen/A/conv1/inorm/moments/mean/reduction_indices"], "attr": {"T": {"type": "DT_FLOAT"}, "keep_dims": {"b": true}, "Tidx": {"type": "DT_INT32"}}}, {"name": "gen/A/blayer1/res0/conv2/inorm/output/add", "op": "AddV2", "input": ["gen/A/blayer1/res0/conv2/inorm/moments/variance", "gen/A/conv1/inorm/output/add/y"], "attr": {"T": {"type": "DT_FLOAT"}}}, {"name": "gen/A/blayer1/res0/conv2/inorm/output/Rsqrt", "op": "Rsqrt", "input": ["gen/A/blayer1/res0/conv2/inorm/output/add"], "attr": {"T": {"type": "DT_FLOAT"}}}, {"name": "gen/A/blayer1/res0/conv2/inorm/output/mul", "op": "Mul", "input": ["gen/A/blayer1/res0/conv2/inorm/Reshape_1", "gen/A/blayer1/res0/conv2/inorm/output/Rsqrt"], "attr": {"T": {"type": "DT_FLOAT"}}}, {"name": "gen/A/blayer1/res0/conv2/inorm/output/mul_2", "op": "Mul", "input": ["gen/A/blayer1/res0/conv2/inorm/moments/mean", "gen/A/blayer1/res0/conv2/inorm/output/mul"], "attr": {"T": {"type": "DT_FLOAT"}}}, {"name": "gen/A/blayer1/res0/conv2/inorm/output/mul_1", "op": "Mul", "input": ["gen/A/blayer1/res0/conv2/Conv2D", "gen/A/blayer1/res0/conv2/inorm/output/mul"], "attr": {"T": {"type": "DT_FLOAT"}}}, {"name": "gen/A/blayer1/res0/conv2/inorm/output/sub", "op": "Sub", "input": ["gen/A/blayer1/res0/conv2/inorm/Reshape", "gen/A/blayer1/res0/conv2/inorm/output/mul_2"], "attr": {"T": {"type": "DT_FLOAT"}}}, {"name": "gen/A/blayer1/res0/conv2/inorm/output/add_1", "op": "AddV2", "input": ["gen/A/blayer1/res0/conv2/inorm/output/mul_1", "gen/A/blayer1/res0/conv2/inorm/output/sub"], "attr": {"T": {"type": "DT_FLOAT"}}}, {"name": "gen/A/blayer1/res0/conv2/Relu", "op": "Relu", "input": ["gen/A/blayer1/res0/conv2/inorm/output/add_1"], "attr": {"T": {"type": "DT_FLOAT"}}}, {"name": "gen/A/blayer1/res1/conv0/Conv2D", "op": "Conv2D", "input": ["gen/A/blayer1/res0/conv2/Relu", "gen/A/blayer1/res1/conv0/W"], "device": "/device:CPU:0", "attr": {"dilations": {"list": {"i": ["1", "1", "1", "1"]}}, "data_format": {"s": "TkhXQw=="}, "padding": {"s": "U0FNRQ=="}, "explicit_paddings": {"list": {}}, "T": {"type": "DT_FLOAT"}, "strides": {"list": {"i": ["1", "1", "1", "1"]}}, "use_cudnn_on_gpu": {"b": true}}}, {"name": "gen/A/blayer1/res1/conv0/inorm/moments/mean", "op": "Mean", "input": ["gen/A/blayer1/res1/conv0/Conv2D", "gen/A/conv1/inorm/moments/mean/reduction_indices"], "attr": {"T": {"type": "DT_FLOAT"}, "Tidx": {"type": "DT_INT32"}, "keep_dims": {"b": true}}}, {"name": "gen/A/blayer1/res1/conv0/inorm/moments/SquaredDifference", "op": "SquaredDifference", "input": ["gen/A/blayer1/res1/conv0/Conv2D", "gen/A/blayer1/res1/conv0/inorm/moments/mean"], "attr": {"T": {"type": "DT_FLOAT"}}}, {"name": "gen/A/blayer1/res1/conv0/inorm/moments/variance", "op": "Mean", "input": ["gen/A/blayer1/res1/conv0/inorm/moments/SquaredDifference", "gen/A/conv1/inorm/moments/mean/reduction_indices"], "attr": {"T": {"type": "DT_FLOAT"}, "keep_dims": {"b": true}, "Tidx": {"type": "DT_INT32"}}}, {"name": "gen/A/blayer1/res1/conv0/inorm/output/add", "op": "AddV2", "input": ["gen/A/blayer1/res1/conv0/inorm/moments/variance", "gen/A/conv1/inorm/output/add/y"], "attr": {"T": {"type": "DT_FLOAT"}}}, {"name": "gen/A/blayer1/res1/conv0/inorm/output/Rsqrt", "op": "Rsqrt", "input": ["gen/A/blayer1/res1/conv0/inorm/output/add"], "attr": {"T": {"type": "DT_FLOAT"}}}, {"name": "gen/A/blayer1/res1/conv0/inorm/output/mul", "op": "Mul", "input": ["gen/A/blayer1/res1/conv0/inorm/Reshape_1", "gen/A/blayer1/res1/conv0/inorm/output/Rsqrt"], "attr": {"T": {"type": "DT_FLOAT"}}}, {"name": "gen/A/blayer1/res1/conv0/inorm/output/mul_2", "op": "Mul", "input": ["gen/A/blayer1/res1/conv0/inorm/moments/mean", "gen/A/blayer1/res1/conv0/inorm/output/mul"], "attr": {"T": {"type": "DT_FLOAT"}}}, {"name": "gen/A/blayer1/res1/conv0/inorm/output/mul_1", "op": "Mul", "input": ["gen/A/blayer1/res1/conv0/Conv2D", "gen/A/blayer1/res1/conv0/inorm/output/mul"], "attr": {"T": {"type": "DT_FLOAT"}}}, {"name": "gen/A/blayer1/res1/conv0/inorm/output/sub", "op": "Sub", "input": ["gen/A/blayer1/res1/conv0/inorm/Reshape", "gen/A/blayer1/res1/conv0/inorm/output/mul_2"], "attr": {"T": {"type": "DT_FLOAT"}}}, {"name": "gen/A/blayer1/res1/conv0/inorm/output/add_1", "op": "AddV2", "input": ["gen/A/blayer1/res1/conv0/inorm/output/mul_1", "gen/A/blayer1/res1/conv0/inorm/output/sub"], "attr": {"T": {"type": "DT_FLOAT"}}}, {"name": "gen/A/blayer1/res1/conv0/Relu", "op": "Relu", "input": ["gen/A/blayer1/res1/conv0/inorm/output/add_1"], "attr": {"T": {"type": "DT_FLOAT"}}}, {"name": "gen/A/blayer1/res1/conv1/Conv2D", "op": "Conv2D", "input": ["gen/A/blayer1/res1/conv0/Relu", "gen/A/blayer1/res1/conv1/W"], "device": "/device:CPU:0", "attr": {"data_format": {"s": "TkhXQw=="}, "dilations": {"list": {"i": ["1", "1", "1", "1"]}}, "T": {"type": "DT_FLOAT"}, "use_cudnn_on_gpu": {"b": true}, "explicit_paddings": {"list": {}}, "strides": {"list": {"i": ["1", "1", "1", "1"]}}, "padding": {"s": "U0FNRQ=="}}}, {"name": "gen/A/blayer1/res1/conv1/inorm/moments/mean", "op": "Mean", "input": ["gen/A/blayer1/res1/conv1/Conv2D", "gen/A/conv1/inorm/moments/mean/reduction_indices"], "attr": {"T": {"type": "DT_FLOAT"}, "keep_dims": {"b": true}, "Tidx": {"type": "DT_INT32"}}}, {"name": "gen/A/blayer1/res1/conv1/inorm/moments/SquaredDifference", "op": "SquaredDifference", "input": ["gen/A/blayer1/res1/conv1/Conv2D", "gen/A/blayer1/res1/conv1/inorm/moments/mean"], "attr": {"T": {"type": "DT_FLOAT"}}}, {"name": "gen/A/blayer1/res1/conv1/inorm/moments/variance", "op": "Mean", "input": ["gen/A/blayer1/res1/conv1/inorm/moments/SquaredDifference", "gen/A/conv1/inorm/moments/mean/reduction_indices"], "attr": {"T": {"type": "DT_FLOAT"}, "keep_dims": {"b": true}, "Tidx": {"type": "DT_INT32"}}}, {"name": "gen/A/blayer1/res1/conv1/inorm/output/add", "op": "AddV2", "input": ["gen/A/blayer1/res1/conv1/inorm/moments/variance", "gen/A/conv1/inorm/output/add/y"], "attr": {"T": {"type": "DT_FLOAT"}}}, {"name": "gen/A/blayer1/res1/conv1/inorm/output/Rsqrt", "op": "Rsqrt", "input": ["gen/A/blayer1/res1/conv1/inorm/output/add"], "attr": {"T": {"type": "DT_FLOAT"}}}, {"name": "gen/A/blayer1/res1/conv1/inorm/output/mul", "op": "Mul", "input": ["gen/A/blayer1/res1/conv1/inorm/Reshape_1", "gen/A/blayer1/res1/conv1/inorm/output/Rsqrt"], "attr": {"T": {"type": "DT_FLOAT"}}}, {"name": "gen/A/blayer1/res1/conv1/inorm/output/mul_2", "op": "Mul", "input": ["gen/A/blayer1/res1/conv1/inorm/moments/mean", "gen/A/blayer1/res1/conv1/inorm/output/mul"], "attr": {"T": {"type": "DT_FLOAT"}}}, {"name": "gen/A/blayer1/res1/conv1/inorm/output/mul_1", "op": "Mul", "input": ["gen/A/blayer1/res1/conv1/Conv2D", "gen/A/blayer1/res1/conv1/inorm/output/mul"], "attr": {"T": {"type": "DT_FLOAT"}}}, {"name": "gen/A/blayer1/res1/conv1/inorm/output/sub", "op": "Sub", "input": ["gen/A/blayer1/res1/conv1/inorm/Reshape", "gen/A/blayer1/res1/conv1/inorm/output/mul_2"], "attr": {"T": {"type": "DT_FLOAT"}}}, {"name": "gen/A/blayer1/res1/conv1/inorm/output/add_1", "op": "AddV2", "input": ["gen/A/blayer1/res1/conv1/inorm/output/mul_1", "gen/A/blayer1/res1/conv1/inorm/output/sub"], "attr": {"T": {"type": "DT_FLOAT"}}}, {"name": "gen/A/blayer1/res1/conv1/Relu", "op": "Relu", "input": ["gen/A/blayer1/res1/conv1/inorm/output/add_1"], "attr": {"T": {"type": "DT_FLOAT"}}}, {"name": "gen/A/blayer1/res1/concat", "op": "ConcatV2", "input": ["gen/A/blayer1/res1/conv1/Relu", "gen/A/blayer1/res0/conv2/Relu", "gen/A/layer1/res0/concat/axis"], "attr": {"T": {"type": "DT_FLOAT"}, "N": {"i": "2"}, "Tidx": {"type": "DT_INT32"}}}, {"name": "gen/A/blayer1/res1/conv2/Conv2D", "op": "Conv2D", "input": ["gen/A/blayer1/res1/concat", "gen/A/blayer1/res1/conv2/W"], "device": "/device:CPU:0", "attr": {"data_format": {"s": "TkhXQw=="}, "dilations": {"list": {"i": ["1", "1", "1", "1"]}}, "T": {"type": "DT_FLOAT"}, "explicit_paddings": {"list": {}}, "use_cudnn_on_gpu": {"b": true}, "strides": {"list": {"i": ["1", "1", "1", "1"]}}, "padding": {"s": "U0FNRQ=="}}}, {"name": "gen/A/blayer1/res1/conv2/inorm/moments/mean", "op": "Mean", "input": ["gen/A/blayer1/res1/conv2/Conv2D", "gen/A/conv1/inorm/moments/mean/reduction_indices"], "attr": {"T": {"type": "DT_FLOAT"}, "Tidx": {"type": "DT_INT32"}, "keep_dims": {"b": true}}}, {"name": "gen/A/blayer1/res1/conv2/inorm/moments/SquaredDifference", "op": "SquaredDifference", "input": ["gen/A/blayer1/res1/conv2/Conv2D", "gen/A/blayer1/res1/conv2/inorm/moments/mean"], "attr": {"T": {"type": "DT_FLOAT"}}}, {"name": "gen/A/blayer1/res1/conv2/inorm/moments/variance", "op": "Mean", "input": ["gen/A/blayer1/res1/conv2/inorm/moments/SquaredDifference", "gen/A/conv1/inorm/moments/mean/reduction_indices"], "attr": {"T": {"type": "DT_FLOAT"}, "Tidx": {"type": "DT_INT32"}, "keep_dims": {"b": true}}}, {"name": "gen/A/blayer1/res1/conv2/inorm/output/add", "op": "AddV2", "input": ["gen/A/blayer1/res1/conv2/inorm/moments/variance", "gen/A/conv1/inorm/output/add/y"], "attr": {"T": {"type": "DT_FLOAT"}}}, {"name": "gen/A/blayer1/res1/conv2/inorm/output/Rsqrt", "op": "Rsqrt", "input": ["gen/A/blayer1/res1/conv2/inorm/output/add"], "attr": {"T": {"type": "DT_FLOAT"}}}, {"name": "gen/A/blayer1/res1/conv2/inorm/output/mul", "op": "Mul", "input": ["gen/A/blayer1/res1/conv2/inorm/Reshape_1", "gen/A/blayer1/res1/conv2/inorm/output/Rsqrt"], "attr": {"T": {"type": "DT_FLOAT"}}}, {"name": "gen/A/blayer1/res1/conv2/inorm/output/mul_2", "op": "Mul", "input": ["gen/A/blayer1/res1/conv2/inorm/moments/mean", "gen/A/blayer1/res1/conv2/inorm/output/mul"], "attr": {"T": {"type": "DT_FLOAT"}}}, {"name": "gen/A/blayer1/res1/conv2/inorm/output/mul_1", "op": "Mul", "input": ["gen/A/blayer1/res1/conv2/Conv2D", "gen/A/blayer1/res1/conv2/inorm/output/mul"], "attr": {"T": {"type": "DT_FLOAT"}}}, {"name": "gen/A/blayer1/res1/conv2/inorm/output/sub", "op": "Sub", "input": ["gen/A/blayer1/res1/conv2/inorm/Reshape", "gen/A/blayer1/res1/conv2/inorm/output/mul_2"], "attr": {"T": {"type": "DT_FLOAT"}}}, {"name": "gen/A/blayer1/res1/conv2/inorm/output/add_1", "op": "AddV2", "input": ["gen/A/blayer1/res1/conv2/inorm/output/mul_1", "gen/A/blayer1/res1/conv2/inorm/output/sub"], "attr": {"T": {"type": "DT_FLOAT"}}}, {"name": "gen/A/blayer1/res1/conv2/Relu", "op": "Relu", "input": ["gen/A/blayer1/res1/conv2/inorm/output/add_1"], "attr": {"T": {"type": "DT_FLOAT"}}}, {"name": "gen/A/blayer1/res2/conv0/Conv2D", "op": "Conv2D", "input": ["gen/A/blayer1/res1/conv2/Relu", "gen/A/blayer1/res2/conv0/W"], "device": "/device:CPU:0", "attr": {"dilations": {"list": {"i": ["1", "1", "1", "1"]}}, "data_format": {"s": "TkhXQw=="}, "padding": {"s": "U0FNRQ=="}, "use_cudnn_on_gpu": {"b": true}, "T": {"type": "DT_FLOAT"}, "strides": {"list": {"i": ["1", "1", "1", "1"]}}, "explicit_paddings": {"list": {}}}}, {"name": "gen/A/blayer1/res2/conv0/inorm/moments/mean", "op": "Mean", "input": ["gen/A/blayer1/res2/conv0/Conv2D", "gen/A/conv1/inorm/moments/mean/reduction_indices"], "attr": {"T": {"type": "DT_FLOAT"}, "keep_dims": {"b": true}, "Tidx": {"type": "DT_INT32"}}}, {"name": "gen/A/blayer1/res2/conv0/inorm/moments/SquaredDifference", "op": "SquaredDifference", "input": ["gen/A/blayer1/res2/conv0/Conv2D", "gen/A/blayer1/res2/conv0/inorm/moments/mean"], "attr": {"T": {"type": "DT_FLOAT"}}}, {"name": "gen/A/blayer1/res2/conv0/inorm/moments/variance", "op": "Mean", "input": ["gen/A/blayer1/res2/conv0/inorm/moments/SquaredDifference", "gen/A/conv1/inorm/moments/mean/reduction_indices"], "attr": {"T": {"type": "DT_FLOAT"}, "keep_dims": {"b": true}, "Tidx": {"type": "DT_INT32"}}}, {"name": "gen/A/blayer1/res2/conv0/inorm/output/add", "op": "AddV2", "input": ["gen/A/blayer1/res2/conv0/inorm/moments/variance", "gen/A/conv1/inorm/output/add/y"], "attr": {"T": {"type": "DT_FLOAT"}}}, {"name": "gen/A/blayer1/res2/conv0/inorm/output/Rsqrt", "op": "Rsqrt", "input": ["gen/A/blayer1/res2/conv0/inorm/output/add"], "attr": {"T": {"type": "DT_FLOAT"}}}, {"name": "gen/A/blayer1/res2/conv0/inorm/output/mul", "op": "Mul", "input": ["gen/A/blayer1/res2/conv0/inorm/Reshape_1", "gen/A/blayer1/res2/conv0/inorm/output/Rsqrt"], "attr": {"T": {"type": "DT_FLOAT"}}}, {"name": "gen/A/blayer1/res2/conv0/inorm/output/mul_2", "op": "Mul", "input": ["gen/A/blayer1/res2/conv0/inorm/moments/mean", "gen/A/blayer1/res2/conv0/inorm/output/mul"], "attr": {"T": {"type": "DT_FLOAT"}}}, {"name": "gen/A/blayer1/res2/conv0/inorm/output/mul_1", "op": "Mul", "input": ["gen/A/blayer1/res2/conv0/Conv2D", "gen/A/blayer1/res2/conv0/inorm/output/mul"], "attr": {"T": {"type": "DT_FLOAT"}}}, {"name": "gen/A/blayer1/res2/conv0/inorm/output/sub", "op": "Sub", "input": ["gen/A/blayer1/res2/conv0/inorm/Reshape", "gen/A/blayer1/res2/conv0/inorm/output/mul_2"], "attr": {"T": {"type": "DT_FLOAT"}}}, {"name": "gen/A/blayer1/res2/conv0/inorm/output/add_1", "op": "AddV2", "input": ["gen/A/blayer1/res2/conv0/inorm/output/mul_1", "gen/A/blayer1/res2/conv0/inorm/output/sub"], "attr": {"T": {"type": "DT_FLOAT"}}}, {"name": "gen/A/blayer1/res2/conv0/Relu", "op": "Relu", "input": ["gen/A/blayer1/res2/conv0/inorm/output/add_1"], "attr": {"T": {"type": "DT_FLOAT"}}}, {"name": "gen/A/blayer1/res2/conv1/Conv2D", "op": "Conv2D", "input": ["gen/A/blayer1/res2/conv0/Relu", "gen/A/blayer1/res2/conv1/W"], "device": "/device:CPU:0", "attr": {"T": {"type": "DT_FLOAT"}, "use_cudnn_on_gpu": {"b": true}, "explicit_paddings": {"list": {}}, "padding": {"s": "U0FNRQ=="}, "strides": {"list": {"i": ["1", "1", "1", "1"]}}, "data_format": {"s": "TkhXQw=="}, "dilations": {"list": {"i": ["1", "1", "1", "1"]}}}}, {"name": "gen/A/blayer1/res2/conv1/inorm/moments/mean", "op": "Mean", "input": ["gen/A/blayer1/res2/conv1/Conv2D", "gen/A/conv1/inorm/moments/mean/reduction_indices"], "attr": {"T": {"type": "DT_FLOAT"}, "keep_dims": {"b": true}, "Tidx": {"type": "DT_INT32"}}}, {"name": "gen/A/blayer1/res2/conv1/inorm/moments/SquaredDifference", "op": "SquaredDifference", "input": ["gen/A/blayer1/res2/conv1/Conv2D", "gen/A/blayer1/res2/conv1/inorm/moments/mean"], "attr": {"T": {"type": "DT_FLOAT"}}}, {"name": "gen/A/blayer1/res2/conv1/inorm/moments/variance", "op": "Mean", "input": ["gen/A/blayer1/res2/conv1/inorm/moments/SquaredDifference", "gen/A/conv1/inorm/moments/mean/reduction_indices"], "attr": {"keep_dims": {"b": true}, "Tidx": {"type": "DT_INT32"}, "T": {"type": "DT_FLOAT"}}}, {"name": "gen/A/blayer1/res2/conv1/inorm/output/add", "op": "AddV2", "input": ["gen/A/blayer1/res2/conv1/inorm/moments/variance", "gen/A/conv1/inorm/output/add/y"], "attr": {"T": {"type": "DT_FLOAT"}}}, {"name": "gen/A/blayer1/res2/conv1/inorm/output/Rsqrt", "op": "Rsqrt", "input": ["gen/A/blayer1/res2/conv1/inorm/output/add"], "attr": {"T": {"type": "DT_FLOAT"}}}, {"name": "gen/A/blayer1/res2/conv1/inorm/output/mul", "op": "Mul", "input": ["gen/A/blayer1/res2/conv1/inorm/Reshape_1", "gen/A/blayer1/res2/conv1/inorm/output/Rsqrt"], "attr": {"T": {"type": "DT_FLOAT"}}}, {"name": "gen/A/blayer1/res2/conv1/inorm/output/mul_2", "op": "Mul", "input": ["gen/A/blayer1/res2/conv1/inorm/moments/mean", "gen/A/blayer1/res2/conv1/inorm/output/mul"], "attr": {"T": {"type": "DT_FLOAT"}}}, {"name": "gen/A/blayer1/res2/conv1/inorm/output/mul_1", "op": "Mul", "input": ["gen/A/blayer1/res2/conv1/Conv2D", "gen/A/blayer1/res2/conv1/inorm/output/mul"], "attr": {"T": {"type": "DT_FLOAT"}}}, {"name": "gen/A/blayer1/res2/conv1/inorm/output/sub", "op": "Sub", "input": ["gen/A/blayer1/res2/conv1/inorm/Reshape", "gen/A/blayer1/res2/conv1/inorm/output/mul_2"], "attr": {"T": {"type": "DT_FLOAT"}}}, {"name": "gen/A/blayer1/res2/conv1/inorm/output/add_1", "op": "AddV2", "input": ["gen/A/blayer1/res2/conv1/inorm/output/mul_1", "gen/A/blayer1/res2/conv1/inorm/output/sub"], "attr": {"T": {"type": "DT_FLOAT"}}}, {"name": "gen/A/blayer1/res2/conv1/Relu", "op": "Relu", "input": ["gen/A/blayer1/res2/conv1/inorm/output/add_1"], "attr": {"T": {"type": "DT_FLOAT"}}}, {"name": "gen/A/blayer1/res2/concat", "op": "ConcatV2", "input": ["gen/A/blayer1/res2/conv1/Relu", "gen/A/blayer1/res1/conv2/Relu", "gen/A/layer1/res0/concat/axis"], "attr": {"Tidx": {"type": "DT_INT32"}, "N": {"i": "2"}, "T": {"type": "DT_FLOAT"}}}, {"name": "gen/A/blayer1/res2/conv2/Conv2D", "op": "Conv2D", "input": ["gen/A/blayer1/res2/concat", "gen/A/blayer1/res2/conv2/W"], "device": "/device:CPU:0", "attr": {"T": {"type": "DT_FLOAT"}, "use_cudnn_on_gpu": {"b": true}, "explicit_paddings": {"list": {}}, "padding": {"s": "U0FNRQ=="}, "strides": {"list": {"i": ["1", "1", "1", "1"]}}, "data_format": {"s": "TkhXQw=="}, "dilations": {"list": {"i": ["1", "1", "1", "1"]}}}}, {"name": "gen/A/blayer1/res2/conv2/inorm/moments/mean", "op": "Mean", "input": ["gen/A/blayer1/res2/conv2/Conv2D", "gen/A/conv1/inorm/moments/mean/reduction_indices"], "attr": {"Tidx": {"type": "DT_INT32"}, "keep_dims": {"b": true}, "T": {"type": "DT_FLOAT"}}}, {"name": "gen/A/blayer1/res2/conv2/inorm/moments/SquaredDifference", "op": "SquaredDifference", "input": ["gen/A/blayer1/res2/conv2/Conv2D", "gen/A/blayer1/res2/conv2/inorm/moments/mean"], "attr": {"T": {"type": "DT_FLOAT"}}}, {"name": "gen/A/blayer1/res2/conv2/inorm/moments/variance", "op": "Mean", "input": ["gen/A/blayer1/res2/conv2/inorm/moments/SquaredDifference", "gen/A/conv1/inorm/moments/mean/reduction_indices"], "attr": {"keep_dims": {"b": true}, "Tidx": {"type": "DT_INT32"}, "T": {"type": "DT_FLOAT"}}}, {"name": "gen/A/blayer1/res2/conv2/inorm/output/add", "op": "AddV2", "input": ["gen/A/blayer1/res2/conv2/inorm/moments/variance", "gen/A/conv1/inorm/output/add/y"], "attr": {"T": {"type": "DT_FLOAT"}}}, {"name": "gen/A/blayer1/res2/conv2/inorm/output/Rsqrt", "op": "Rsqrt", "input": ["gen/A/blayer1/res2/conv2/inorm/output/add"], "attr": {"T": {"type": "DT_FLOAT"}}}, {"name": "gen/A/blayer1/res2/conv2/inorm/output/mul", "op": "Mul", "input": ["gen/A/blayer1/res2/conv2/inorm/Reshape_1", "gen/A/blayer1/res2/conv2/inorm/output/Rsqrt"], "attr": {"T": {"type": "DT_FLOAT"}}}, {"name": "gen/A/blayer1/res2/conv2/inorm/output/mul_2", "op": "Mul", "input": ["gen/A/blayer1/res2/conv2/inorm/moments/mean", "gen/A/blayer1/res2/conv2/inorm/output/mul"], "attr": {"T": {"type": "DT_FLOAT"}}}, {"name": "gen/A/blayer1/res2/conv2/inorm/output/mul_1", "op": "Mul", "input": ["gen/A/blayer1/res2/conv2/Conv2D", "gen/A/blayer1/res2/conv2/inorm/output/mul"], "attr": {"T": {"type": "DT_FLOAT"}}}, {"name": "gen/A/blayer1/res2/conv2/inorm/output/sub", "op": "Sub", "input": ["gen/A/blayer1/res2/conv2/inorm/Reshape", "gen/A/blayer1/res2/conv2/inorm/output/mul_2"], "attr": {"T": {"type": "DT_FLOAT"}}}, {"name": "gen/A/blayer1/res2/conv2/inorm/output/add_1", "op": "AddV2", "input": ["gen/A/blayer1/res2/conv2/inorm/output/mul_1", "gen/A/blayer1/res2/conv2/inorm/output/sub"], "attr": {"T": {"type": "DT_FLOAT"}}}, {"name": "gen/A/blayer1/res2/conv2/Relu", "op": "Relu", "input": ["gen/A/blayer1/res2/conv2/inorm/output/add_1"], "attr": {"T": {"type": "DT_FLOAT"}}}, {"name": "gen/A/deconv2/Shape", "op": "Shape", "input": ["gen/A/blayer1/res2/conv2/Relu"], "attr": {"out_type": {"type": "DT_INT32"}, "T": {"type": "DT_FLOAT"}}}, {"name": "gen/A/deconv2/strided_slice", "op": "StridedSlice", "input": ["gen/A/deconv2/Shape", "gen/A/deconv3/strided_slice/stack", "gen/A/deconv3/strided_slice/stack_1", "gen/A/deconv3/strided_slice/stack_1"], "attr": {"Index": {"type": "DT_INT32"}, "shrink_axis_mask": {"i": "1"}, "new_axis_mask": {"i": "0"}, "end_mask": {"i": "0"}, "T": {"type": "DT_INT32"}, "begin_mask": {"i": "0"}, "ellipsis_mask": {"i": "0"}}}, {"name": "gen/A/deconv2/strided_slice_1", "op": "StridedSlice", "input": ["gen/A/deconv2/Shape", "gen/A/deconv3/strided_slice/stack_1", "gen/A/deconv0/strided_slice_1/stack_1", "gen/A/deconv3/strided_slice/stack_1"], "attr": {"T": {"type": "DT_INT32"}, "begin_mask": {"i": "0"}, "ellipsis_mask": {"i": "0"}, "new_axis_mask": {"i": "0"}, "Index": {"type": "DT_INT32"}, "shrink_axis_mask": {"i": "1"}, "end_mask": {"i": "0"}}}, {"name": "gen/A/deconv2/strided_slice_2", "op": "StridedSlice", "input": ["gen/A/deconv2/Shape", "gen/A/deconv0/strided_slice_1/stack_1", "gen/A/deconv0/strided_slice_2/stack_1", "gen/A/deconv3/strided_slice/stack_1"], "attr": {"end_mask": {"i": "0"}, "new_axis_mask": {"i": "0"}, "T": {"type": "DT_INT32"}, "ellipsis_mask": {"i": "0"}, "begin_mask": {"i": "0"}, "Index": {"type": "DT_INT32"}, "shrink_axis_mask": {"i": "1"}}}, {"name": "gen/A/deconv2/mul", "op": "Mul", "input": ["gen/A/deconv0/mul/y", "gen/A/deconv2/strided_slice_1"], "attr": {"T": {"type": "DT_INT32"}}}, {"name": "gen/A/deconv2/mul_1", "op": "Mul", "input": ["gen/A/deconv0/mul/y", "gen/A/deconv2/strided_slice_2"], "attr": {"T": {"type": "DT_INT32"}}}, {"name": "gen/A/deconv2/stack", "op": "Pack", "input": ["gen/A/deconv2/strided_slice", "gen/A/deconv2/mul", "gen/A/deconv2/mul_1", "gen/A/deconv2/stack/3"], "attr": {"N": {"i": "4"}, "axis": {"i": "0"}, "T": {"type": "DT_INT32"}}}, {"name": "gen/A/deconv2/conv2d_transpose", "op": "Conv2DBackpropInput", "input": ["gen/A/deconv2/stack", "gen/A/deconv2/W", "gen/A/blayer1/res2/conv2/Relu"], "attr": {"use_cudnn_on_gpu": {"b": true}, "explicit_paddings": {"list": {}}, "strides": {"list": {"i": ["1", "2", "2", "1"]}}, "T": {"type": "DT_FLOAT"}, "data_format": {"s": "TkhXQw=="}, "padding": {"s": "U0FNRQ=="}, "dilations": {"list": {"i": ["1", "1", "1", "1"]}}}}, {"name": "gen/A/deconv2/inorm/moments/mean", "op": "Mean", "input": ["gen/A/deconv2/conv2d_transpose", "gen/A/conv1/inorm/moments/mean/reduction_indices"], "attr": {"Tidx": {"type": "DT_INT32"}, "T": {"type": "DT_FLOAT"}, "keep_dims": {"b": true}}}, {"name": "gen/A/deconv2/inorm/moments/SquaredDifference", "op": "SquaredDifference", "input": ["gen/A/deconv2/conv2d_transpose", "gen/A/deconv2/inorm/moments/mean"], "attr": {"T": {"type": "DT_FLOAT"}}}, {"name": "gen/A/deconv2/inorm/moments/variance", "op": "Mean", "input": ["gen/A/deconv2/inorm/moments/SquaredDifference", "gen/A/conv1/inorm/moments/mean/reduction_indices"], "attr": {"Tidx": {"type": "DT_INT32"}, "T": {"type": "DT_FLOAT"}, "keep_dims": {"b": true}}}, {"name": "gen/A/deconv2/inorm/output/add", "op": "AddV2", "input": ["gen/A/conv1/inorm/output/add/y", "gen/A/deconv2/inorm/moments/variance"], "attr": {"T": {"type": "DT_FLOAT"}}}, {"name": "gen/A/deconv2/inorm/output/Rsqrt", "op": "Rsqrt", "input": ["gen/A/deconv2/inorm/output/add"], "attr": {"T": {"type": "DT_FLOAT"}}}, {"name": "gen/A/deconv2/inorm/output/mul", "op": "Mul", "input": ["gen/A/deconv2/inorm/Reshape_1", "gen/A/deconv2/inorm/output/Rsqrt"], "attr": {"T": {"type": "DT_FLOAT"}}}, {"name": "gen/A/deconv2/inorm/output/mul_2", "op": "Mul", "input": ["gen/A/deconv2/inorm/moments/mean", "gen/A/deconv2/inorm/output/mul"], "attr": {"T": {"type": "DT_FLOAT"}}}, {"name": "gen/A/deconv2/inorm/output/mul_1", "op": "Mul", "input": ["gen/A/deconv2/conv2d_transpose", "gen/A/deconv2/inorm/output/mul"], "attr": {"T": {"type": "DT_FLOAT"}}}, {"name": "gen/A/deconv2/inorm/output/sub", "op": "Sub", "input": ["gen/A/deconv2/inorm/Reshape", "gen/A/deconv2/inorm/output/mul_2"], "attr": {"T": {"type": "DT_FLOAT"}}}, {"name": "gen/A/deconv2/inorm/output/add_1", "op": "AddV2", "input": ["gen/A/deconv2/inorm/output/mul_1", "gen/A/deconv2/inorm/output/sub"], "attr": {"T": {"type": "DT_FLOAT"}}}, {"name": "gen/A/deconv2/Relu", "op": "Relu", "input": ["gen/A/deconv2/inorm/output/add_1"], "attr": {"T": {"type": "DT_FLOAT"}}}, {"name": "gen/A/deconv3/Shape", "op": "Shape", "input": ["gen/A/deconv2/Relu"], "attr": {"T": {"type": "DT_FLOAT"}, "out_type": {"type": "DT_INT32"}}}, {"name": "gen/A/deconv3/strided_slice_1", "op": "StridedSlice", "input": ["gen/A/deconv3/Shape", "gen/A/deconv3/strided_slice/stack_1", "gen/A/deconv0/strided_slice_1/stack_1", "gen/A/deconv3/strided_slice/stack_1"], "attr": {"Index": {"type": "DT_INT32"}, "shrink_axis_mask": {"i": "1"}, "new_axis_mask": {"i": "0"}, "end_mask": {"i": "0"}, "T": {"type": "DT_INT32"}, "begin_mask": {"i": "0"}, "ellipsis_mask": {"i": "0"}}}, {"name": "gen/A/deconv3/strided_slice_2", "op": "StridedSlice", "input": ["gen/A/deconv3/Shape", "gen/A/deconv0/strided_slice_1/stack_1", "gen/A/deconv0/strided_slice_2/stack_1", "gen/A/deconv3/strided_slice/stack_1"], "attr": {"end_mask": {"i": "0"}, "new_axis_mask": {"i": "0"}, "T": {"type": "DT_INT32"}, "begin_mask": {"i": "0"}, "ellipsis_mask": {"i": "0"}, "Index": {"type": "DT_INT32"}, "shrink_axis_mask": {"i": "1"}}}, {"name": "gen/A/deconv3/strided_slice", "op": "StridedSlice", "input": ["gen/A/deconv3/Shape", "gen/A/deconv3/strided_slice/stack", "gen/A/deconv3/strided_slice/stack_1", "gen/A/deconv3/strided_slice/stack_1"], "attr": {"Index": {"type": "DT_INT32"}, "shrink_axis_mask": {"i": "1"}, "new_axis_mask": {"i": "0"}, "end_mask": {"i": "0"}, "T": {"type": "DT_INT32"}, "begin_mask": {"i": "0"}, "ellipsis_mask": {"i": "0"}}}, {"name": "gen/A/deconv3/mul", "op": "Mul", "input": ["gen/A/deconv0/mul/y", "gen/A/deconv3/strided_slice_1"], "attr": {"T": {"type": "DT_INT32"}}}, {"name": "gen/A/deconv3/mul_1", "op": "Mul", "input": ["gen/A/deconv0/mul/y", "gen/A/deconv3/strided_slice_2"], "attr": {"T": {"type": "DT_INT32"}}}, {"name": "gen/A/deconv3/stack", "op": "Pack", "input": ["gen/A/deconv3/strided_slice", "gen/A/deconv3/mul", "gen/A/deconv3/mul_1", "gen/A/layer1/res0/concat/axis"], "attr": {"T": {"type": "DT_INT32"}, "N": {"i": "4"}, "axis": {"i": "0"}}}, {"name": "gen/A/deconv3/conv2d_transpose", "op": "Conv2DBackpropInput", "input": ["gen/A/deconv3/stack", "gen/A/deconv3/W", "gen/A/deconv2/Relu"], "attr": {"T": {"type": "DT_FLOAT"}, "explicit_paddings": {"list": {}}, "use_cudnn_on_gpu": {"b": true}, "padding": {"s": "U0FNRQ=="}, "strides": {"list": {"i": ["1", "2", "2", "1"]}}, "data_format": {"s": "TkhXQw=="}, "dilations": {"list": {"i": ["1", "1", "1", "1"]}}}}, {"name": "gen/A/deconv3/Sigmoid", "op": "Sigmoid", "input": ["gen/A/deconv3/conv2d_transpose"], "attr": {"T": {"type": "DT_FLOAT"}}}, {"name": "gen/A/deconv3/output", "op": "Identity", "input": ["gen/A/deconv3/Sigmoid"], "attr": {"T": {"type": "DT_FLOAT"}}}], "library": {}, "versions": {}}, "weightsManifest": [{"paths": ["group1-shard1of51.bin", "group1-shard2of51.bin", "group1-shard3of51.bin", "group1-shard4of51.bin", "group1-shard5of51.bin", "group1-shard6of51.bin", "group1-shard7of51.bin", "group1-shard8of51.bin", "group1-shard9of51.bin", "group1-shard10of51.bin", "group1-shard11of51.bin", "group1-shard12of51.bin", "group1-shard13of51.bin", "group1-shard14of51.bin", "group1-shard15of51.bin", "group1-shard16of51.bin", "group1-shard17of51.bin", "group1-shard18of51.bin", "group1-shard19of51.bin", "group1-shard20of51.bin", "group1-shard21of51.bin", "group1-shard22of51.bin", "group1-shard23of51.bin", "group1-shard24of51.bin", "group1-shard25of51.bin", "group1-shard26of51.bin", "group1-shard27of51.bin", "group1-shard28of51.bin", "group1-shard29of51.bin", "group1-shard30of51.bin", "group1-shard31of51.bin", "group1-shard32of51.bin", "group1-shard33of51.bin", "group1-shard34of51.bin", "group1-shard35of51.bin", "group1-shard36of51.bin", "group1-shard37of51.bin", "group1-shard38of51.bin", "group1-shard39of51.bin", "group1-shard40of51.bin", "group1-shard41of51.bin", "group1-shard42of51.bin", "group1-shard43of51.bin", "group1-shard44of51.bin", "group1-shard45of51.bin", "group1-shard46of51.bin", "group1-shard47of51.bin", "group1-shard48of51.bin", "group1-shard49of51.bin", "group1-shard50of51.bin", "group1-shard51of51.bin"], "weights": [{"name": "gen/A/conv1/W", "shape": [4, 4, 64, 128], "dtype": "float32"}, {"name": "gen/A/conv1/inorm/moments/mean/reduction_indices", "shape": [2], "dtype": "int32"}, {"name": "gen/A/conv1/inorm/Reshape", "shape": [1, 1, 1, 128], "dtype": "float32"}, {"name": "gen/A/conv1/inorm/Reshape_1", "shape": [1, 1, 1, 128], "dtype": "float32"}, {"name": "gen/A/conv1/inorm/output/add/y", "shape": [], "dtype": "float32"}, {"name": "gen/A/layer1/res0/conv0/W", "shape": [3, 3, 128, 128], "dtype": "float32"}, {"name": "gen/A/deconv2/W", "shape": [4, 4, 64, 128], "dtype": "float32"}, {"name": "gen/A/layer1/res0/conv0/inorm/Reshape", "shape": [1, 1, 1, 128], "dtype": "float32"}, {"name": "gen/A/layer1/res0/conv0/inorm/Reshape_1", "shape": [1, 1, 1, 128], "dtype": "float32"}, {"name": "gen/A/layer1/res0/conv1/W", "shape": [3, 3, 128, 128], "dtype": "float32"}, {"name": "gen/A/layer1/res0/conv1/inorm/Reshape", "shape": [1, 1, 1, 128], "dtype": "float32"}, {"name": "gen/A/layer1/res0/conv1/inorm/Reshape_1", "shape": [1, 1, 1, 128], "dtype": "float32"}, {"name": "gen/A/layer1/res0/concat/axis", "shape": [], "dtype": "int32"}, {"name": "gen/A/layer1/res0/conv2/W", "shape": [3, 3, 256, 128], "dtype": "float32"}, {"name": "gen/A/layer1/res0/conv2/inorm/Reshape", "shape": [1, 1, 1, 128], "dtype": "float32"}, {"name": "gen/A/layer1/res0/conv2/inorm/Reshape_1", "shape": [1, 1, 1, 128], "dtype": "float32"}, {"name": "gen/A/layer1/res1/conv0/W", "shape": [3, 3, 128, 128], "dtype": "float32"}, {"name": "gen/A/layer1/res1/conv0/inorm/Reshape", "shape": [1, 1, 1, 128], "dtype": "float32"}, {"name": "gen/A/layer1/res1/conv0/inorm/Reshape_1", "shape": [1, 1, 1, 128], "dtype": "float32"}, {"name": "gen/A/layer1/res1/conv1/W", "shape": [3, 3, 128, 128], "dtype": "float32"}, {"name": "gen/A/layer1/res1/conv1/inorm/Reshape", "shape": [1, 1, 1, 128], "dtype": "float32"}, {"name": "gen/A/layer1/res1/conv1/inorm/Reshape_1", "shape": [1, 1, 1, 128], "dtype": "float32"}, {"name": "gen/A/layer1/res1/conv2/W", "shape": [3, 3, 256, 128], "dtype": "float32"}, {"name": "gen/A/layer1/res1/conv2/inorm/Reshape", "shape": [1, 1, 1, 128], "dtype": "float32"}, {"name": "gen/A/layer1/res1/conv2/inorm/Reshape_1", "shape": [1, 1, 1, 128], "dtype": "float32"}, {"name": "gen/A/layer1/res2/conv0/W", "shape": [3, 3, 128, 128], "dtype": "float32"}, {"name": "gen/A/layer1/res2/conv0/inorm/Reshape", "shape": [1, 1, 1, 128], "dtype": "float32"}, {"name": "gen/A/layer1/res2/conv0/inorm/Reshape_1", "shape": [1, 1, 1, 128], "dtype": "float32"}, {"name": "gen/A/layer1/res2/conv1/W", "shape": [3, 3, 128, 128], "dtype": "float32"}, {"name": "gen/A/layer1/res2/conv1/inorm/Reshape", "shape": [1, 1, 1, 128], "dtype": "float32"}, {"name": "gen/A/layer1/res2/conv1/inorm/Reshape_1", "shape": [1, 1, 1, 128], "dtype": "float32"}, {"name": "gen/A/layer1/res2/conv2/W", "shape": [3, 3, 256, 128], "dtype": "float32"}, {"name": "gen/A/layer1/res2/conv2/inorm/Reshape", "shape": [1, 1, 1, 128], "dtype": "float32"}, {"name": "gen/A/layer1/res2/conv2/inorm/Reshape_1", "shape": [1, 1, 1, 128], "dtype": "float32"}, {"name": "gen/A/conv2/W", "shape": [4, 4, 128, 256], "dtype": "float32"}, {"name": "gen/A/conv2/inorm/Reshape", "shape": [1, 1, 1, 256], "dtype": "float32"}, {"name": "gen/A/conv2/inorm/Reshape_1", "shape": [1, 1, 1, 256], "dtype": "float32"}, {"name": "gen/A/layer2/res0/conv0/W", "shape": [3, 3, 256, 256], "dtype": "float32"}, {"name": "gen/A/deconv2/inorm/Reshape", "shape": [1, 1, 1, 64], "dtype": "float32"}, {"name": "gen/A/layer2/res0/conv0/inorm/Reshape", "shape": [1, 1, 1, 256], "dtype": "float32"}, {"name": "gen/A/layer2/res0/conv0/inorm/Reshape_1", "shape": [1, 1, 1, 256], "dtype": "float32"}, {"name": "gen/A/layer2/res0/conv1/W", "shape": [3, 3, 256, 256], "dtype": "float32"}, {"name": "gen/A/layer2/res0/conv1/inorm/Reshape", "shape": [1, 1, 1, 256], "dtype": "float32"}, {"name": "gen/A/layer2/res0/conv1/inorm/Reshape_1", "shape": [1, 1, 1, 256], "dtype": "float32"}, {"name": "gen/A/layer2/res0/conv2/W", "shape": [3, 3, 512, 256], "dtype": "float32"}, {"name": "gen/A/layer2/res0/conv2/inorm/Reshape", "shape": [1, 1, 1, 256], "dtype": "float32"}, {"name": "gen/A/layer2/res0/conv2/inorm/Reshape_1", "shape": [1, 1, 1, 256], "dtype": "float32"}, {"name": "gen/A/layer2/res1/conv0/W", "shape": [3, 3, 256, 256], "dtype": "float32"}, {"name": "gen/A/deconv2/inorm/Reshape_1", "shape": [1, 1, 1, 64], "dtype": "float32"}, {"name": "gen/A/layer2/res1/conv0/inorm/Reshape", "shape": [1, 1, 1, 256], "dtype": "float32"}, {"name": "gen/A/layer2/res1/conv0/inorm/Reshape_1", "shape": [1, 1, 1, 256], "dtype": "float32"}, {"name": "gen/A/layer2/res1/conv1/W", "shape": [3, 3, 256, 256], "dtype": "float32"}, {"name": "gen/A/layer2/res1/conv1/inorm/Reshape", "shape": [1, 1, 1, 256], "dtype": "float32"}, {"name": "gen/A/layer2/res1/conv1/inorm/Reshape_1", "shape": [1, 1, 1, 256], "dtype": "float32"}, {"name": "gen/A/layer2/res1/conv2/W", "shape": [3, 3, 512, 256], "dtype": "float32"}, {"name": "gen/A/layer2/res1/conv2/inorm/Reshape", "shape": [1, 1, 1, 256], "dtype": "float32"}, {"name": "gen/A/layer2/res1/conv2/inorm/Reshape_1", "shape": [1, 1, 1, 256], "dtype": "float32"}, {"name": "gen/A/layer2/res2/conv0/W", "shape": [3, 3, 256, 256], "dtype": "float32"}, {"name": "gen/A/layer2/res2/conv0/inorm/Reshape", "shape": [1, 1, 1, 256], "dtype": "float32"}, {"name": "gen/A/layer2/res2/conv0/inorm/Reshape_1", "shape": [1, 1, 1, 256], "dtype": "float32"}, {"name": "gen/A/layer2/res2/conv1/W", "shape": [3, 3, 256, 256], "dtype": "float32"}, {"name": "gen/A/layer2/res2/conv1/inorm/Reshape", "shape": [1, 1, 1, 256], "dtype": "float32"}, {"name": "gen/A/layer2/res2/conv1/inorm/Reshape_1", "shape": [1, 1, 1, 256], "dtype": "float32"}, {"name": "gen/A/layer2/res2/conv2/W", "shape": [3, 3, 512, 256], "dtype": "float32"}, {"name": "gen/A/layer2/res2/conv2/inorm/Reshape", "shape": [1, 1, 1, 256], "dtype": "float32"}, {"name": "gen/A/layer2/res2/conv2/inorm/Reshape_1", "shape": [1, 1, 1, 256], "dtype": "float32"}, {"name": "gen/A/conv3/W", "shape": [4, 4, 256, 512], "dtype": "float32"}, {"name": "gen/A/conv3/inorm/Reshape", "shape": [1, 1, 1, 512], "dtype": "float32"}, {"name": "gen/A/conv3/inorm/Reshape_1", "shape": [1, 1, 1, 512], "dtype": "float32"}, {"name": "gen/A/layer3/res0/conv0/W", "shape": [3, 3, 512, 512], "dtype": "float32"}, {"name": "gen/A/layer3/res0/conv0/inorm/Reshape", "shape": [1, 1, 1, 512], "dtype": "float32"}, {"name": "gen/A/layer3/res0/conv0/inorm/Reshape_1", "shape": [1, 1, 1, 512], "dtype": "float32"}, {"name": "gen/A/layer3/res0/conv1/W", "shape": [3, 3, 512, 512], "dtype": "float32"}, {"name": "gen/A/layer3/res0/conv1/inorm/Reshape", "shape": [1, 1, 1, 512], "dtype": "float32"}, {"name": "gen/A/layer3/res0/conv1/inorm/Reshape_1", "shape": [1, 1, 1, 512], "dtype": "float32"}, {"name": "gen/A/layer3/res0/conv2/W", "shape": [3, 3, 1024, 512], "dtype": "float32"}, {"name": "gen/A/layer3/res0/conv2/inorm/Reshape", "shape": [1, 1, 1, 512], "dtype": "float32"}, {"name": "gen/A/layer3/res0/conv2/inorm/Reshape_1", "shape": [1, 1, 1, 512], "dtype": "float32"}, {"name": "gen/A/layer3/res1/conv0/W", "shape": [3, 3, 512, 512], "dtype": "float32"}, {"name": "gen/A/layer3/res1/conv0/inorm/Reshape", "shape": [1, 1, 1, 512], "dtype": "float32"}, {"name": "gen/A/layer3/res1/conv0/inorm/Reshape_1", "shape": [1, 1, 1, 512], "dtype": "float32"}, {"name": "gen/A/layer3/res1/conv1/W", "shape": [3, 3, 512, 512], "dtype": "float32"}, {"name": "gen/A/deconv3/strided_slice/stack", "shape": [1], "dtype": "int32"}, {"name": "gen/A/layer3/res1/conv1/inorm/Reshape", "shape": [1, 1, 1, 512], "dtype": "float32"}, {"name": "gen/A/layer3/res1/conv1/inorm/Reshape_1", "shape": [1, 1, 1, 512], "dtype": "float32"}, {"name": "gen/A/layer3/res1/conv2/W", "shape": [3, 3, 1024, 512], "dtype": "float32"}, {"name": "gen/A/deconv3/strided_slice/stack_1", "shape": [1], "dtype": "int32"}, {"name": "gen/A/layer3/res1/conv2/inorm/Reshape", "shape": [1, 1, 1, 512], "dtype": "float32"}, {"name": "gen/A/layer3/res1/conv2/inorm/Reshape_1", "shape": [1, 1, 1, 512], "dtype": "float32"}, {"name": "gen/A/layer3/res2/conv0/W", "shape": [3, 3, 512, 512], "dtype": "float32"}, {"name": "gen/A/layer3/res2/conv0/inorm/Reshape", "shape": [1, 1, 1, 512], "dtype": "float32"}, {"name": "gen/A/layer3/res2/conv0/inorm/Reshape_1", "shape": [1, 1, 1, 512], "dtype": "float32"}, {"name": "gen/A/layer3/res2/conv1/W", "shape": [3, 3, 512, 512], "dtype": "float32"}, {"name": "gen/A/layer3/res2/conv1/inorm/Reshape", "shape": [1, 1, 1, 512], "dtype": "float32"}, {"name": "gen/A/layer3/res2/conv1/inorm/Reshape_1", "shape": [1, 1, 1, 512], "dtype": "float32"}, {"name": "gen/A/layer3/res2/conv2/W", "shape": [3, 3, 1024, 512], "dtype": "float32"}, {"name": "gen/A/layer3/res2/conv2/inorm/Reshape", "shape": [1, 1, 1, 512], "dtype": "float32"}, {"name": "gen/A/layer3/res2/conv2/inorm/Reshape_1", "shape": [1, 1, 1, 512], "dtype": "float32"}, {"name": "gen/A/deconv0/strided_slice_1/stack_1", "shape": [1], "dtype": "int32"}, {"name": "gen/A/deconv0/mul/y", "shape": [], "dtype": "int32"}, {"name": "gen/A/deconv0/strided_slice_2/stack_1", "shape": [1], "dtype": "int32"}, {"name": "gen/A/deconv0/stack/3", "shape": [], "dtype": "int32"}, {"name": "gen/A/deconv0/W", "shape": [4, 4, 256, 512], "dtype": "float32"}, {"name": "gen/A/deconv0/inorm/Reshape", "shape": [1, 1, 1, 256], "dtype": "float32"}, {"name": "gen/A/deconv0/inorm/Reshape_1", "shape": [1, 1, 1, 256], "dtype": "float32"}, {"name": "gen/A/blayer2/res0/conv0/W", "shape": [3, 3, 512, 256], "dtype": "float32"}, {"name": "gen/A/blayer2/res0/conv0/inorm/Reshape", "shape": [1, 1, 1, 256], "dtype": "float32"}, {"name": "gen/A/blayer2/res0/conv0/inorm/Reshape_1", "shape": [1, 1, 1, 256], "dtype": "float32"}, {"name": "gen/A/blayer2/res0/conv1/W", "shape": [3, 3, 256, 256], "dtype": "float32"}, {"name": "gen/A/blayer2/res0/conv1/inorm/Reshape", "shape": [1, 1, 1, 256], "dtype": "float32"}, {"name": "gen/A/blayer2/res0/conv1/inorm/Reshape_1", "shape": [1, 1, 1, 256], "dtype": "float32"}, {"name": "gen/A/blayer2/res0/conv2/W", "shape": [3, 3, 768, 256], "dtype": "float32"}, {"name": "gen/A/blayer2/res0/conv2/inorm/Reshape", "shape": [1, 1, 1, 256], "dtype": "float32"}, {"name": "gen/A/blayer2/res0/conv2/inorm/Reshape_1", "shape": [1, 1, 1, 256], "dtype": "float32"}, {"name": "gen/A/blayer2/res1/conv0/W", "shape": [3, 3, 256, 256], "dtype": "float32"}, {"name": "gen/A/blayer2/res1/conv0/inorm/Reshape", "shape": [1, 1, 1, 256], "dtype": "float32"}, {"name": "gen/A/blayer2/res1/conv0/inorm/Reshape_1", "shape": [1, 1, 1, 256], "dtype": "float32"}, {"name": "gen/A/blayer2/res1/conv1/W", "shape": [3, 3, 256, 256], "dtype": "float32"}, {"name": "gen/A/blayer2/res1/conv1/inorm/Reshape", "shape": [1, 1, 1, 256], "dtype": "float32"}, {"name": "gen/A/blayer2/res1/conv1/inorm/Reshape_1", "shape": [1, 1, 1, 256], "dtype": "float32"}, {"name": "gen/A/blayer2/res1/conv2/W", "shape": [3, 3, 512, 256], "dtype": "float32"}, {"name": "gen/A/blayer2/res1/conv2/inorm/Reshape", "shape": [1, 1, 1, 256], "dtype": "float32"}, {"name": "gen/A/blayer2/res1/conv2/inorm/Reshape_1", "shape": [1, 1, 1, 256], "dtype": "float32"}, {"name": "gen/A/blayer2/res2/conv0/W", "shape": [3, 3, 256, 256], "dtype": "float32"}, {"name": "gen/A/blayer2/res2/conv0/inorm/Reshape", "shape": [1, 1, 1, 256], "dtype": "float32"}, {"name": "gen/A/blayer2/res2/conv0/inorm/Reshape_1", "shape": [1, 1, 1, 256], "dtype": "float32"}, {"name": "gen/A/blayer2/res2/conv1/W", "shape": [3, 3, 256, 256], "dtype": "float32"}, {"name": "gen/A/blayer2/res2/conv1/inorm/Reshape", "shape": [1, 1, 1, 256], "dtype": "float32"}, {"name": "gen/A/blayer2/res2/conv1/inorm/Reshape_1", "shape": [1, 1, 1, 256], "dtype": "float32"}, {"name": "gen/A/blayer2/res2/conv2/W", "shape": [3, 3, 512, 256], "dtype": "float32"}, {"name": "gen/A/blayer2/res2/conv2/inorm/Reshape", "shape": [1, 1, 1, 256], "dtype": "float32"}, {"name": "gen/A/blayer2/res2/conv2/inorm/Reshape_1", "shape": [1, 1, 1, 256], "dtype": "float32"}, {"name": "gen/A/deconv1/stack/3", "shape": [], "dtype": "int32"}, {"name": "gen/A/deconv1/W", "shape": [4, 4, 128, 256], "dtype": "float32"}, {"name": "gen/A/deconv1/inorm/Reshape", "shape": [1, 1, 1, 128], "dtype": "float32"}, {"name": "gen/A/deconv1/inorm/Reshape_1", "shape": [1, 1, 1, 128], "dtype": "float32"}, {"name": "gen/A/blayer1/res0/conv0/W", "shape": [3, 3, 256, 128], "dtype": "float32"}, {"name": "gen/A/blayer1/res0/conv0/inorm/Reshape", "shape": [1, 1, 1, 128], "dtype": "float32"}, {"name": "gen/A/blayer1/res0/conv0/inorm/Reshape_1", "shape": [1, 1, 1, 128], "dtype": "float32"}, {"name": "gen/A/blayer1/res0/conv1/W", "shape": [3, 3, 128, 128], "dtype": "float32"}, {"name": "gen/A/blayer1/res0/conv1/inorm/Reshape", "shape": [1, 1, 1, 128], "dtype": "float32"}, {"name": "gen/A/blayer1/res0/conv1/inorm/Reshape_1", "shape": [1, 1, 1, 128], "dtype": "float32"}, {"name": "gen/A/blayer1/res0/conv2/W", "shape": [3, 3, 384, 128], "dtype": "float32"}, {"name": "gen/A/blayer1/res0/conv2/inorm/Reshape", "shape": [1, 1, 1, 128], "dtype": "float32"}, {"name": "gen/A/blayer1/res0/conv2/inorm/Reshape_1", "shape": [1, 1, 1, 128], "dtype": "float32"}, {"name": "gen/A/blayer1/res1/conv0/W", "shape": [3, 3, 128, 128], "dtype": "float32"}, {"name": "gen/A/blayer1/res1/conv0/inorm/Reshape", "shape": [1, 1, 1, 128], "dtype": "float32"}, {"name": "gen/A/blayer1/res1/conv0/inorm/Reshape_1", "shape": [1, 1, 1, 128], "dtype": "float32"}, {"name": "gen/A/blayer1/res1/conv1/W", "shape": [3, 3, 128, 128], "dtype": "float32"}, {"name": "gen/A/blayer1/res1/conv1/inorm/Reshape", "shape": [1, 1, 1, 128], "dtype": "float32"}, {"name": "gen/A/blayer1/res1/conv1/inorm/Reshape_1", "shape": [1, 1, 1, 128], "dtype": "float32"}, {"name": "gen/A/blayer1/res1/conv2/W", "shape": [3, 3, 256, 128], "dtype": "float32"}, {"name": "gen/A/blayer1/res1/conv2/inorm/Reshape", "shape": [1, 1, 1, 128], "dtype": "float32"}, {"name": "gen/A/blayer1/res1/conv2/inorm/Reshape_1", "shape": [1, 1, 1, 128], "dtype": "float32"}, {"name": "gen/A/blayer1/res2/conv0/W", "shape": [3, 3, 128, 128], "dtype": "float32"}, {"name": "gen/A/deconv3/W", "shape": [4, 4, 3, 64], "dtype": "float32"}, {"name": "gen/A/blayer1/res2/conv0/inorm/Reshape", "shape": [1, 1, 1, 128], "dtype": "float32"}, {"name": "gen/A/blayer1/res2/conv0/inorm/Reshape_1", "shape": [1, 1, 1, 128], "dtype": "float32"}, {"name": "gen/A/blayer1/res2/conv1/W", "shape": [3, 3, 128, 128], "dtype": "float32"}, {"name": "gen/A/blayer1/res2/conv1/inorm/Reshape", "shape": [1, 1, 1, 128], "dtype": "float32"}, {"name": "gen/A/blayer1/res2/conv1/inorm/Reshape_1", "shape": [1, 1, 1, 128], "dtype": "float32"}, {"name": "gen/A/blayer1/res2/conv2/W", "shape": [3, 3, 256, 128], "dtype": "float32"}, {"name": "gen/A/blayer1/res2/conv2/inorm/Reshape", "shape": [1, 1, 1, 128], "dtype": "float32"}, {"name": "gen/A/blayer1/res2/conv2/inorm/Reshape_1", "shape": [1, 1, 1, 128], "dtype": "float32"}, {"name": "gen/A/deconv2/stack/3", "shape": [], "dtype": "int32"}, {"name": "gen/A/conv0/ArithmeticOptimizer/FoldMultiplyIntoConv_scaled_gen/A/conv0/Conv2D_W", "shape": [4, 4, 3, 64], "dtype": "float32"}]}]}